trained_models/table5_pidinet-tiny-l.pth (torch, 310808 bytes, 42 tensors)

module.init_block.weight f4 [20, 3, 3, 3]
000000 17 d6 50 be 61 73 84 3e 6d 4a e2 bd 04 2f 3d 3e
       -0.20394169 0.25869277 -0.11049352 0.18474966
000010 48 6b f2 3c d4 fc 9b 3e b7 20 be 3b 04 97 59 3e
       0.029592171 0.3046633 0.0058022398 0.21249014
000020 1b 29 af bd 91 60 9e 3f f6 39 9e 3e 95 62 97 bd
       -0.08552762 1.237322 0.30903596 -0.0739185
000030 9d 64 dd 3e 36 25 a4 bb f3 56 4d bf d0 df fd 3d
       0.43240824 -0.0050093187 -0.802108 0.123962045
000040 60 eb 20 bf 59 13 90 bf 7b d9 8b bf 9d e1 0f bf
       -0.62859154 -1.1255904 -1.0925745 -0.56203634
000050 85 1d 6f 3e 76 93 2c bf a0 fb fd bc 10 b0 0d 3f
       0.23351105 -0.6741251 -0.031003773 0.55346775
000060 54 2c 07 be 36 b3 d1 3e 69 f6 a1 3f 9b ed ab bd
       -0.13200504 0.4095704 1.2653323 -0.08394929
000070 b1 d4 fe bd 95 b0 23 bd 1c 54 30 be 99 3a 25 3c
       -0.124429114 -0.039963324 -0.17219585 0.010084772
000080 91 d7 ef 3d 3b 80 fe bc 17 8d b6 3d ba 58 ea 3d
       0.11711038 -0.031067004 0.089136295 0.114427045
000090 d8 b8 42 be 8e 0e ca bd 39 ea 2c bc b2 86 12 be
       -0.19015825 -0.09866057 -0.01055389 -0.14309195
0000a0 5e c7 c7 bb ab fb 00 3e ac 85 30 3d 2d 7d 49 3e
       -0.0060967645 0.12596004 0.04309623 0.19676657
0000b0 6c 56 db 3d 8a e7 30 bd 49 49 ce bd 65 ee 85 3c
       0.10709843 -0.043189563 -0.10072572 0.016349027
0000c0 2b 7a 8c bd c4 38 e8 bb af 1f 98 3d c8 90 0b bc
       -0.06859239 -0.007086845 0.07427918 -0.008518405
0000d0 56 1d b8 3d ec a5 86 3d b8 a2 2c 3f 73 c6 cd 3e
       0.089899704 0.06574616 0.6743579 0.40190467
0000e0 4a 1b e1 3d 66 fc c5 3e 2b 60 80 3b 99 49 95 be
       0.10991533 0.38669127 0.003917714 -0.29157713
0000f0 18 43 84 3d b3 ea d9 be 6a 10 5d bf a0 bd 6f bf
       0.064581096 -0.42561874 -0.8635317 -0.9364872
000100 b5 15 06 bf 86 09 1f 3c 5f 94 f6 be 63 a4 51 3b
       -0.5237687 0.00970686 -0.48160073 0.0031988851
000110 3a b8 dd 3e 07 86 29 bd e2 66 0a 3f be b2 72 3f
       0.43304616 -0.041387584 0.54063237 0.9480399
000120 54 bb 95 3e 05 91 03 3e d7 50 f4 bd 2f 2b a6 3d
       0.29244483 0.1284829 -0.119294815 0.08113705
000130 45 f4 a0 bd a7 4c 0f be 1f 8e c2 bc 0d 30 ed bd
       -0.07859091 -0.13994084 -0.02374941 -0.115814306
000140 8e e6 d4 bd f2 8b 30 bd 76 3c ed bc 01 49 8d 3d
       -0.10395537 -0.043102212 -0.028959494 0.0689869
000150 02 7c f3 3d 69 06 17 bc 7f 43 79 be 36 d1 3c 3d
       0.11888887 -0.009217837 -0.24342154 0.046097957
000160 2a 70 21 bd 55 68 8e 3c 6d 5b 26 bc d3 f2 ed 3e
       -0.03941361 0.017383734 -0.010153634 0.46474323
000170 39 a3 86 3f 87 05 ee be 20 bc 45 3d 71 77 17 3f
       1.0518562 -0.46488592 0.048275113 0.5916663
000180 7d 95 7a bf 01 2b 0f bf 7a f4 c1 bd e5 57 5f 3d
       -0.9788435 -0.55924994 -0.09470458 0.054527182
000190 ee 14 ec be 3c 16 93 bf c3 65 c4 3e 66 16 72 bd
       -0.46109718 -1.149116 0.38358888 -0.059103392
0001a0 81 96 c6 be c9 6a 74 3f 6d 4e 1f 3f 1f 42 b4 3d
       -0.387867 0.9547544 0.62229043 0.08801674
0001b0 62 c8 8a bd 35 a9 ad 3d b6 29 cc 3c 24 ee 0d bd
       -0.06776501 0.08479539 0.024922233 -0.034650937
0001c0 74 22 fd bc 08 0e 05 3d ce fe 90 bd cc 47 b8 bc
       -0.030900218 0.032484084 -0.0707985 -0.022495173
0001d0 6f 59 c0 3d b3 98 f0 3c 84 d3 72 be c5 f5 c1 3d
       0.09392058 0.029369688 -0.237135 0.09470705
0001e0 19 e2 7b be b3 8b 17 3e 77 f1 52 3e 91 32 b6 bd
       -0.24597968 0.14799385 0.20599924 -0.088963635
0001f0 66 a8 14 3e 04 ed 01 3d 48 5f d7 3c 1c 81 0e 3c
       0.14517364 0.031720176 0.02629055 0.008697774
000200 bd c0 a2 bb c0 87 ab 3c e0 cc 90 ba 72 62 49 3d
       -0.004966824 0.020938754 -0.0011047386 0.04916615
000210 d9 43 b6 bd 1d 43 9b 3d a7 97 11 3d 39 4c b2 bd
       -0.0889966 0.0758116 0.035545018 -0.087059446
000220 90 bd 13 bd 73 a0 d4 3d ec e1 70 be eb e8 0a 3d
       -0.036069453 0.10382166 -0.23523682 0.033913534
000230 37 70 7d 3e 84 ef 01 be ee bc 80 3d cd 4d 8b 3d
       0.24749838 -0.12689024 0.062860355 0.06801949
000240 cb 7d 82 be dd 91 18 3d 8f 76 76 3e 43 a1 8e be
       -0.25486597 0.03724848 0.24068664 -0.27857408
000250 0a 52 87 3c 08 0a 09 3e 69 04 9d be 48 80 f5 3c
       0.016518611 0.13382733 -0.30667427 0.029968396
000260 9a e8 85 3e 7f 5e 05 be f3 ca 2c 3d fe ee a1 3d
       0.26154023 -0.13024329 0.042185735 0.07906912
000270 98 de 24 be 01 b4 43 3d 46 04 3a 3e 94 ad 6b bd
       -0.16100538 0.047779087 0.18165693 -0.057538584
000280 12 77 85 bc 15 bc d5 3d e0 e6 f5 3e 6f 9c 61 be
       -0.016292129 0.104362644 0.48027706 -0.22032331
000290 1c 4f 7f bf e0 dc 39 3f 83 d8 60 bd 8f 29 32 bf
       -0.99730086 0.72602654 -0.05489398 -0.69594663
0002a0 20 60 8c 3f 3a cc 0a 3e 48 51 04 bf 47 50 dc be
       1.0966835 0.13554469 -0.51686525 -0.43029997
0002b0 bc 75 01 3c 51 cd af 3d ba a0 8d be 04 1c bc 3b
       0.007901605 0.08584083 -0.27661687 0.0057406444
0002c0 87 9e e2 3e 5b 34 8f be 55 7a 5d 3e b5 cb da 3e
       0.44261572 -0.27969632 0.21628697 0.4273354
0002d0 a6 4a 29 bd 53 3e 42 3e 09 b2 6b 3f 92 cc e4 be
       -0.041330956 0.18969087 0.92068535 -0.44687325
0002e0 9b 2e c6 bc d9 b3 8b 3e 1f 2d 49 bf ec 44 b5 be
       -0.024192145 0.2728565 -0.78584474 -0.35404146
0002f0 21 31 6d 3d 9d 4a a4 bd 66 67 05 be 21 e2 73 bd
       0.05790818 -0.08022044 -0.13027725 -0.059541825
000300 00 7c b6 3d be a9 f0 bc 42 84 d6 3b b4 95 e2 3c
       0.0891037 -0.029377814 0.006546528 0.027659275
000310 11 9e a1 3d 9a a0 2c 3e d8 29 4b be 45 47 4e be
       0.07891477 0.1685814 -0.19840181 -0.20144375
000320 d0 0f 0e 3c a4 23 38 be 5c b5 05 3d 30 b8 5d 3e
       0.008670762 -0.17982346 0.03264366 0.21652293
000330 0a 19 83 bd 3c 69 fa 3d 77 b6 87 3e 2d ef 6e 3d
       -0.0640126 0.12227103 0.26506397 0.058333565
000340 90 cd 07 bd 6c 6e bc bd cb 07 a8 bd 65 5f 4c 3c
       -0.033155024 -0.09200749 -0.082046114 0.012473916
000350 d0 89 f5 3c 8c 8c 1f 3d 7f 03 bf 3d 18 73 be bc
       0.02997294 0.038952395 0.09326839 -0.02324824
000360 e8 9a d1 3d 68 67 9a bc 5e 2f 12 3e b5 cf df bc
       0.10234624 -0.018848136 0.14275882 -0.027320722
000370 4c 9c 74 3b 98 50 44 bc 4c 0c a3 3b cb 3f 03 bd
       0.0037324606 -0.011982106 0.004975831 -0.03204326
000380 3e 2f 00 bd 9b 7e 79 be 33 9d 8f bd 7b e3 f8 bc
       -0.031295054 -0.24364702 -0.07012405 -0.030381909
000390 ab b6 ec 3b 2a a2 53 bd 8c 52 2d 3e e4 e3 bc 3c
       0.007223924 -0.051668324 0.1692602 0.023057885
0003a0 b2 47 f3 3c 8b 29 b4 bd 7d bd a7 be 65 1d 22 be
       0.029697273 -0.08796986 -0.32761756 -0.15831526
0003b0 f4 29 22 3d 82 83 98 be 24 f8 57 3c 59 af 46 3e
       0.03959079 -0.29787832 0.01318172 0.19402827
0003c0 02 97 5b 3d ec e0 77 3e 93 2e 9f 3e 47 28 90 bd
       0.05361081 0.24206895 0.3109022 -0.07038932
0003d0 2a 35 18 3e 9f 36 7f 3e 7a f4 79 be 57 07 e5 bc
       0.1486403 0.2492318 -0.24409667 -0.027957601
0003e0 38 d2 3c 3e e5 d5 55 be 81 9b 5e bd 8c ea 79 3d
       0.18439567 -0.20882376 -0.05434752 0.061014697
0003f0 6f 57 e7 bc 6a 03 05 3e b7 18 7f 3e 68 0e 87 be
       -0.028239934 0.12989584 0.24911772 -0.2637818

module.block1_1.conv1.weight f4 [20, 1, 3, 3]
000000 a2 33 9e be c0 1a 38 3d ae d2 9d be 1c 18 cf 3d
       -0.30898768 0.044947386 -0.30824798 0.101120204
000010 35 02 01 00 c6 c7 73 3e e9 1f 6c be 6e ed 69 3d
       9.2627e-41 0.23806676 -0.23059048 0.057111196
000020 f6 11 c0 be 66 13 b4 3e 11 d5 47 be 61 88 b4 bc
       -0.37513703 0.3517105 -0.19514872 -0.022037687
000030 f2 23 e1 bd 81 4c 01 80 0e d6 a3 bd a3 75 8b 3b
       -0.10993184 -1.1928e-40 -0.07999812 0.0042559667
000040 d5 e8 80 bd 5c 24 6e 3e e7 86 0c bd e1 90 da 3d
       -0.06294409 0.23256058 -0.03430834 0.10672165
000050 0e 83 a7 be 97 f8 6a 3e 6e 2b 01 00 7c fb 42 3e
       -0.32717174 0.22946392 1.07415e-40 0.19041246
000060 6b fe b4 be 45 b0 4a 3e 73 51 21 be 56 f6 6c be
       -0.35350356 0.19793804 -0.15753727 -0.23140845
000070 22 9b 88 3e 48 54 23 be 2d b5 88 3e ca 7d 00 80
       0.26680857 -0.1595012 0.26700726 -4.5125e-41
000080 3d 27 5d 3e 83 96 9a be 66 4b 8c 3e e4 bb 8a be
       0.21597 -0.30192956 0.27401274 -0.27096474
000090 3d 80 87 3e 39 06 f7 3c 1c 7d 06 be b5 b4 cc 3d
       0.26465026 0.030154334 -0.13133663 0.09995405
0000a0 38 2d 00 00 21 a7 be be 2e 53 62 be bd 66 94 be
       1.6221e-41 -0.37236884 -0.22102043 -0.28984633
0000b0 7c db cb be c3 39 46 be 22 3f 12 bd 45 ce 60 3e
       -0.3981589 -0.19357972 -0.03570474 0.21953686
0000c0 8c 33 ea be 5b 27 01 00 87 cc 30 3e 0d 1c d9 be
       -0.45742452 1.05954e-40 0.17265521 -0.42404214
0000d0 ca d1 46 be dd 6f 19 bd 10 29 04 be 85 bf 61 3e
       -0.19415966 -0.037460197 -0.12906289 0.22045715
0000e0 48 0b 50 be 00 4c aa 3e e1 e8 00 00 93 b6 a0 3e
       -0.20316803 0.33261108 8.3541e-41 0.31389293
0000f0 54 d9 87 be e6 62 82 3e 01 a7 02 be 61 5c 21 be
       -0.26532996 0.2546608 -0.1275902 -0.15757896
000100 59 68 a5 3c fb 49 97 bd dc c2 8c 3e 75 ee 00 80
       0.020191358 -0.073871575 0.27492416 -8.5542e-41
000110 a7 b3 36 3e e8 74 43 be da 13 e9 bd 0a dd 61 be
       0.1784197 -0.19087565 -0.113807395 -0.22056976
000120 1c 30 de bd fb 5d 42 3d a0 1d a5 ba 2f b5 45 3c
       -0.1084902 0.047452908 -0.001259733 0.012067123
000130 8e 01 01 00 1b cd a8 3b 50 b8 b5 bc 31 40 38 3e
       9.2393e-41 0.0051514036 -0.022182614 0.17993237
000140 8b f9 c6 be cc 3a 66 be 06 99 8a be f6 ed d1 be
       -0.3886226 -0.22483367 -0.27069873 -0.41001862
000150 18 c6 15 bd 0f e4 00 00 fe 5f 5f be f1 20 29 3e
       -0.03656587 8.1812e-41 -0.21813962 0.16516472
000160 98 b5 5c 3c 1e bf 08 bd b9 b9 a8 3d 54 cc 5e 3b
       0.01347103 -0.03338539 0.08238549 0.00339963
000170 83 80 6c be 2a 4a 20 3e f0 43 01 80 70 ac 92 be
       -0.23095898 0.15653291 -1.16207e-40 -0.28647184
000180 cd b5 d2 3d 23 2a 1d 3e 1f f3 5a 3b 35 8d e0 be
       0.10288582 0.15348105 0.0033409072 -0.43857732
000190 49 fa 3f 3e e7 2c 8f be 9c 57 0c 3e ff 30 01 80
       0.1874782 -0.27963945 0.13705295 -1.09412e-40
0001a0 75 4a 07 3e 70 b0 9c be f2 b4 f0 3d 9d 7c ca be
       0.13211997 -0.3060336 0.117532626 -0.39548197
0001b0 39 2e 6a 3e fe 10 fd bd 8e d7 e6 bc e3 1d 53 3a
       0.22869195 -0.12356757 -0.028178956 0.00080534647
0001c0 72 ed 00 80 b5 d6 72 be 5e 8b d1 bd 09 bc d1 be
       -8.518e-41 -0.23714717 -0.1023166 -0.40963772
0001d0 71 cf 06 be ae 88 75 3e 1c bd 23 be ef ed 93 3e
       -0.1316507 0.2397792 -0.15990108 0.28892466
0001e0 d8 22 0b be f9 52 00 00 e6 2c 19 be f7 67 8f 3e
       -0.1358751 2.9765e-41 -0.14958534 0.28009006
0001f0 f2 ec 19 be b1 c2 90 3e e9 a3 f3 bd 28 35 b7 3d
       -0.15031794 0.28273538 -0.11896498 0.089456856
000200 41 18 a3 be 6d ab ce 3c e9 bc 00 00 b2 4b 0f be
       -0.31854442 0.025228227 6.7768e-41 -0.13993719
000210 64 c6 9c be b2 89 11 3e dc b7 7c be 67 0b 23 be
       -0.3062011 0.14212683 -0.24679512 -0.15922318
000220 b9 87 a6 bd ee a3 a9 bd 18 0d d0 3e 7f f3 00 00
       -0.08131356 -0.0828322 0.4063499 8.735e-41
000230 14 e2 a0 be a7 93 13 3e 28 24 f3 3d 97 60 44 3e
       -0.31422484 0.14411794 0.11872131 0.19177471
000240 71 7e 43 3e 0e 9f 21 be e1 60 8c 3e 26 37 9d 3e
       0.19091202 -0.15783331 0.27417663 0.30706137
000250 77 e0 00 00 1d 5e 52 bb f5 95 40 be ab 4e 54 3e
       8.0523e-41 -0.0032099553 -0.18807204 0.20733134
000260 af 6b a8 bd 78 39 75 3e f4 b3 9c 3d d9 78 0d be
       -0.08223664 0.23947704 0.07651511 -0.13815631
000270 2a 6a 59 3e f2 32 01 00 77 17 84 be 55 e1 db 3d
       0.21231905 1.10111e-40 -0.25799152 0.10736338
000280 b6 e0 58 3e c0 25 87 3d 98 43 32 be 9e de 10 be
       0.2117947 0.06598997 -0.17408597 -0.14147422
000290 48 e1 46 be 0c ff b8 3d e8 36 01 80 45 6b bf 3d
       -0.19421875 0.09033021 -1.11532e-40 0.09346632
0002a0 31 6a 45 be 5c 04 fd bd 11 1f 3f be 0c 28 f5 3d
       -0.1927879 -0.12354347 -0.18664195 0.11970529
0002b0 e9 e8 b9 3e a0 0b 18 be 82 62 3f 3e 97 f0 00 80
       0.3631051 -0.14848185 0.18689921 -8.6307e-41
0002c0 9a 41 d2 3d 9a 53 fa 3c ec 31 62 3e c8 e1 c4 3d
       0.10266419 0.030557442 0.22089356 0.09613377

module.block1_1.conv2.weight f4 [20, 20, 1, 1]
000000 e0 28 a8 bf 71 17 46 3c 58 42 83 3e 00 b5 96 3e
       -1.3137474 0.01209055 0.25636554 0.29434967
000010 c9 25 21 3d 3f ec 8a 3d 8a 1d 9a 3e 80 7d 84 3c
       0.039342675 0.067833416 0.30100662 0.016173124
000020 5c fe 80 3d 69 14 a8 3d 0f af cc bb 3d 82 96 3e
       0.06298515 0.08207018 -0.0062464545 0.2939624
000030 62 32 90 bd 9b 85 81 be 3a 18 35 3c 9f 33 53 3d
       -0.0704086 -0.25297245 0.011053139 0.0515629
000040 5b 99 02 3e 30 27 a0 bc ca 73 57 bd 70 b5 ce bd
       0.12753813 -0.019549936 -0.05260066 -0.100932
000050 fd 93 ed bd fe e7 58 3f 11 24 16 be f5 8a 83 3d
       -0.11600492 0.8472899 -0.14662196 0.06422988
000060 5c ec a8 be bf 24 4c 3f ac ee 96 3d 3a aa 69 3d
       -0.32992828 0.7974357 0.07369742 0.057047106
000070 92 d0 39 be 0c 71 a1 3e 27 5b 98 ba 58 d1 3a bd
       -0.1814597 0.3153156 -0.0011623845 -0.045609802
000080 35 a6 9d bf e5 59 ff bd c0 2c 29 bf 24 eb 9c 3f
       -1.2316347 -0.12468318 -0.6608391 1.2259259
000090 2d aa 9c 3d 17 e6 32 bf b0 8d 98 3f 94 0d d8 be
       0.07649646 -0.6988234 1.191824 -0.4219786
0000a0 29 9f d5 3e fa 80 a6 3c 3b 7c 5c bf 6f 95 8d be
       0.41722992 0.020325173 -0.8612706 -0.2765307
0000b0 f3 8c 4f 3d 44 60 41 3d 1a 40 be be 32 f2 96 3c
       0.05067153 0.047210947 -0.3715828 0.018426035
0000c0 b2 b7 27 bd da a8 a3 3d 09 e0 d9 bd 4c f7 fa 3e
       -0.04094667 0.0799119 -0.106384344 0.49016798
0000d0 36 e2 0a bd b3 3f 28 3f 67 9a 95 3c 18 fb 8f 3d
       -0.033907138 0.657222 0.018262101 0.07030314
0000e0 44 12 95 3d 3a ea fe bb 31 6f 7b bd 90 52 28 bd
       0.072788745 -0.007779387 -0.061385337 -0.041094363
0000f0 40 c7 a6 3e 55 40 44 3c cf ed 65 3e f1 dc a3 bf
       0.3257389 0.011978229 0.22453998 -1.2801801
000100 00 e0 b5 3c 3b 9b b3 bd 25 e8 8c 3e d5 4c 21 bd
       0.022201538 -0.08769842 0.27520862 -0.039379913
000110 d2 24 07 be 1e 69 8d bd 60 ae ca 3d 85 a4 c5 3e
       -0.1319764 -0.06904815 0.09896541 0.3860208
000120 f2 84 dc 3d e6 34 a1 be 68 a5 69 bd de 92 c5 bd
       0.10767545 -0.3148567 -0.05704251 -0.09647153
000130 15 f3 95 3c 25 a7 39 3d 48 9c 29 3d 09 65 92 3d
       0.018304387 0.045325417 0.041408807 0.07148177
000140 2f d8 83 3d ff cc c6 3e 41 6c ba 3e 1f ea 2c 3e
       0.06437718 0.38828275 0.36410716 0.16886185
000150 7d b2 9c 3f d4 65 46 3f 12 1f 34 3e df 78 34 3d
       1.224197 0.7749913 0.17589977 0.044060584
000160 ef c1 0c be 41 56 93 3f f0 03 29 3e ac 04 4e 3e
       -0.13745855 1.1510698 0.16505408 0.2011897
000170 bb e9 49 3d 88 ae 70 3e 6e ac d5 3b d0 d6 99 3f
       0.04929517 0.23504078 0.0065207994 1.201868
000180 ac b2 cb bd 6a 5a dd be 6b 98 05 3e 95 70 39 be
       -0.09946188 -0.43233043 0.13046424 -0.18109353
000190 4a 63 09 3d e3 d6 69 3f e5 c2 bc bd 53 11 b4 bd
       0.033541955 0.91343516 -0.09216861 -0.08792367
0001a0 5a 2d 51 3e 0e 01 ea bc 47 a3 4a 3d d2 f8 31 be
       0.20427456 -0.028564956 0.04947212 -0.17380074
0001b0 d6 52 88 bf f1 f2 17 3e 91 b9 0b 3b 5b 19 12 bd
       -1.065028 0.14838769 0.0021320323 -0.035668712
0001c0 7c 56 c6 be 54 1d dc 3c 35 97 e9 3e ae a1 92 be
       -0.38737857 0.026869453 0.45623174 -0.28638977
0001d0 9d e2 88 3e ca ba a2 be 94 7d f4 3d b6 ba a1 be
       0.26735392 -0.31783134 0.119380146 -0.31587762
0001e0 5e 84 1a 3e 04 3f 40 bd 67 9b d9 3d 07 38 52 3e
       0.15089557 -0.046935096 0.10625344 0.20529185
0001f0 b1 c8 2f bd 68 19 e6 bd b2 b4 b6 bf 2f 90 c7 3d
       -0.042916004 -0.112353146 -1.4273894 0.09744298
000200 e9 7a 1b bd cf db 33 bd 99 16 65 3d 20 a8 08 3f
       -0.037959013 -0.043910798 0.055929754 0.5338154
000210 09 b6 a8 3c 40 93 49 be 66 16 7b bb eb 32 9e bd
       0.020594614 -0.19685078 -0.003831291 -0.077245556
000220 98 54 bd 3d 73 ab 70 bd b2 4f 81 bd a2 b0 49 3d
       0.092446506 -0.058757257 -0.06314029 0.049240716
000230 ba 91 53 be 17 d4 74 be 8f f3 59 bd 10 0d 48 bd
       -0.20661059 -0.23909031 -0.05321079 -0.048840582
000240 a4 69 1e bf d9 49 3a 3e 0c 56 73 3d 44 2f 76 bf
       -0.61879945 0.18192233 0.059408233 -0.9616587
000250 6d 11 2b bf f1 4d 3f 3e 8f 74 e3 bd ce 9e 9d be
       -0.66823465 0.18682076 -0.11106216 -0.3078522
000260 8c 1e b3 be 3f d1 87 be d9 dc 95 be c8 b2 a0 3e
       -0.34984243 -0.2652683 -0.29270056 0.313864
000270 73 5a 1c be 6c 11 32 bf 09 e9 0b 3f 62 57 a2 3b
       -0.15268879 -0.69557834 0.5465246 0.0049542645
000280 9d 39 a9 be 9e 15 fb 3e 8b 34 8d be be 96 ff bd
       -0.33051768 0.4903993 -0.2757915 -0.12479924
000290 86 7f 4f be 20 e1 90 be c7 3f 84 bd 13 4b 50 bf
       -0.2026349 -0.28296757 -0.06457477 -0.81364554
0002a0 b0 b6 3a bf 7c 19 6b be 14 62 f1 be b3 55 8a 3d
       -0.7293501 -0.2295894 -0.4714514 0.06754627
0002b0 c0 10 b5 bc bb 7c cc bd 16 16 83 bc 79 3e ba be
       -0.022102714 -0.09984728 -0.016001742 -0.36375788
0002c0 93 21 03 3f 00 4b fc be 29 b5 c0 3e 9e 8d 1f be
       0.51223105 -0.4927597 0.37638214 -0.15581366
0002d0 0b d2 d0 3d 87 cb 33 3f a6 69 8e 3d d8 e6 4b bd
       0.101963125 0.70232433 0.069537446 -0.049780697
0002e0 c4 25 3a 3f 8f 9a 30 be af 25 08 3d dc 9a b5 be
       0.72713876 -0.1724646 0.033239063 -0.3546971
0002f0 b8 5a 84 bd 67 7c b7 bd c0 5a 34 bf 9a 7c 9e bd
       -0.06462616 -0.08959275 -0.70450974 -0.077386096
000300 b8 86 9d 3e 1a f2 a7 3e d7 c8 1c 3f d0 e3 d8 bd
       0.30766845 0.32801896 0.6124396 -0.10590327
000310 32 4a 57 be 4e cd dc be a3 b5 83 be 9a c7 50 bf
       -0.21024397 -0.43125385 -0.25724515 -0.8155457
000320 74 45 39 bd 0f 62 29 3e 12 8e 40 bd 09 83 07 3d
       -0.04523225 0.16541313 -0.04701049 0.03308395
000330 15 01 11 be db bf e5 3e 38 13 3d bd 48 f5 fc bd
       -0.14160569 0.44872937 -0.046160907 -0.12351471
000340 88 92 20 be a8 33 f2 3e 76 5e 29 3f ad ab 8b bd
       -0.15680897 0.47305036 0.6615976 -0.06819854
000350 5c a6 34 3e a5 27 0f bc b0 d7 65 be a9 5f ba 3d
       0.17641586 -0.008737479 -0.2244556 0.09100277
000360 84 c2 29 be 38 19 02 bd 89 4b a6 bd df 83 21 bd
       -0.16578108 -0.03176233 -0.08119876 -0.039432403
000370 e2 0e 24 3e f3 8a 6a bd 80 e7 dc 3d 78 0c 97 3e
       0.16021302 -0.05726142 0.107863426 0.295017
000380 dc 0a 4b bc 18 ed 7b bc 6d 3d 0a 3e 95 92 ce bc
       -0.012392726 -0.015376352 0.13499995 -0.02521638
000390 58 66 72 3d a5 c2 a4 3c 9d 79 f0 bc cf 44 8b bf
       0.059179634 0.020112345 -0.029354865 -1.0880374
0003a0 6f 86 74 bd 2b c8 35 be 80 c4 53 3d 7c 66 f4 3a
       -0.05969852 -0.1775214 0.05170107 0.0018646265
0003b0 78 62 39 3d 7e f7 bd bc 6d 95 26 3c 83 92 8f bd
       0.045259923 -0.023189303 0.010167462 -0.07010367
0003c0 35 1c ea bb 84 0b df be 18 25 18 3e 66 ab 13 3e
       -0.007144476 -0.43563473 0.148579 0.14420852
0003d0 fa 84 e7 be f2 65 c1 3c 54 01 22 3e e7 cd a5 be
       -0.4521864 0.023608182 0.15820819 -0.32383654
0003e0 4d a5 44 3d b9 0f 3d be a2 c0 35 3f 1f b1 59 3e
       0.048009206 -0.18463029 0.7099706 0.21258973
0003f0 6a 72 31 3e 6b 15 f3 bd 77 5e 04 bf 7c 03 0c be
       0.17328802 -0.118693195 -0.5170664 -0.13673204

module.block1_2.conv1.weight f4 [20, 1, 3, 3]
000000 8a 2a 01 80 1b 60 70 3e d8 6d 4e 3e ce 62 f6 3a
       -1.07096e-40 0.23474161 0.2015909 0.0018797757
000010 72 37 96 3d e2 f5 18 3e 0b 7c 3f 3d c9 64 81 3e
       0.07334794 0.14937547 0.046749156 0.25272205
000020 df d2 74 3e 71 49 01 00 19 14 92 be 09 38 de bc
       0.23908566 1.18181e-40 -0.28530958 -0.027126329
000030 b7 a6 a0 3e d3 03 aa 3d 34 35 e3 3b 1d 95 67 3e
       0.31377193 0.08301511 0.0069338325 0.22615476
000040 85 01 98 3d 10 65 9d be 59 df 00 80 51 06 84 be
       0.07422165 -0.30741167 -8.0122e-41 -0.2578607
000050 d4 56 a5 be 5a c2 94 bd e5 93 6d be 75 44 e3 bd
       -0.32292807 -0.07263632 -0.23200949 -0.110970415
000060 4b 4f ef bd 8f 94 65 be df 7d 04 be d5 1f 01 00
       -0.11685046 -0.22419952 -0.12938641 1.03255e-40
000070 f6 14 d4 3c 8b ce 1e 3e 92 05 bb 3e 50 29 98 3e
       0.025888901 0.15508477 0.36527687 0.2971902
000080 d1 f6 86 3e 35 d2 aa 3e 16 81 54 3e 97 8d 8c 3d
       0.2636018 0.333635 0.20752367 0.068629436
000090 50 20 01 80 fd 64 c9 3e 98 f1 03 3e 8e 66 04 bc
       -1.03427e-40 0.3933486 0.1288513 -0.008081092
0000a0 4a 26 f4 3d 0a 65 87 bd 17 68 37 3d 37 f0 ce bc
       0.119213656 -0.066110685 0.044777002 -0.025261028
0000b0 91 41 dc 3c 71 3d 01 80 2a c5 ba bd 4e de 47 bd
       0.026886733 -1.13877e-40 -0.09119637 -0.04879599
0000c0 f9 a0 8a 3d cc df 82 3e 95 fc d9 3d 4d c0 1d 3e
       0.06768984 0.25561368 0.10643879 0.15405388
0000d0 a2 16 5e 3d 94 b4 93 bc 7f 59 00 80 14 0e db 3d
       0.054220803 -0.018030442 -3.2105e-41 0.106960446
0000e0 41 8f 89 3e 5d e8 88 3e 5e 10 2c 3e 95 64 ad 3e
       0.26867107 0.2673978 0.16803119 0.338658
0000f0 65 c9 41 3e 1f 12 79 3e fd f5 dc 3d 1a e8 00 00
       0.18924482 0.24323319 0.10789106 8.3262e-41
000100 81 f9 90 3d e4 29 d1 bd b0 06 55 bd c6 10 92 bd
       0.07078839 -0.10213068 -0.05200833 -0.071321055
000110 d8 05 0f bf 72 04 e4 3c b0 a2 e2 bd ea 70 7f bd
       -0.5586829 0.027834151 -0.110661864 -0.062363543
000120 ca e8 00 00 a7 97 04 3e 6f cb 23 3e c7 ca e6 3d
       8.3509e-41 0.12948476 0.15995573 0.112691455
000130 d6 c5 9e 3e 74 3e 44 3e c4 54 e6 ba b5 52 70 3e
       0.31010312 0.19164449 -0.001757287 0.2346905
000140 1a 92 08 3e ea f0 00 80 df 6e 04 3d 75 01 61 be
       0.13336983 -8.6424e-41 0.032332297 -0.21973212
000150 a0 7c 9d be 9f c5 ea 3a 2b 3c ab 3d f3 06 3d 3d
       -0.30759144 0.0017911679 0.083610855 0.046149205
000160 2d 65 a1 bc be 76 da 3c 2b 01 01 00 6c 8a 20 3e
       -0.019701565 0.026667949 9.2254e-41 0.15677804
000170 61 1c e1 3e 09 ab a9 bb 89 a0 3c bd 6d b2 4e bd
       0.43966964 -0.0051778597 -0.046051536 -0.05046313
000180 2c dc fe 3b 49 6e 86 bc d3 1a ab 3c 7e 45 01 00
       0.0077777114 -0.01641001 0.020886814 1.16765e-40
000190 ec 80 a8 3e d2 a3 af 3d 86 63 27 3d d9 96 90 3e
       0.3291086 0.08576168 0.040866397 0.28240088
0001a0 6b a4 48 3e b6 05 8c 3d fa 21 09 3e 20 8f 95 3e
       0.1959397 0.06837027 0.13391867 0.29210758
0001b0 02 47 01 00 58 61 c9 bb b9 eb 2e be 90 30 31 be
       1.17308e-40 -0.0061456375 -0.17082109 -0.17303681
0001c0 60 56 06 bc d3 31 a3 bc cb b9 4f be 10 b3 5c be
       -0.008199304 -0.019921219 -0.20285718 -0.21552682
0001d0 d4 af dc b9 52 fb 00 00 be ec 31 3e af c2 78 3e
       -0.00042092672 9.0157e-41 0.17375466 0.24293016
0001e0 86 ed 3c 3e c4 d0 74 3e c1 8b 4d 3e 71 1e 9e 3e
       0.18449983 0.23907763 0.20072843 0.308826
0001f0 ea 77 aa 3e 96 eb 1a 3e bd 36 00 80 a3 58 c5 3c
       0.33294612 0.15128931 -1.9636e-41 0.024090117
000200 5e 86 97 3e d6 af 09 3e c8 59 a3 3d d6 bc e2 3d
       0.29594702 0.13445982 0.07976109 0.11071174
000210 3d 5b 08 3e 09 50 c8 3e 81 35 9f 3d 8c 22 01 80
       0.13316055 0.39123562 0.07773877 -1.04229e-40
000220 ec 46 df be 62 c2 cc bd c8 8e 2f 3d 8c d5 ce bc
       -0.43608797 -0.09998013 0.042860776 -0.025248311
000230 fa 9f 4f ba 51 d4 1d bb 5d 13 1c 3c 71 26 fb 3c
       -0.00079202617 -0.002408285 0.009526101 0.030657979
000240 31 13 01 00 08 89 79 be 75 d2 bc bd dd 1a f2 3d
       9.872e-41 -0.2436868 -0.09219829 0.1182153
000250 bf 1f f1 3e c6 f8 00 3d 67 a7 be 3c a9 5c 2b 3b
       0.47094533 0.03148725 0.023273183 0.002614776
000260 7f 81 ff bb 39 2d 01 80 c6 95 a4 bc 2f e5 86 bd
       -0.0077974196 -1.08058e-40 -0.020090949 -0.06586682
000270 fb a8 a7 3e 7d 7e 94 3c c4 9f 0a 3e e3 d9 93 3d
       0.3274611 0.01812672 0.13537508 0.07219293
000280 55 93 02 3e d2 14 fc 3d 78 3f 01 80 8b b3 c1 3b
       0.12751515 0.12308659 -1.14604e-40 0.005911296
000290 13 42 76 bc a5 24 1e bd 49 dc 03 3e 19 73 b4 3d
       -0.015030402 -0.038609166 0.12877001 0.08811016
0002a0 a6 ba bf bc c8 f0 53 bb a5 15 d1 3e b7 59 01 80
       -0.02340443 -0.0032339562 0.40836826 -1.24019e-40
0002b0 73 c8 aa bd f1 fa 3f 3e 36 09 d5 bd 18 82 a4 be
       -0.08339014 0.1874807 -0.104021475 -0.32130504
0002c0 6a a2 c8 be c7 3d 99 bd 32 71 29 3e 62 c9 9a bd
       -0.39186412 -0.07482486 0.16547087 -0.07557942

module.block1_2.conv2.weight f4 [20, 20, 1, 1]
000000 92 e3 aa 3f 1b b6 db 3d 76 20 ea 3e 29 bd 9b be
       1.3350699 0.10728093 0.4572789 -0.30417755
000010 d2 5a 35 bd 9a c9 70 bd 02 b1 ff bd de ae 42 be
       -0.044276066 -0.058786012 -0.124849334 -0.19012019
000020 28 51 28 3e ab 4d d7 bd 84 23 6c 3d 0d da 42 bf
       0.16437209 -0.10512861 0.057651058 -0.7611397
000030 b6 76 0d 3e 5c 1a fd bd 08 ea 19 bd 74 36 91 bd
       0.13814816 -0.12358543 -0.037576705 -0.07090464
000040 71 1f fb 3c 52 30 10 be 43 a8 d6 bd 7d 49 17 3d
       0.03065464 -0.14080933 -0.10481312 0.03693532
000050 dd aa 60 bd ea 7f 89 3e 79 77 0a 3d a4 c2 8e be
       -0.054850448 0.26855403 0.033805344 -0.27882874
000060 a1 f7 f1 3c 6e 25 d8 bd bd 34 79 be 61 2b 6a be
       0.029537024 -0.10554014 -0.24336524 -0.2286811
000070 60 a3 52 3e 8c 21 28 be 57 0b 93 3e e2 43 9a bd
       0.20570135 -0.16419047 0.2871959 -0.07532479
000080 cd d8 01 be 85 1f 58 be 39 e8 8d 3e 74 e8 35 3e
       -0.12680359 -0.21105774 0.27716234 0.17764455
000090 0f f2 b6 be 32 cc 82 be 63 8e a2 3c a9 77 82 be
       -0.3573155 -0.25546414 0.019843286 -0.25481918
0000a0 1f bd 80 be da 33 0d 3e 2d 6a 92 bf fd 8f 04 3e
       -0.25144288 0.13789311 -1.1438652 0.12945552
0000b0 bd 1a c8 3d bc 28 78 bd d2 c5 99 3d 97 ca ee bd
       0.09770725 -0.060585722 0.07508434 -0.11659735
0000c0 2e 16 64 3d 27 ee bb 3c 56 27 f4 3d 09 15 26 be
       0.055685215 0.022940708 0.11921565 -0.16218962
0000d0 40 30 c9 3c c4 e7 21 3e 6c b4 80 bd 9e 1e 79 3d
       0.02455914 0.15811068 -0.06284413 0.060820214
0000e0 5b f9 65 3c 0f 11 ec bd 59 50 18 be ff 9e 01 3d
       0.014036502 -0.11526691 -0.148744 0.03164577
0000f0 d9 62 d9 3d 1c b1 f5 bd d4 93 f8 3c 8e d4 9e 3f
       0.10614557 -0.119966716 0.030343927 1.2408617
000100 af 8c b7 3d 0e c9 52 bd 04 a5 0a bd 62 13 e0 3c
       0.0896238 -0.051461272 -0.033848777 0.027352992
000110 cc 40 9f bc 7b 4e d9 3d 71 2f 6e be 64 8d 37 bd
       -0.019440077 0.10610672 -0.23260285 -0.044812575
000120 a9 51 4e bd eb 91 cc bd d7 4b c2 3d 76 84 9a 3d
       -0.050370846 -0.09988769 0.094871216 0.07544796
000130 3d 5b 9b bd 49 94 44 3d d6 3d 14 3e 4f ab c8 bd
       -0.07585762 0.04799298 0.14476714 -0.097982995
000140 79 b9 fc bd 05 98 4f 3f e8 80 49 be b3 91 d8 bb
       -0.123400636 0.8109134 -0.1967808 -0.0066091656
000150 2c ba e3 bd b7 1d d0 3e 31 70 03 3d ec 97 8a bf
       -0.11119494 0.4064767 0.032089416 -1.0827613
000160 b4 c4 d6 3e 56 5c 62 bf 81 fd 0a 3d f9 55 00 3e
       0.41946948 -0.88422143 0.033933166 0.12532796
000170 63 ea 68 3e 6f 16 10 bd fd 5e 5b 3e 95 63 75 bf
       0.22745661 -0.035177644 0.21422954 -0.95855075
000180 fe ca 85 bf 40 75 8c bf 03 a0 8c bd 87 30 af 3e
       -1.0452573 -1.0973282 -0.06866457 0.3421671
000190 48 f1 9f 3d f3 a8 16 bb 0e 7d 85 3c b9 7f 8f 3c
       0.078096926 -0.0022988885 0.016294982 0.017516958
0001a0 fb 8f 02 be 1d 1a 8b 3e d6 5f 2b bc 68 c6 ac 3e
       -0.12750237 0.2716836 -0.010459861 0.33745122
0001b0 fb d6 13 3f 39 2e 75 3e 77 ef 17 bd a2 7e 85 3d
       0.5774991 0.23943414 -0.037093606 0.06518294
0001c0 ef ed 5a 3d 54 d8 d0 bd b1 99 b6 be 46 ad 16 be
       0.053449567 -0.10197511 -0.35664132 -0.14714536
0001d0 f2 10 c0 3d 49 68 48 3e 26 a5 28 be e1 8e 90 be
       0.09378232 0.19571032 -0.16469249 -0.28234008
0001e0 9b 4c 41 3d 38 88 51 be bb 11 0e 3c 8c 8f 73 bc
       0.047192197 -0.2046212 0.008671219 -0.014865767
0001f0 a1 96 22 3e f0 cd 04 3d 90 53 c2 3f 8f 8e 18 3d
       0.15877773 0.03242296 1.5181751 0.03724533
000200 08 7b 4c bd 5a f1 3d 3c 88 76 00 be 8f eb 01 3e
       -0.04992202 0.011593187 -0.12545216 0.12687515
000210 04 7e 68 bd cb 57 55 3e 57 b8 41 3d 39 6a 80 3d
       -0.056760803 0.20834272 0.04729494 0.0627026
000220 a6 e9 a7 3c ea b9 80 3d 55 6d bb 3d 89 99 24 be
       0.020497154 0.0628546 0.09151713 -0.16074194
000230 0d 94 ed 3d 55 85 a3 3e 77 aa 8e be eb 68 0c 3d
       0.11600504 0.31937662 -0.2786443 0.034279745
000240 4b d3 47 be 5d 0d e2 be f0 8d fc 3d 62 a0 3d bf
       -0.19514196 -0.4415082 0.1233176 -0.7407285
000250 1a 26 b8 3e 2a 70 58 3e fb a4 db 3e 8a e1 9d 3e
       0.3596657 0.21136537 0.42899308 0.30836135
000260 fb 27 20 3e 0c 34 20 3e 47 5b 03 be 3e e4 d8 be
       0.15640251 0.15644854 -0.12827788 -0.42361635
000270 d8 5d ab be ab 7d b1 be d8 df 88 bf 32 4d 50 be
       -0.33470035 -0.3466619 -1.0693312 -0.20341948
000280 07 b4 87 3e 44 49 e9 be 07 8a b0 3c 31 21 e5 3d
       0.26504537 -0.4556371 0.021550192 0.111879714
000290 f1 c1 cc 3f ba e2 83 3e 44 29 d2 3d c5 21 51 be
       1.5996686 0.25758916 0.10261777 -0.20423038
0002a0 f8 b9 8e 3f 89 e7 08 3f c0 a9 4c 3f aa c6 3e 3c
       1.1150503 0.53478295 0.7994652 0.011644045
0002b0 8f ce 63 3d 59 dc b3 3e 98 0b 6a 3e 10 74 92 3f
       0.05561691 0.3512905 0.22855985 1.144167
0002c0 46 62 a6 3f d3 23 0f bf 3e 71 14 bf 89 ec 15 bf
       1.2998741 -0.5591404 -0.57985294 -0.5856405
0002d0 85 19 1c 3e 3e b7 83 3d 23 30 03 3e 64 45 b7 3e
       0.1524411 0.06431435 0.12811331 0.35795128
0002e0 bf c6 44 3e 74 10 46 3f d8 ce 4c 3d 75 21 04 3e
       0.1921644 0.77368855 0.05000195 0.12903388
0002f0 d8 be 66 3e 3a fe 94 be ad 3b 81 bf b8 ec 1e 3e
       0.22533739 -0.2910021 -1.0096337 0.15519989
000300 c6 c1 4f 3f 3a c5 31 3e 1b d5 3d bf 1c ee d3 be
       0.8115505 0.17360392 -0.741533 -0.413926
000310 d6 01 95 be fe 98 85 bd f9 ce d2 3d e0 18 82 be
       -0.29102963 -0.065233216 0.10293383 -0.25409603
000320 69 65 6e 3c de 4b 53 3e 0b ab 90 3e 7d be a9 bd
       0.014550545 0.2063441 0.28255495 -0.08288286
000330 c4 c0 a5 3d ad 48 00 3e 03 59 89 3a 5c 48 0c 3c
       0.08093408 0.12527724 0.0010478798 0.008562174
000340 ae 95 88 3e c4 17 4a be c3 c5 25 bd 12 5a 08 3e
       0.26676697 -0.19735628 -0.040471803 0.13315609
000350 05 5d 5a 3c 85 0f 9a bd 81 d5 08 bd ed db 74 bd
       0.013327842 -0.07522491 -0.03340674 -0.05978005
000360 96 04 8b 3e c2 a0 87 bd ab 84 2b 3d 66 30 52 be
       0.27151936 -0.06622459 0.04187457 -0.20526275
000370 da 1f fa be 97 3f dc 3c e1 5b 03 3e 0b 8f c2 bd
       -0.48852426 0.02688579 0.12828018 -0.094999395
000380 b6 a8 bc 3c 0f d4 1f bd 2e c2 b7 3c 0d a3 bc bd
       0.023029666 -0.039020594 0.02243146 -0.09210787
000390 d0 eb e3 3c 64 aa b6 b8 33 f2 bc 3c 5c a2 a3 3f
       0.027822405 -8.710174e-05 0.023064708 1.2783923
0003a0 7e c6 78 3d 63 1c 5e 3d d9 f0 1a bd e3 7c 31 3e
       0.060736172 0.05422629 -0.037827346 0.17332797
0003b0 36 88 4c 3d ca be c0 bd f5 2c 06 3d e6 3f 0c 3d
       0.04993459 -0.0941139 0.032757718 0.034240626
0003c0 3b 62 91 bd d4 ad 4b be 28 d2 62 be 84 fb 11 be
       -0.07098814 -0.19890529 -0.22150481 -0.14256102
0003d0 fb 26 db bd cf 90 76 39 8c 38 8b be bf b6 bb bc
       -0.10700794 0.00023514334 -0.2719158 -0.022914289
0003e0 4c 88 00 bf 11 55 11 3f e6 0b 22 3f b4 fb 68 be
       -0.5020797 0.56770426 0.63299406 -0.22752267
0003f0 53 23 d7 3c b7 a9 4d be ef c2 a5 3f 30 ee 88 3c
       0.026261961 -0.20084272 1.2950114 0.01671514

module.block1_3.conv1.weight f4 [20, 1, 3, 3]
000000 56 ab 80 3e b8 54 0a 3e 59 e2 20 3e 5c 48 71 3e
       0.2513072 0.1350888 0.15711345 0.23562759
000010 a5 14 fb 3d 2c 51 81 3e fa 44 25 3e bf b2 2b 3e
       0.12259797 0.25257242 0.16139594 0.16767405
000020 c4 cc 7d 3e 96 cd 5b bd d5 5f 03 3e 26 85 e6 bc
       0.24785143 -0.05366286 0.12829526 -0.028139662
000030 87 10 98 3d d9 bd 3c 3f fa 5f 0a 3d ad 4a f4 3c
       0.07425027 0.73727185 0.033782937 0.029820764
000040 cc 99 5c bb ec ce 0a 3b ab f0 99 3e 9d 43 45 3e
       -0.0033661006 0.0021180464 0.30066428 0.19264074
000050 ec cc 29 3e 29 6f a3 3e f3 c4 a5 3d f4 cd ca 3e
       0.16582078 0.31920746 0.08094206 0.39610255
000060 29 0f 45 3e 97 46 74 3e c7 fe c6 3e 88 6c 64 bd
       0.19244064 0.23855053 0.38866255 -0.055767566
000070 ee d1 34 be 11 93 6e be e6 72 3e be 77 f4 a6 be
       -0.17658207 -0.23298289 -0.18598518 -0.32608387
000080 5e 85 66 be 21 23 9d be af af 93 be 59 62 00 be
       -0.22511813 -0.30690864 -0.28844973 -0.12537517
000090 ba 33 23 3e 50 95 25 3e cc 6d 33 3e ed 4a 16 3e
       0.15937701 0.1617024 0.17522353 0.1467702
0000a0 f4 2d fa bd 42 9f 51 3e 5d 3d 0d 3e 57 5b 04 3e
       -0.12215796 0.20470908 0.1379294 0.12925468
0000b0 66 d4 24 3e d3 65 9d be d2 de 6f bb 22 c1 ab be
       0.16096649 -0.30741748 -0.0036601317 -0.33545786
0000c0 d4 88 8b be 60 76 be bd 0b 0c 80 be 70 35 5c be
       -0.2725283 -0.09299922 -0.25009188 -0.2150476
0000d0 57 36 ab bb 82 ca 70 be 4c 98 d9 bd c2 b7 13 be
       -0.0052249837 -0.2351475 -0.106247514 -0.14425567
0000e0 9f 39 1d be 8a 7e 3c be b0 c3 6f be 2b 30 27 be
       -0.15354012 -0.18407646 -0.23414493 -0.16326968
0000f0 24 9b 43 be 82 04 2b be af 10 06 be 65 50 51 be
       -0.1910215 -0.16700938 -0.13092302 -0.20440824
000100 c5 2d be be ee e6 8c be 9a ae 8a 3e 71 32 02 be
       -0.37144294 -0.27519935 0.27086335 -0.12714554
000110 f1 bc 19 bc b0 5d bc 3e da 49 ad 3e d4 b9 76 3e
       -0.009383426 0.36790228 0.33845407 0.24094325
000120 fe ab 94 be d7 66 56 be 36 4d 27 be 4d bb 75 be
       -0.2903747 -0.20937668 -0.16338047 -0.23997231
000130 30 53 1c be 6f 64 ee bd fb b6 2d be 0f d3 17 be
       -0.15266109 -0.1164025 -0.16964333 -0.14826606
000140 f1 25 f0 bd 06 e1 08 be fb f6 34 be ed 9a 1b be
       -0.11725987 -0.1336709 -0.1767234 -0.15195818
000150 fd b2 34 be 58 f2 44 3f bf d3 01 be ca e2 a9 be
       -0.17646404 0.7693229 -0.12678431 -0.3318084
000160 83 4c 01 be 57 a2 80 be 42 67 77 bd 33 c8 1e 3c
       -0.12626843 -0.25123855 -0.06040121 0.009691286
000170 0e 5c 35 3e 45 25 96 be db 08 fa be d5 b8 69 3d
       0.17710897 -0.2932531 -0.4883488 0.057061035
000180 af 1f 9c bd 54 84 aa be e7 7d 14 be 83 b5 0e 3e
       -0.07623231 -0.33304083 -0.14501153 0.13936429
000190 54 43 13 3e c7 80 9a 3d 87 52 25 3e 57 f0 3d 3f
       0.14381152 0.075440936 0.16144763 0.74194854
0001a0 b1 80 2f 3e 90 7c 06 3e bc 5c 40 3e 53 cb 8b 3e
       0.17138936 0.13133454 0.18785375 0.27303562
0001b0 79 38 f5 bd dc 11 3c be ef e1 f3 bd ab 5e 4a be
       -0.11973662 -0.18366188 -0.11908328 -0.19762675
0001c0 d4 3c 0a 3d eb 9d 98 bd c2 5f 38 be fb 60 51 be
       0.033749416 -0.074519955 -0.18005279 -0.20447151
0001d0 b4 81 bd bd f5 28 fb bd f6 b0 6a be 0f fe 8e be
       -0.092532545 -0.12263671 -0.22919068 -0.27928206
0001e0 e7 9b 9b be 63 e8 b2 be 5d 76 9c be c7 84 a6 be
       -0.30392382 -0.34942922 -0.30559054 -0.32523176
0001f0 82 cb 88 be 14 87 3b be 4f bd 8e 3d 7a b2 4b 3e
       -0.26717764 -0.18313247 0.069697015 0.19892302
000200 5d ca 28 3e 2b 59 55 3e 2e 9f b8 3e a6 d6 42 3e
       0.16483445 0.20834796 0.36058944 0.19027194
000210 05 43 8d 3e fc 2d 69 3e 78 83 fc 3d cd 12 0d 3d
       0.27590194 0.22771448 0.12329763 0.034441758
000220 42 ad a6 3d 25 59 e5 3e fb 5c 1f be e9 0f 04 3f
       0.08138515 0.44794574 -0.15562813 0.51586777
000230 13 7d 99 3d 92 d5 34 3f db 7f dd bb 87 35 54 3e
       0.07494559 0.7063838 -0.0067596263 0.20723544
000240 ac d6 92 be 2d ad 62 be 1d 75 57 be 8b b0 3f be
       -0.28679407 -0.22136374 -0.21040769 -0.1871969
000250 47 78 d7 3e be 53 6c be 61 cc f1 bd d5 6d 53 be
       0.42083952 -0.2307882 -0.1180656 -0.20647366
000260 f0 88 98 be 81 c8 1b 3e ed 23 a5 3d ce 0d f1 3d
       -0.29791975 0.15213205 0.08063493 0.11770211
000270 11 cc c2 3d 2e 1a a7 3c 7c 65 b8 3d 15 ea 1c 3e
       0.09511579 0.020398226 0.090037316 0.1532367
000280 60 f4 59 3e 33 25 71 3e 55 5f de be 46 e1 ea bd
       0.21284628 0.23549347 -0.43432108 -0.11468749
000290 d2 38 51 be d4 43 26 be db 7a bb bb 0b c6 f9 bd
       -0.20431831 -0.16236812 -0.0057214326 -0.12195977
0002a0 2b 36 87 be 31 e5 5b be e2 f5 d8 be 9a 7d 83 3e
       -0.26408514 -0.21474148 -0.42375094 0.25681764
0002b0 05 61 52 3e 3f 0b 66 3e d1 4f fe 3d c8 41 38 bc
       0.20544823 0.22465228 0.124175675 -0.011246152
0002c0 f5 9f f5 3d 27 0b 88 3e cf b6 59 3e 07 f9 39 3e
       0.119934 0.2657101 0.21261142 0.18161403

module.block1_3.conv2.weight f4 [20, 20, 1, 1]
000000 35 a1 9c be 19 26 35 3d 4c 31 c1 be aa 4f 18 bf
       -0.3059174 0.044225786 -0.37732923 -0.5949656
000010 b3 68 9b be e9 58 13 3d 85 a1 85 bd 8d 36 40 bd
       -0.30353317 0.035973463 -0.06524948 -0.046927024
000020 0b 5a 84 3d 67 05 a7 be e1 13 71 3d 9c e8 a7 3e
       0.06462487 -0.3262131 0.05885685 0.32794654
000030 13 58 69 3d 32 ae 4d 3d ef f2 19 bd 04 f9 70 bd
       0.05696876 0.050214954 -0.037585195 -0.05883123
000040 11 69 0c be d0 ab 07 bd 29 63 19 3d 87 fc f5 3d
       -0.13711955 -0.033122838 0.037448082 0.120110564
000050 ff 33 60 3e 46 17 0f bf 62 60 c2 3d de 47 00 3e
       0.21894835 -0.5589489 0.0949104 0.12527415
000060 57 cf 31 3e 3f 7d 91 be 93 20 16 be 61 c7 0b 3e
       0.1736425 -0.28415868 -0.14660864 0.13650276
000070 b6 d7 36 3e 2f 72 88 39 b8 dd b8 be 98 d7 d0 3d
       0.17855725 0.00026025015 -0.36106658 0.10197371
000080 a4 4a 1f bf e1 eb e4 3d 22 35 86 3e 34 0e c4 bd
       -0.6222327 0.11177803 0.26212412 -0.095730215
000090 a4 cb 7a be cb 57 20 3e 85 b1 85 3e db e7 f7 bd
       -0.24491745 0.1565849 0.26112 -0.1210477
0000a0 e0 73 95 3e 92 b9 d3 3c 36 5c 91 be 32 2d af 3e
       0.29189968 0.025845323 -0.28390664 0.3421417
0000b0 64 be dd 3e 72 fb f4 3e 4b 51 89 3e 6b b3 3c 3e
       0.4330932 0.47848088 0.26819834 0.18427818
0000c0 31 ae 13 3f 70 5f 23 3d 93 b8 24 3e 65 53 a5 3e
       0.5768767 0.03988594 0.16086034 0.32290187
0000d0 18 7f cc 3e ae 7c 6f 3e c9 17 fd 3e 05 9f df 3d
       0.39940715 0.23387405 0.4943221 0.109190024
0000e0 f2 cd 97 be 23 c3 88 be 5c 17 2c 3f 8e 83 2e 3f
       -0.2964931 -0.26711378 0.67223144 0.68169487
0000f0 a5 27 a0 3f a5 4a 4c 3d 15 cc 80 3f f6 c2 58 bf
       1.2512099 0.049875874 1.0062281 -0.84672487
000100 9f 35 31 be 97 f5 88 3e 4a f7 17 bf 29 c3 09 bd
       -0.17305611 0.2674987 -0.5936171 -0.033633385
000110 45 30 63 3e 01 82 80 be e5 81 6b 3e 35 23 4c 3f
       0.22186382 -0.25099185 0.2299877 0.7974122
000120 67 09 01 bf b0 cb 37 bf f9 15 73 bf 40 b4 d5 be
       -0.5040497 -0.7179518 -0.949554 -0.41739082
000130 52 cf 72 3d 54 e2 9b 3d f1 f5 5e 3e 28 8a ac be
       0.059279747 0.07611528 0.21773507 -0.33699155
000140 0a 2c bd 3d 13 fe 17 bf 8f 9d 2e bc bf 3b 87 be
       0.092369154 -0.5937206 -0.010657682 -0.2641277
000150 03 43 e4 3e f6 30 1f bf 40 e5 d3 be ac 94 00 3f
       0.44582376 -0.62184083 -0.4138584 0.50226855
000160 90 dc cd 3e 9a ef 22 bf 8e 94 3f 3e f4 3d af 3e
       0.40207338 -0.6364685 0.18709013 0.34226954
000170 9b 5e 2c 3e f4 78 be be 87 af a2 bd cc c6 bc 3e
       0.16832964 -0.37201655 -0.079436354 0.3687042
000180 d5 c2 60 3d a1 73 ef be 1c 7a 6d 3b e9 a8 06 bf
       0.054873306 -0.46767905 0.0036236113 -0.52601486
000190 50 4c 10 3e 0a 83 dd be 8c dd 0b 3e 89 4b 2e be
       0.14091611 -0.43264037 0.13658732 -0.17021002
0001a0 73 77 72 be 43 2d 3b 3f 63 6c 57 3e 3e ef 84 be
       -0.23678379 0.7311594 0.2103744 -0.25963777
0001b0 eb b1 8d be a1 13 02 bf b1 70 af be c6 90 0b 3e
       -0.27674803 -0.508112 -0.34265664 0.13629445
0001c0 5b 10 2b 3e f3 82 c8 be ae f4 dc be 8d 0f 90 be
       0.16705458 -0.39162406 -0.43155426 -0.28136864
0001d0 d1 fe 6c bd d5 ee 75 3e 58 9f 59 3e 16 0c 82 be
       -0.0578602 0.24016888 0.21252191 -0.25399846
0001e0 75 36 35 be a4 99 94 3a 56 68 fd be 15 26 0e 3e
       -0.17696555 0.0011337292 -0.49493665 0.13881715
0001f0 59 62 8f be 52 6a b4 bd 59 e1 94 3d 07 8d 66 be
       -0.2800472 -0.088093415 0.07269544 -0.22514735
000200 93 38 e7 bd 9d be 79 be 76 e6 a0 bd d6 70 ae 3e
       -0.112900876 -0.2438912 -0.07856457 0.34070462
000210 a0 5d 24 bd 43 65 71 be 55 bb c2 3e 57 23 08 3f
       -0.04012835 -0.23573785 0.38033548 0.53178924
000220 9f 78 8e 3d d2 72 51 be 77 ea e5 bd d0 5f 17 3e
       0.069566004 -0.20453957 -0.11226361 0.14782643
000230 fc 43 91 3e 04 ec 1f bf 35 3e 2c be 08 1f 4c 3e
       0.2837218 -0.62469506 -0.16820605 0.19933712
000240 eb 09 2c 3f 4a 11 8d be 11 76 46 3f 37 e7 4a 3f
       0.67202634 -0.27552253 0.77523905 0.79259056
000250 6a 2c 6e 3f 8e a2 f7 bb 5e e4 83 bc a6 68 9c be
       0.9303652 -0.00755722 -0.016100105 -0.3054859
000260 30 3f 06 bf e3 c3 3f 3e 9f 5a 97 3e 12 46 92 3f
       -0.52440166 0.18727069 0.29561326 1.1427634
000270 c8 1f 05 bf ab 98 8f 3e 1e 42 54 bf d2 2a 8e bd
       -0.5200162 0.28046164 -0.82913387 -0.06941761
000280 a5 55 84 be 9e 46 5d be 82 4a 1c bf 7a 17 15 bd
       -0.25846592 -0.2160897 -0.6105119 -0.036399342
000290 32 97 43 bd c8 46 7e bd 80 f9 44 3e b8 03 54 ba
       -0.047751613 -0.06207922 0.19235802 -0.00080877123
0002a0 28 69 94 3e 78 fc 94 be 5a d2 aa 3e 65 97 19 be
       0.28986478 -0.29098868 0.3336361 -0.14999159
0002b0 6d 4b ec 3e 73 39 a1 bd dc 64 d5 ba 20 5f 3a 3f
       0.46151295 -0.07872286 -0.0016280669 0.728014
0002c0 fe 4e 0b 3f bb 7c 45 bf f8 f6 0c 3c 31 c3 77 bc
       0.5441741 -0.7714345 0.008603804 -0.015122221
0002d0 70 f2 bf 3d c4 cf 9b bc 4f 37 d0 3d e1 95 86 3f
       0.09372413 -0.019019969 0.10166799 1.051449
0002e0 a8 88 ba 3c fe 48 4c bd 4c b4 5b 3e 1a c7 7f be
       0.02277024 -0.0498743 0.21455497 -0.24978295
0002f0 fb 92 9d 3c 54 b4 66 bf 81 26 63 3d 9a a5 f7 be
       0.019235125 -0.9011891 0.055456642 -0.4836853
000300 9d ff 3e be db 74 64 3f 3b 7e fc 3e f8 61 02 be
       -0.18652196 0.8924081 0.49315056 -0.12732685
000310 0b bf 11 bf b3 ad 19 3e 12 fd 05 bf 11 84 29 bf
       -0.56932133 0.15007667 -0.5233928 -0.6621714
000320 9d e5 cc 3d bf 61 59 be ff 02 69 3e 08 71 d4 bd
       0.10004733 -0.21228693 0.22755049 -0.103731215
000330 19 64 57 3e d0 0f bc 3e 36 7f 66 be 65 44 af 3d
       0.21034278 0.36730814 -0.22509465 0.08557967
000340 62 07 31 3e f0 4a 7f be 48 f0 a3 3f e0 e8 3d 3d
       0.17287973 -0.2493093 1.2807703 0.046364665
000350 b0 17 f8 be 0b bc e2 bd bb 6b 80 3e df bd 08 bf
       -0.48455572 -0.110710226 0.25082192 -0.5341472
000360 e6 e7 9f 3c 80 e7 52 bc c5 d5 25 be 5a 64 92 be
       0.019519757 -0.012872577 -0.16194828 -0.28592187
000370 2e 97 a6 bf 4d c0 31 3e cd 02 cd bf 9f 41 6c bf
       -1.3014886 0.17358513 -1.601648 -0.9228763
000380 49 5e 49 3e ca ec 05 3d 6f c2 25 bf 6e 5f 18 3e
       0.19664873 0.032696523 -0.6474981 0.14880154
000390 55 b8 84 bf 7e 4e 3e 3c 60 d4 30 3e 8f bd b8 bf
       -1.0368754 0.011615394 0.17268515 -1.4432849
0003a0 0d 77 34 bd 35 dc 6f bf 7c 77 32 bf d9 ce 5b be
       -0.04405885 -0.93695384 -0.6971357 -0.21465625
0003b0 5d 3a 25 3e b0 ca 65 3e a4 4b 21 bf af fe ee be
       0.16135545 0.224406 -0.63006043 -0.46678683
0003c0 f4 cb 02 3e d5 41 82 bf 9e 63 97 be c7 c6 ec 3e
       0.12773114 -1.017634 -0.2956819 0.46245405
0003d0 23 c9 41 be 9a 40 ef be 5d bc 04 3d c7 48 e9 3a
       -0.18924384 -0.46728975 0.0324062 0.0017798179
0003e0 2f 7b 9e be 83 fc da 3e 99 b1 e4 3e 45 c0 6b 3d
       -0.30953357 0.42770776 0.44666746 0.05755641
0003f0 3d 04 fb be 94 11 ea 3e a7 98 55 bc 7e 76 da be
       -0.4902667 0.45716536 -0.013036883 -0.42668527

module.block2_1.shortcut.weight f4 [40, 20, 1, 1]
000000 17 bf b3 3d 8c a2 b4 3d 66 d6 d5 bd a7 e0 0b be
       0.08776682 0.08820066 -0.10441284 -0.13659917
000010 f7 04 18 bd 4c aa 8f 3e 70 a2 7b 3e e9 e9 2b 3e
       -0.03711411 0.28059614 0.24573684 0.16788448
000020 b6 b1 5d 3d ab 3c ce 3e ca 4e 93 3d f5 04 b1 bd
       0.054124556 0.4028066 0.07192762 -0.086435236
000030 a2 ff 5c bf ae 8a ea bc 8c 1f 26 be 8c 10 bc 3e
       -0.86327565 -0.02863058 -0.16222972 0.36731374
000040 fc 3c 77 3e 33 b0 91 3e 3d 36 40 bd 4e bf 28 bf
       0.24144357 0.28454742 -0.046926726 -0.6591691
000050 f7 25 de bc b2 c0 4e 3e f2 d4 94 bd 19 ac bf 3d
       -0.027117712 0.20190695 -0.072671786 0.09358997
000060 d1 6c 19 bd ee ba 82 be 53 3f 27 be a7 13 72 3e
       -0.03745729 -0.2553324 -0.1633275 0.2364031
000070 ef 22 86 be 42 2f ca be 3b c5 1b 3e 0d 41 a3 bd
       -0.26198527 -0.3948918 0.15211956 -0.07971392
000080 b2 d0 ba 3e ff 40 cf bd a4 95 36 be 15 86 c7 be
       0.36487347 -0.10119819 -0.17830521 -0.38969484
000090 c9 d4 ce be 31 b5 43 be a9 3f 61 3d 38 45 1c 3f
       -0.40396717 -0.19112088 0.05499235 0.6104312
0000a0 d1 92 0f bd 29 19 e3 bd df a3 22 3d 09 01 f3 3d
       -0.035052124 -0.11088783 0.03970706 0.11865432
0000b0 19 02 fa 3d b1 04 e1 3e 90 67 02 3e 1a 2f 2e 3d
       0.12207431 0.43948892 0.12734818 0.04252539
0000c0 1e 8c 72 bd 46 9a 39 3f 7e 9a 84 3d 0c e4 c5 bd
       -0.059215657 0.7250103 0.064747795 -0.09662637
0000d0 1b cd 68 be 78 90 41 3d e9 b7 71 ba c6 9f 32 be
       -0.22734492 0.047256917 -0.0009220825 -0.17443761
0000e0 2b 60 ca 3e 10 53 d1 3e 52 7b 01 3d 29 e8 71 be
       0.39526495 0.40883684 0.031611748 -0.23623718
0000f0 16 fc 24 3e 9e 0c 20 3e 95 18 28 3e 28 44 67 bc
       0.16111788 0.15629813 0.16415627 -0.014115371
000100 7c a8 3f 3d 0e 38 d7 3e b4 c7 25 3d 4e 94 26 be
       0.04679154 0.42034954 0.040473655 -0.16267511
000110 01 d9 8b be 0b f3 8b 3d 82 f4 8b 3e bf 6a 9c 3d
       -0.27313998 0.06833466 0.27334982 0.07637548
000120 88 06 85 3e 65 66 79 be dd 35 76 3c ce b6 43 bf
       0.25981545 -0.24355467 0.01502749 -0.7645081
000130 0b 89 a3 3e 98 f9 41 3f b9 ae 35 3e 39 81 b4 3e
       0.31940493 0.75771475 0.17742433 0.3525484
000140 3d 8b ed 3d 05 d8 56 3e 52 00 ef 3d 8f 47 c3 3c
       0.11598823 0.20980842 0.11669983 0.023837833
000150 10 ef 23 bc a3 ce 7c 3e 58 89 c7 3c 6b 3d 14 3d
       -0.010005727 0.246882 0.024357483 0.036191385
000160 9f f0 13 bc 43 7c f9 3c bc f5 47 3e bc a3 e1 bd
       -0.0090295365 0.03045476 0.19527334 -0.11017558
000170 72 e4 e2 3d 07 4c 86 bd 03 72 b9 bd 8f ed fe be
       0.11078729 -0.0655747 -0.09054949 -0.49790618
000180 86 e7 ff 3d 3e 54 0d 3e c8 d3 20 3e f2 56 f0 3d
       0.124953315 0.13801667 0.15705788 0.117353335
000190 f6 47 77 3c 71 c5 07 bf cb be 51 3e 64 36 87 3c
       0.01509284 -0.53035647 0.20482938 0.016505428
0001a0 0c 55 08 bf 49 f6 11 bd 4d e0 0a 3e 43 01 bc bd
       -0.5325477 -0.035635266 0.13562126 -0.09179928
0001b0 90 56 48 bc 41 3e 51 3e 66 b5 00 bf 0e 78 69 be
       -0.012227669 0.20433904 -0.5027679 -0.22799703
0001c0 07 50 90 3d d2 0e f7 3d a4 da aa 3d c2 a8 cd 3e
       0.07046514 0.120633736 0.08342484 0.40167814
0001d0 f9 83 ae be eb 46 0b 3f d4 de f7 be 1c a4 8e be
       -0.34085062 0.5440509 -0.48412192 -0.2785958
0001e0 fd 33 bb 3d 58 bd eb be 56 54 a0 3d 42 e1 bc bd
       0.09140775 -0.46042895 0.07828586 -0.09222652
0001f0 f0 48 14 be 1d 1a 7d bd a1 0f de 3d 2f 62 5d 3d
       -0.14480948 -0.06179248 0.10842825 0.054048713
000200 59 6e f9 3d ee 79 bd bd 9d 68 90 be a9 98 25 3d
       0.1217925 -0.09251772 -0.28204814 0.04042879
000210 b5 83 2e bc 52 b2 18 3d 93 19 62 3d 2d ce f3 3e
       -0.010651519 0.037279435 0.05520017 0.47618237
000220 b9 19 62 3d 03 95 d8 be 61 a3 c2 be 29 f9 43 be
       0.055200312 -0.42301187 -0.38015273 -0.19138016
000230 53 82 20 3f f1 04 ae be c7 1b 75 bd af 12 40 bc
       0.6269886 -0.33988145 -0.059840944 -0.0117232045
000240 53 86 98 be 6a d5 e5 3c 0f f0 3f 3e de a2 9e be
       -0.2978998 0.028055865 0.18743919 -0.30983633
000250 c2 c6 a4 be 00 06 10 be de ba a8 be 0d db 59 3f
       -0.3218289 -0.14064789 -0.32955068 0.8509987
000260 23 e1 df be 12 55 79 3e a0 3b d6 3e e1 1b d1 3e
       -0.43726453 0.24348858 0.41842365 0.40841582
000270 0d 62 7e 3e 02 c4 9c bd ad 12 d1 be 6a e5 3a 3d
       0.24842091 -0.07654573 -0.4083456 0.045628943
000280 4a 6b 79 3c ba 55 43 3e 91 ba f8 be cd c6 df 3d
       0.015223334 0.19075671 -0.4857984 0.1092659
000290 39 0c aa 3d 2a 65 1b be 9c 9a cd bd 28 9d 8b bd
       0.083031125 -0.1517531 -0.10039255 -0.068170846
0002a0 97 de 18 be 14 01 8a 3e d5 78 d6 3b 6f c9 32 3f
       -0.14928661 0.26953948 0.006545166 0.69838613
0002b0 ef c9 5a 3e fb 5b fe 3d 76 75 b5 3e 81 15 0e 3e
       0.21366094 0.12419888 0.35441178 0.1387539
0002c0 9f 4a 90 3c 8b 6d af 3d 5f 23 80 3d 8b 6f 99 3e
       0.017613707 0.085658155 0.062567465 0.29967913
0002d0 e2 c6 4a be 30 2a 13 3e ac 86 80 3d 03 df 0d 3e
       -0.1980243 0.14371562 0.062756866 0.13854603
0002e0 0e f3 02 bd 49 2f 37 bd 5d f4 36 bd c8 9c 99 bd
       -0.031970076 -0.04472283 -0.044666637 -0.07500607
0002f0 cf 0f 49 3d 06 17 06 3e 87 e5 d5 bd 3e 1c 24 bf
       0.049087342 0.1309472 -0.104441695 -0.64105594
000300 cf 0e 5d 3e a7 a4 9f 3e 74 ef 94 be c0 8c a7 bd
       0.2158768 0.31180307 -0.29088938 -0.08181143
000310 4b 2e 30 3d 33 65 77 3d 25 a6 b0 3d c8 23 03 3d
       0.0430129 0.060399245 0.086254396 0.032016546
000320 76 5c 8d 3c 84 63 01 bf 66 08 7f 3e 6a fb 02 be
       0.017256003 -0.50542474 0.24905547 -0.1279122
000330 90 7a 65 3d 88 a4 dd bd ea 9c d2 bd c9 0a a6 3c
       0.056025088 -0.108223975 -0.10283835 0.020268815
000340 cc 73 45 3c dd 8f bb be 9b 23 ec bd 7a e4 3d 3d
       0.012051534 -0.36633196 -0.11530229 0.04636047
000350 11 00 25 be c1 f0 85 bd 14 1a 45 3e c0 c5 90 bd
       -0.16113307 -0.06540061 0.1924823 -0.07068968
000360 e5 f3 04 3e 9b 05 4f 3e 9f 53 d7 bd ea d6 1e be
       0.12983663 0.20216982 -0.10513996 -0.1551167
000370 13 d8 bb 3c c1 a1 25 3d 84 a4 0a 3d 10 91 03 3c
       0.02293018 0.040437464 0.0338483 0.008030191
000380 cf a3 e3 3c fd aa 76 3e cd b2 6b be e0 52 24 be
       0.027788071 0.24088664 -0.23017426 -0.1604724
000390 61 64 28 bd 8a 52 72 be b7 5a 77 3e f5 75 69 bd
       -0.041111354 -0.23664299 0.24155699 -0.05699726
0003a0 53 14 8a 3d a8 34 36 be 97 19 b0 bc 7b 5b 8e be
       0.06742158 -0.17793524 -0.021496577 -0.2780417
0003b0 82 6e b5 3c 9b 2d b5 bc 59 9d 1e bd 1b f4 27 bf
       0.02214742 -0.022116473 -0.038724277 -0.6560685
0003c0 8b 47 fc be 2b 93 34 3d d2 30 ee 3b 9a dd 22 3e
       -0.49273333 0.044085663 0.0072690034 0.15904847
0003d0 9e b9 47 bd a6 2e 9f bd f0 3f a8 bd df b2 15 bd
       -0.048761003 -0.07772569 -0.0821532 -0.036547538
0003e0 87 28 42 3d c2 94 f4 3e 33 c1 bc bd f7 9b 3a bf
       0.04740193 0.47769743 -0.09216537 -0.72894233
0003f0 29 05 b5 3d 78 ea 00 3f 02 8c b2 be af 33 dd be
       0.08838875 0.5035777 -0.34872442 -0.43203494
