trained_models/table5_pidinet-small-l.pth (torch, 652568 bytes, 42 tensors)

module.init_block.weight f4 [30, 3, 3, 3]
0	0xbe827f64	-0.25487816
1	0xbd14a533	-0.03629036
2	0x3d6b2570	0.05740875
3	0x3deb1068	0.114777386
4	0x3d8fa0d6	0.07013099
5	0x3db7ba88	0.08971125
6	0xbd86afc6	-0.06576495
7	0xbce66d66	-0.028128337
8	0x3e109a77	0.14121424
9	0xbf6f231a	-0.93412936
10	0xbf038384	-0.5137255
11	0xbe0a4c20	-0.13505602
12	0xbf194a2d	-0.5987881
13	0xbd70fed0	-0.058836758
14	0x3edf9e94	0.43675673
15	0x3e48afc9	0.19598307
16	0x3f0ffd5d	0.56245977
17	0x3f800a4a	1.000314
18	0x3f9c3fa4	1.2206922
19	0x3f1531fc	0.58279395
20	0x3db04af3	0.086080454
21	0x3efce625	0.49394336
22	0x3d8c2bb2	0.06844272
23	0xbf1001f4	-0.5625298
24	0xbe044202	-0.12915805
25	0xbf0baf3a	-0.5456425
26	0xbf982631	-1.1886655
27	0x3e14cdc0	0.14531612
28	0x3cbbad25	0.02290971
29	0x3c7715aa	0.015080849
30	0x3cd54046	0.026031625
31	0xbbb14074	-0.0054092947
32	0xbc3a2107	-0.011360413
33	0xbda68a15	-0.08131806
34	0xbbe553af	-0.0069985013
35	0x3b58bcf6	0.0033071614
36	0x3e303c23	0.1721044
37	0x3e90b011	0.28259328
38	0x3df3ef7f	0.11910915
39	0xbe2b78c4	-0.16745287
40	0x3c9d124a	0.01917376
41	0xbd3d29fe	-0.046182625
42	0xbe1a7175	-0.15082343
43	0xbde5e512	-0.11225332
44	0x3da3dcb5	0.08001081
45	0x3cb5e576	0.022204142
46	0xbd1bf4c2	-0.038075216
47	0xbc5ca6e1	-0.013467521
48	0x3dae7a24	0.0851939
49	0xbd06df60	-0.03292787
50	0xbc211a80	-0.009832978
51	0x3d8be4de	0.06830762
52	0xbda30b57	-0.07961147
53	0xbcb7ba0c	-0.022427581
54	0x3de674d6	0.112527534
55	0xbca2c17a	-0.019867647
56	0xbab1f2ca	-0.0013576385
57	0xbe0c874f	-0.13723491
58	0x3d5da739	0.054114554
59	0x3d9e9ea1	0.077451
60	0xbdc987b0	-0.098403335
61	0xbda622a7	-0.08112078
62	0x3de928aa	0.11384709
63	0xbe858334	-0.26076663
64	0x3e6f47d4	0.23367244
65	0x3f591c30	0.84808636
66	0xbee3d0c3	-0.4449521
67	0xbc78d65e	-0.015187828
68	0x3f076cc1	0.5290032
69	0xbf347954	-0.7049763
70	0xbe418313	-0.18897657
71	0x3e096259	0.13416423
72	0x3e347ae1	0.17625
73	0xbe6720b0	-0.22571063
74	0xbf5dab1d	-0.86589223
75	0x3f1e5af8	0.6185756
76	0x3ceb5eff	0.028731821
77	0xbf23bb04	-0.6395724
78	0x3f529e4c	0.8227279
79	0x3e860a1d	0.2617959
80	0xbe819654	-0.25310004
81	0xbce9abf1	-0.02852437
82	0x3e502747	0.20327483
83	0xbe136373	-0.14393406
84	0xbccdf8ff	-0.025143145
85	0xbd5853af	-0.052814182
86	0xba15ee9b	-0.0005719454
87	0x3d73362f	0.059377845
88	0xbe21c6bd	-0.15798469
89	0x3bb65651	0.005564489
90	0xbc84edc5	-0.016226659
91	0x3e3fa4c1	0.18715192
92	0xbe7702a6	-0.24122104
93	0xbd023635	-0.031789977
94	0x3d422f3d	0.04740833
95	0x3ca780ce	0.020447161
96	0x3d41f1c6	0.047349714
97	0xbd80be80	-0.06286335
98	0x3d763c0c	0.06011586
99	0xbd93de4d	-0.07220135
100	0x3e449d10	0.1920054
101	0xbe04707c	-0.12933534
102	0xbb50e168	-0.0031872634
103	0x3c5096c9	0.0127312625
104	0x3ca71f2e	0.02040061
105	0x3c624136	0.013809493
106	0xbde285c8	-0.11060673
107	0x3dba4659	0.09095449
108	0xbd68cb19	-0.056834314
109	0xbdebcaf3	-0.11513319
110	0x3da23ac8	0.07921368
111	0x3d6be9f2	0.057596155
112	0xbc04b127	-0.008098877
113	0x3c814c80	0.015783548
114	0x3cf48a0d	0.029850984
115	0xbd059b84	-0.032619014
116	0xbd8d6978	-0.06904882
117	0x3d37405a	0.044739105
118	0xbb86ec46	-0.0041175215
119	0xbe162614	-0.14662963
120	0x3e28afa1	0.16473247
121	0x3c79a90b	0.015238057
122	0xbcdafeef	-0.02673289
123	0xbd4e39ea	-0.0503482
124	0xbd95ed92	-0.073207036
125	0x3b00f6c6	0.0019678338
126	0x3cff4320	0.031159937
127	0x3d1d93e2	0.03847111
128	0xb9db0500	-0.0004177466
129	0xbc4139ff	-0.0117936125
130	0x393e855a	0.0001816949
131	0x3d340592	0.043950625
132	0xbd6481f3	-0.05578799
133	0xbd70dbee	-0.05880349
134	0x3c9bff88	0.019042745
135	0xbf9ac924	-1.2092633
136	0xbe9fa1de	-0.31178182
137	0xbea3fdb7	-0.32029507
138	0xbe231edb	-0.15929739
139	0x3c316a2a	0.010828534
140	0x3f17e1dd	0.59329015
141	0xbae2179c	-0.0017249468
142	0x3f273a94	0.6532376
143	0x3f8b0855	1.0861918
144	0x3fa80789	1.31273
145	0x3ecf2b19	0.40462568
146	0x3edb3088	0.42810464
147	0x3e256d8a	0.16155067
148	0xbc61d17a	-0.013782853
149	0xbf2a0cc0	-0.66425705
150	0xbe0bf160	-0.13666296
151	0xbf36972e	-0.7132443
152	0xbf9cd9b6	-1.225394
153	0xbdcca0c1	-0.09991599
154	0xbddb56c5	-0.10709909
155	0xbdf7b1d3	-0.12094464
156	0xbc3ffb89	-0.0117176855
157	0x3b44f11e	0.0030050944
158	0x3dae26e3	0.08503511
159	0x3defa706	0.11701779
160	0x3db92703	0.09040644
161	0x3e257b53	0.16160326
162	0x3cd92e83	0.026511436
163	0x3e0c1a29	0.13681854
164	0x3db34675	0.08753673
165	0xbd89e907	-0.067338996
166	0x3d57e28e	0.052706294
167	0x3de47c7e	0.111565575
168	0xbdf93529	-0.121683426
169	0xbe1006cb	-0.14065091
170	0xbd42af23	-0.047530305
171	0x3ce47fff	0.027893065
172	0x3e4bf9ea	0.19919553
173	0x3e4a8f2c	0.19781178
174	0xbe10ab7e	-0.14127919
175	0xbcf363d9	-0.029710697
176	0x3d76d184	0.060258403
177	0xbe203992	-0.15646961
178	0xbe2b8f2c	-0.16753834
179	0xbda08835	-0.078384794
180	0x3d00da1f	0.031458016
181	0x3d398a6e	0.045298032
182	0x3d31af69	0.043380175
183	0x3a802c71	0.000977887
184	0xbd161297	-0.036638822
185	0x3d9ac467	0.07556992
186	0xbd2ff702	-0.042960174
187	0xbe1778b7	-0.14792143
188	0xbd16827f	-0.036745545
189	0xbd0de357	-0.034640636
190	0x3e389f2d	0.1802947
191	0xbd2ad12b	-0.041703384
192	0xbd357da5	-0.044309277
193	0xbd4ad9fb	-0.04952429
194	0xbd6a37f3	-0.057182264
195	0xbd2df6ed	-0.042471815
196	0xbe1a36bc	-0.15059942
197	0xbbb9a494	-0.005665371
198	0x3f3b2e8e	0.7311791
199	0x3ecc39f1	0.39887956
200	0xbc1991aa	-0.009373108
201	0x3f0c917c	0.5490949
202	0xbd239af1	-0.039942686
203	0xbf16e6f8	-0.5894618
204	0x3c80679c	0.015674405
205	0xbee01a9d	-0.43770304
206	0xbf5eed6a	-0.87081015
207	0xbf44b9c9	-0.76845986
208	0xbf1dc1cd	-0.6162384
209	0x3de863de	0.11347173
210	0xbf210ebc	-0.6291311
211	0x3b61426c	0.0034371866
212	0x3f29aa6e	0.6627568
213	0x3c1470ab	0.009060065
214	0x3f258489	0.6465536
215	0x3f63768b	0.8885276
216	0x3cc19a76	0.023633223
217	0x3c5df025	0.013546024
218	0x3d1bc107	0.038025882
219	0x3cd19cda	0.025587488
220	0x3aa7682f	0.0012772138
221	0xbd2249d8	-0.039621204
222	0x3c85cb00	0.01633215
223	0xbdf7541b	-0.12076589
224	0x3c9279d7	0.017880363
225	0x3e066445	0.13124187
226	0x3e423eaf	0.18969224
227	0xbbe54e0f	-0.0069978307
228	0x3e1aa777	0.15102945
229	0xbb84cda6	-0.0040528355
230	0xbe0c785f	-0.13717793
231	0xbda0452a	-0.07825692
232	0xbe40da5a	-0.18833295
233	0xbd9ce364	-0.07660559
234	0x3e2a8e2a	0.16655794
235	0x3c21e7aa	0.009881893
236	0xbd1fca6a	-0.039011396
237	0x3d493c6d	0.049129892
238	0xbda73dd8	-0.08166093
239	0x3ce0b4d5	0.027429977
240	0xbd835d24	-0.064142495
241	0xbcf2707a	-0.029594649
242	0xbdd40871	-0.103531726
243	0xbeb36554	-0.35038245
244	0xbd80da2e	-0.062916145
245	0xbe28c615	-0.16481812
246	0xbe9743ca	-0.29543906
247	0xbb3fce34	-0.0029267194
248	0x3ee7c006	0.4526369
249	0xbdd8c844	-0.10585073
250	0x3e95180c	0.2911991
251	0x3ed16e2b	0.40904364
252	0x3ec1098f	0.37702605
253	0x3e49d5ec	0.19710511
254	0x3deeb08e	0.11654769
255	0x3ea8b01b	0.32946858

module.block1_1.conv1.weight f4 [30, 1, 3, 3]
0	0x3ea7b271	0.32753327
1	0xbd95acda	-0.073083594
2	0x3eb9281f	0.36163422
3	0x3cb87a44	0.022519238
4	0x8000d8c4	-7.7761e-41
5	0xbc904401	-0.017610552
6	0x3ea761f7	0.3269193
7	0xbda08ff1	-0.07839955
8	0x3ea3960e	0.3195042
9	0x3e3d3749	0.18478121
10	0x3e88eeac	0.26744592
11	0x3ea0c833	0.3140274
12	0xbd402279	-0.046907876
13	0x00014c7a	1.1927e-40
14	0x3e59be5e	0.21264026
15	0xbd79a052	-0.06094391
16	0x3dabfce7	0.08397847
17	0x3e23846f	0.15968488
18	0xbddc912d	-0.107698776
19	0x3e6a328a	0.22870842
20	0xbe74ad97	-0.23894344
21	0x3e58e6eb	0.21181838
22	0x00015ae6	1.24444e-40
23	0x3e33edd6	0.17571196
24	0xbe495047	-0.1965953
25	0x3e735b26	0.23765239
26	0xbdf47772	-0.11936845
27	0x3d0f1c82	0.034939297
28	0xbe8e1167	-0.27747652
29	0x3d9ddc4c	0.07708034
30	0x3c6de3d3	0.01451965
31	0x000112b8	9.855e-41
32	0x3d2f8af4	0.042857125
33	0xbbe50222	-0.0069887796
34	0xbdaebebc	-0.085324734
35	0x3e0b1593	0.13582449
36	0x3d51b2a4	0.051195756
37	0x3bc9c440	0.006157428
38	0xbde6d0f8	-0.112703264
39	0x3e8e13a2	0.27749354
40	0x00001597	7.745e-42
41	0x3e4902a2	0.1962991
42	0xbe0ecf94	-0.13946372
43	0x3e292a50	0.16520047
44	0x3ce82117	0.028336091
45	0xbea16dae	-0.3152899
46	0x3e0c085b	0.13675062
47	0xbe09b9b4	-0.13449746
48	0x3deef269	0.1166733
49	0x8001335e	-1.10263e-40
50	0x3e246e72	0.16057757
51	0xbe237c9f	-0.15965508
52	0x3de04f78	0.109526575
53	0xbe9b4c8d	-0.3033184
54	0xbd1d436e	-0.038394384
55	0xbc36e915	-0.0111639695
56	0x3dcdfcd9	0.100579925
57	0xbe31a5c9	-0.17348398
58	0x8001360e	-1.11227e-40
59	0xbe1846d2	-0.14870766
60	0x3e5c12d8	0.21491563
61	0xbb6cce91	-0.0036133865
62	0xbcf848f2	-0.03030822
63	0xbdb215b1	-0.086955436
64	0x3cc78e0c	0.024359725
65	0x3e2386b3	0.15969352
66	0x3e98f397	0.29873344
67	0x00014ca1	1.19325e-40
68	0x3e8e3343	0.27773485
69	0x3e846b3d	0.25863066
70	0x3e144956	0.144811
71	0x3d9dc18a	0.0770293
72	0xbd269956	-0.040673576
73	0xbd93ba49	-0.072132654
74	0xbcfdc9d4	-0.030980028
75	0x3cdd9edf	0.027053295
76	0x000110f6	9.792e-41
77	0xbe8493d1	-0.25894025
78	0x3dbf9558	0.09354657
79	0x3e6d62cc	0.2318222
80	0x3e9e2c1e	0.30893034
81	0x3e9b525f	0.30336282
82	0xbe67be49	-0.22631182
83	0x3e5645ad	0.20925017
84	0xbeaaf742	-0.33391768
85	0x800138fc	-1.12278e-40
86	0xbe8ef930	-0.2792449
87	0x3e915824	0.28387558
88	0xbe467d22	-0.19383672
89	0x3e8952a7	0.2682087
90	0x3c6d7ab9	0.014494591
91	0xbe92e05c	-0.28686798
92	0xbe051141	-0.12994863
93	0xbcb65e4a	-0.022261757
94	0x0001427b	1.15684e-40
95	0xbe83e075	-0.25757185
96	0x3e533fa4	0.20629746
97	0x3d42d653	0.047567677
98	0x3e81f352	0.2538095
99	0x3dbfbd36	0.09362261
100	0xbe3b62f0	-0.1829946
101	0xbe90a439	-0.28250292
102	0x3dea067f	0.1142702
103	0x80006394	-3.5722e-41
104	0xbeb722ad	-0.35768643
105	0x3ee5aaf4	0.4485699
106	0x3d9c7f47	0.07641464
107	0xbe0b4892	-0.13601902
108	0xbdc31d60	-0.09527087
109	0x3dcd481c	0.100235194
110	0xbe2d18b7	-0.16903959
111	0x3e092842	0.13394263
112	0x000153bd	1.21875e-40
113	0x3e0e5e8e	0.13903257
114	0xbe303123	-0.17206244
115	0x3e020611	0.12697627
116	0xbe0df9cd	-0.13864823
117	0xbe81d96e	-0.25361198
118	0xbecb836d	-0.39748707
119	0xbcfb3eae	-0.030669536
120	0xbe4c0de7	-0.19927178
121	0x8001146e	-9.9164e-41
122	0x3d672e4f	0.056440648
123	0xbdf5637d	-0.119818665
124	0x3e94cd45	0.29062858
125	0x3d0fe4ef	0.035130437
126	0x3de14715	0.10999886
127	0xbe10a610	-0.14125848
128	0xbc4659ba	-0.012106353
129	0xbbf32239	-0.007419851
130	0x000117ef	1.00421e-40
131	0x3bb11b0c	0.0054048356
132	0x3c09f826	0.00842098
133	0xbe42981b	-0.19003336
134	0x3e79e013	0.24401884
135	0x3e5dc63a	0.21657649
136	0x3d4ef3a0	0.050525308
137	0xbe68e6e2	-0.22744325
138	0x3f00032e	0.5000485
139	0x00009fc0	5.7308e-41
140	0xbe2f49eb	-0.17118041
141	0x3ecfaa31	0.40559533
142	0x3e5f9ce1	0.21837188
143	0x3d572f5d	0.052535404
144	0x3dc03856	0.09385745
145	0xbdee25f8	-0.11628336
146	0x3ea40fef	0.32043406
147	0x3e4b5b89	0.19859137
148	0x80015076	-1.207e-40
149	0xbcc61d22	-0.024183813
150	0xbe00d177	-0.12579904
151	0x3dd40fa3	0.10354545
152	0xbde6b129	-0.11264259
153	0x3c5eb36a	0.01359258
154	0xbe87663f	-0.26445195
155	0xbd60c377	-0.05487391
156	0xbd35cf9d	-0.04438745
157	0x00012773	1.05987e-40
158	0xbdef1fe8	-0.116760075
159	0xbdd0fc01	-0.10204316
160	0xbea05b40	-0.31319618
161	0x3e367ae3	0.17820315
162	0xbe10d1ae	-0.14142486
163	0xbde9485f	-0.11390757
164	0x3ea2b909	0.31781796
165	0xbddec5d8	-0.108775795
166	0x80014dfc	-1.19811e-40
167	0xbe651fd4	-0.22375423
168	0xbe2e52a0	-0.17023706
169	0xbdf91de6	-0.12163906
170	0xbe48c3fe	-0.19606015
171	0x3dbadec3	0.0912452
172	0xbdc10b7b	-0.09426018
173	0x3e8e2315	0.2776114
174	0x3e116f84	0.14202696
175	0x8000dd00	-7.928e-41
176	0x3d8627ce	0.06550561
177	0x3e3ea225	0.1861654
178	0xbe4b374f	-0.19845317
179	0xbdc12264	-0.094303876
180	0x3d9b9732	0.075971976
181	0x3e2b5f59	0.16735591
182	0x3cc42822	0.023944918
183	0x3bc83086	0.0061093
184	0x800152d3	-1.21547e-40
185	0xbe281772	-0.16415194
186	0xbe1b0587	-0.15138827
187	0xbe83a2f4	-0.2571026
188	0xbe299b32	-0.16563109
189	0xbe6e6586	-0.23280916
190	0x3e3a05eb	0.1816632
191	0xbe9f2a1b	-0.3108681
192	0x3dd4418b	0.10364064
193	0x00012627	1.05522e-40
194	0x3dc108b8	0.09425491
195	0xbe9d8d73	-0.3077198
196	0x3e286a43	0.16446786
197	0xbe607082	-0.21917918
198	0x3bdef946	0.006804618
199	0x3e0196ab	0.12655132
200	0x3e33c324	0.17554909
201	0x3f01d6b1	0.5071822
202	0x80015441	-1.2206e-40
203	0xbb99479e	-0.004677727
204	0xbd453fd0	-0.04815656
205	0x3e956203	0.2917634
206	0xbdefc1e8	-0.117069066
207	0xbe94cfa2	-0.2906466
208	0xbe28fa73	-0.16501789
209	0xbc02cfaf	-0.007984086
210	0xbe97e10e	-0.2966389
211	0x0000a306	5.8482e-41
212	0x3dd3001b	0.103027545
213	0xbe3c1a78	-0.18369472
214	0xbcc15b53	-0.023603117
215	0x3dcc90ac	0.099885315
216	0x3d196482	0.037449367
217	0x3c75ac31	0.014994667
218	0xbda1b76b	-0.07896312
219	0x3e4d5d3c	0.20055097
220	0x000124af	1.04995e-40
221	0x3dfa2cb2	0.12215556
222	0xbe35511d	-0.17706724
223	0xbc0e3a8b	-0.00868095
224	0xbc92cf9e	-0.017921265
225	0x3e243c5e	0.16038653
226	0x3e93bf8f	0.28857085
227	0x3edce078	0.43140006
228	0xbcd2081d	-0.025638634
229	0x00009b45	5.57e-41
230	0x3e5368e4	0.20645481
231	0x3d7406a2	0.059576638
232	0x3e862cf2	0.26206166
233	0x3eab43e3	0.3345023
234	0xbe865d66	-0.26243132
235	0x3c8a1ee7	0.016860439
236	0x3c37b0f8	0.011211626
237	0x3e65fb63	0.22459178
238	0x80014997	-1.18235e-40
239	0x3d80fec7	0.06298595
240	0xbc052ad8	-0.0081278905
241	0xbba2feac	-0.004974207
242	0xbdc2a5b9	-0.09504265
243	0xbc1fec26	-0.009760892
244	0x3bfafb0c	0.0076593217
245	0x3e557ec5	0.2084914
246	0x3e530882	0.20608714
247	0x80016e33	-1.31368e-40
248	0xbe4e1363	-0.20124583
249	0xbe4e5567	-0.20149766
250	0x3d8f1b20	0.069875956
251	0x3d1599f5	0.036523778
252	0x3dc2a727	0.09504538
253	0xbe8789ec	-0.26472414
254	0x3e547cc0	0.20750713
255	0x3d7c03e2	0.06152714

module.block1_1.conv2.weight f4 [30, 30, 1, 1]
0	0x3faffe7d	1.3749539
1	0xbdff0041	-0.1245122
2	0xbf2b25a2	-0.668543
3	0xbdbbe8e9	-0.091752835
4	0x3d944a62	0.0724075
5	0x3e2d0e40	0.16899967
6	0x3cc47cff	0.023985384
7	0x3ee71d98	0.45139766
8	0xbbb30551	-0.0054632802
9	0xbd11e529	-0.035618935
10	0xbeae1f78	-0.34008384
11	0xbcf73340	-0.030175805
12	0xbe14cd31	-0.145314
13	0x3c32fe0a	0.010924825
14	0x3e1f4c31	0.15556408
15	0x3ca5f9b0	0.020260662
16	0x3e0b130f	0.13581489
17	0xbdaea8f1	-0.08528317
18	0xbdb3b4cd	-0.087747194
19	0x3d658a0a	0.056039847
20	0xbd25e4e1	-0.04050148
21	0xbeebda09	-0.46064785
22	0x3d83c4e0	0.06434035
23	0xbb2b25b4	-0.0026115002
24	0xbcc06f42	-0.023490552
25	0xbd556b5d	-0.052104343
26	0x3d7a107b	0.061050873
27	0xbd51e4bd	-0.051243532
28	0xbd902970	-0.070391536
29	0xbdc11a55	-0.094288506
30	0xbe08c549	-0.13356508
31	0x3f179941	0.5921822
32	0x3dcf4d3a	0.10122152
33	0xbed6cc5b	-0.41952786
34	0x3f736fdd	0.95092565
35	0xbd5284a6	-0.051396035
36	0x3f0cfde6	0.5507492
37	0x3e89beb0	0.26903296
38	0x3e863862	0.26214892
39	0x3d0e23b8	0.034702033
40	0x3dc8b56e	0.0980023
41	0x3e4bee5b	0.19915144
42	0xbe43ef6b	-0.191343
43	0x3e09c903	0.13455586
44	0xbf40293b	-0.7506291
45	0xbe0c31fc	-0.13690943
46	0x3eb16b55	0.346522
47	0xbf184938	-0.5948672
48	0x3ee217e8	0.44158864
49	0x3e70b52a	0.23506609
50	0xbfb0b0b1	-1.3803922
51	0x3e23efae	0.160094
52	0x3ebbb93d	0.36664763
53	0xbd30e842	-0.04319025
54	0x3d067b4f	0.03283244
55	0x3deacea3	0.11465194
56	0x3df831b5	0.12118856
57	0x3f37577b	0.7161786
58	0x3e5fde7b	0.21862213
59	0xbdf334df	-0.11875319
60	0x3e9226a1	0.28545097
61	0x3c123d9b	0.008925821
62	0xbf89596d	-1.0730416
63	0xbcb1acdd	-0.021688873
64	0xbceaf1fb	-0.028679838
65	0x3d9727cc	0.073806375
66	0xbca41521	-0.020029606
67	0x3c78ac99	0.015177869
68	0x3beda645	0.007252487
69	0x3dd0de10	0.10198605
70	0x3d380846	0.044929765
71	0xbdcd954c	-0.10038242
72	0x3d8538bf	0.06504964
73	0x3de60f92	0.112334386
74	0xbd9666f1	-0.07343853
75	0x3e0bdfcd	0.13659592
76	0x3dad1639	0.08451504
77	0xbcd78fbe	-0.026313659
78	0x3e1be84e	0.15225336
79	0x3d82408f	0.0635997
80	0x3cf00a7e	0.029301878
81	0x3f41089f	0.7540378
82	0xbded39ad	-0.115832664
83	0x3ced840d	0.02899363
84	0xbca122cb	-0.01966991
85	0x3c91b5a5	0.01778681
86	0xbdaac180	-0.083376884
87	0x3c344ee2	0.011005135
88	0x3d639b76	0.05556818
89	0x3bfad5ad	0.0076548667
90	0xbe0a81aa	-0.13526025
91	0xbe851b4d	-0.2599739
92	0xbdc50b1c	-0.096212596
93	0x3fc8e978	1.5696249
94	0xbf0020f8	-0.50050306
95	0x3c8f0aca	0.0174612
96	0xbef686e2	-0.48149782
97	0x3ef32959	0.47492483
98	0x3ea0f4c8	0.31436753
99	0x3d3a205a	0.04544101
100	0xbd78a040	-0.0606997
101	0x3e933337	0.2875001
102	0xbd9adc60	-0.075615644
103	0x3dfb7592	0.12278284
104	0x3f2e43fc	0.68072486
105	0x3d15e1c0	0.036592245
106	0x3fa6b5b5	1.3024203
107	0x3f0df546	0.5545238
108	0x3ec74ce7	0.3892586
109	0x3e97fdc7	0.29685804
110	0x3f57e2a9	0.8433023
111	0x3cda2f45	0.026633868
112	0x3ca8baa7	0.020596815
113	0xbec0ed3b	-0.37680992
114	0xbe9c8d80	-0.30576706
115	0x3d427371	0.047473375
116	0x3e5f0e0a	0.21782699
117	0x3f2b57c3	0.6693079
118	0x3db0022b	0.085941635
119	0x3e971951	0.29511502
120	0xbe8fb30e	-0.28066295
121	0xbf66931f	-0.9006824
122	0xbd0ac9a0	-0.03388369
123	0xbd4e4279	-0.050356362
124	0xbfae1e55	-1.3603007
125	0xbe688535	-0.22707064
126	0xbea791ff	-0.32728574
127	0x3e2ef7b7	0.17086683
128	0xbeeb06a3	-0.459035
129	0xbe99657a	-0.29960233
130	0xbbaa9646	-0.0052059023
131	0x3e3ee983	0.18643765
132	0xbe6fa570	-0.23402953
133	0xbf6615a7	-0.8987679
134	0xbe076e81	-0.13225748
135	0xbf44cd5b	-0.7687585
136	0x3d98b12f	0.0745567
137	0xbe82c11e	-0.25537962
138	0xbd822220	-0.06354165
139	0xbea0d1a1	-0.31409934
140	0xbde5edcc	-0.11226997
141	0xbdfbf190	-0.12301934
142	0x3e7308d4	0.23733836
143	0xbf7aaa0e	-0.9791573
144	0xbf24a78a	-0.64318144
145	0x3e30d036	0.17266926
146	0x3e8e74de	0.27823538
147	0xbe800d5f	-0.250102
148	0xbe035df6	-0.12828812
149	0xbec98511	-0.39359334
150	0xbcc4d1ec	-0.02402588
151	0xbc8a0009	-0.01684572
152	0x3dde8441	0.10865069
153	0x3da5329a	0.08066292
154	0x3adc1154	0.0016789832
155	0xbf89f9b2	-1.0779326
156	0x3d6c1a24	0.057642117
157	0xbe46350e	-0.19356176
158	0x3c240173	0.010010111
159	0x3f9ae185	1.2100073
160	0xbe7baeb1	-0.24578358
161	0xbea61ad2	-0.32442337
162	0xbeb8c49d	-0.36087504
163	0xbc03a98a	-0.008036027
164	0xbdbcdc0b	-0.09221657
165	0x3e1883bb	0.14894001
166	0x3cd3c4c0	0.025850654
167	0xbd1b665f	-0.037939426
168	0xbd212df0	-0.03935045
169	0xbbb18982	-0.0054180035
170	0x3c1e7167	0.009670592
171	0x3e87104e	0.26379627
172	0x3b7a0570	0.0038150214
173	0x3bbdc4e4	0.0057912935
174	0xbc9b925a	-0.018990684
175	0xbe4d87bd	-0.20071311
176	0xbe625322	-0.22102025
177	0x3e03ce58	0.12871683
178	0xbdf02a72	-0.11726846
179	0x3dec5392	0.11539377
180	0x3c7d2190	0.015449896
181	0x3f33a78b	0.70177525
182	0xbda39493	-0.07987323
183	0x3d47c89b	0.048775297
184	0xbca20fb3	-0.019782877
185	0x3a50eb8c	0.00079696695
186	0x3f78647b	0.9702832
187	0x3d23d17b	0.039994698
188	0x3e984346	0.29738826
189	0xbc5897aa	-0.013219753
190	0x3c82afa7	0.015952898
191	0xbd1a097b	-0.037606698
192	0xbc4dd6a7	-0.012563384
193	0x3f39363c	0.7234838
194	0x3e13b01d	0.1442265
195	0x3f04f9ab	0.51943463
196	0x3e84e967	0.25959322
197	0x3f0b785b	0.5448052
198	0xbe97c645	-0.29643455
199	0x3fa0c9a2	1.2561533
200	0x3f266b34	0.6500733
201	0x3da794eb	0.08182701
202	0x3e96d2df	0.29457757
203	0x3ed74202	0.42042547
204	0xbebb6bab	-0.36605582
205	0xbd57be0c	-0.052671477
206	0x3c0019b3	0.007818627
207	0xbded4f6c	-0.11587414
208	0xbdf316b1	-0.118695624
209	0x3c8dbfd2	0.017303381
210	0xbf26f77e	-0.65221393
211	0x3c260257	0.010132394
212	0x3f36c718	0.7139754
213	0x3d81501c	0.06314108
214	0x3e08199f	0.13291024
215	0x3eab2646	0.33427638
216	0xbc900a96	-0.017583173
217	0xbfad396f	-1.3533152
218	0xbdd6ee2d	-0.10494647
219	0x3ede9758	0.4347484
220	0xbefe6352	-0.4968515
221	0xbf464667	-0.77451175
222	0x3f37e347	0.7183117
223	0x3e7f3a28	0.24924529
224	0xbe09bf03	-0.13451771
225	0x3e7742b5	0.2414654
226	0x3cfa164e	0.030528214
227	0x3e367ad7	0.17820297
228	0x3e0f54f0	0.13997245
229	0xbcb1017a	-0.02160715
230	0x3dc071d4	0.09396711
231	0x3e60044f	0.21876644
232	0xbd48060a	-0.048833884
233	0x3dfecd43	0.12441494
234	0x3dd66306	0.10468106
235	0xbf17b4e9	-0.5926042
236	0xbd7e5460	-0.062092185
237	0x3d2824a0	0.041050553
238	0xbac46afa	-0.0014985495
239	0x3ec08a40	0.37605476
240	0x3e5cecca	0.21574703
241	0xbe97ed45	-0.2967321
242	0xbdbc7402	-0.09201814
243	0xbe267a62	-0.16257623
244	0xbe9ca8cb	-0.3059753
245	0x3e5437c5	0.207244
246	0x3ed588f7	0.41706058
247	0xbda07ae6	-0.07835941
248	0x3ea85936	0.32880563
249	0x3e04ec80	0.12980843
250	0xbe31cc26	-0.17363033
251	0xbb47f74e	-0.0030512395
252	0xbd1c8996	-0.03821715
253	0x3ea2e33c	0.3181399
254	0x3e9f845f	0.3115568
255	0x3e6b44cf	0.22975467

module.block1_2.conv1.weight f4 [30, 1, 3, 3]
0	0x80012220	-1.04077e-40
1	0xbe580f30	-0.21099544
2	0xbe317491	-0.17329623
3	0xbcae392d	-0.021267498
4	0xbe576764	-0.21035534
5	0xbe8122e3	-0.2522193
6	0xbd1e30a1	-0.038620595
7	0xbe2cb3c2	-0.16865447
8	0xbe53c819	-0.206818
9	0x00015127	1.20947e-40
10	0x3de346a3	0.11097457
11	0x3ea1d221	0.31605628
12	0x3dcbc6ef	0.09950053
13	0xbd0f80c0	-0.035034895
14	0x3d8b495d	0.06801102
15	0xbcabc7a8	-0.020969227
16	0x3d84b39f	0.064795725
17	0xba8c6981	-0.0010712595
18	0x8000fd5a	-9.0885e-41
19	0x3d3bf0a4	0.04588379
20	0x3e236fc6	0.15960607
21	0x3e9084ad	0.28226224
22	0x3da7a2eb	0.08185371
23	0x3d5f642c	0.05453889
24	0x3e9a5861	0.30145553
25	0x3e61a169	0.2203423
26	0x3cd10e44	0.025519498
27	0x80016be2	-1.30537e-40
28	0x3d2fff8f	0.04296833
29	0xbd206877	-0.039162125
30	0x3edacdb1	0.42735055
31	0x3d1feed9	0.039046142
32	0x3e26391f	0.16232727
33	0x3c2f1c80	0.010687947
34	0xbcaff475	-0.02147887
35	0x3cb975cf	0.022639183
36	0x00006593	3.6438e-41
37	0x3d29718d	0.041368056
38	0x3e0a8d77	0.13530527
39	0x3e1118e5	0.14169653
40	0x3e566b7b	0.20939438
41	0x3dfd56d1	0.123700745
42	0x3e008c5c	0.12553543
43	0x3df6ec31	0.12056769
44	0x3defda0b	0.1171151
45	0x8000f9fd	-8.9679e-41
46	0x3eaf368f	0.34221312
47	0x3dd5cae4	0.10439089
48	0xbd8e86c7	-0.069593005
49	0x3e559fcc	0.20861739
50	0xbdd32037	-0.10308879
51	0xbcbd864f	-0.023135332
52	0xbcce3090	-0.02516964
53	0xbc8003eb	-0.015626868
54	0x0000f394	8.738e-41
55	0x3e8d552d	0.27604046
56	0xbd92696f	-0.07149016
57	0xbcadce55	-0.02121655
58	0xbe344c99	-0.17607345
59	0x3e4d3a72	0.20041826
60	0xbdc3de32	-0.09563865
61	0x3e92d497	0.28677818
62	0xbe44bb27	-0.19212018
63	0x80004aa8	-2.6782e-41
64	0xbe4bb025	-0.19891413
65	0xbe2d49d4	-0.16922694
66	0xbd8371f3	-0.064182185
67	0xbe6260a1	-0.22107174
68	0xbe45fb3a	-0.19334117
69	0xbd634df1	-0.055494253
70	0xbe355a2c	-0.17710179
71	0xbe477ad3	-0.19480447
72	0x8001409d	-1.15014e-40
73	0xbee33adc	-0.44380844
74	0xbe57360d	-0.21016712
75	0x3d503d3c	0.050839648
76	0xbd5df2f9	-0.054186795
77	0x3b521952	0.003205855
78	0x3d6d8949	0.057992253
79	0xbd19d03f	-0.037552115
80	0x3d7dec7d	0.06199311
81	0x800144f4	-1.16571e-40
82	0xbeda925e	-0.42689794
83	0xbd7a6cc8	-0.061138898
84	0x3ce432f6	0.027856331
85	0x3ce167ab	0.027515253
86	0xbd338502	-0.043828018
87	0xbd0bfdc5	-0.03417756
88	0xbd5f4e50	-0.054518044
89	0xbdead9c6	-0.11467318
90	0x80013a51	-1.12755e-40
91	0x3e17ab76	0.14811501
92	0x3e5e307d	0.21698184
93	0x3dada527	0.08478766
94	0x3e17c000	0.14819336
95	0x3e509043	0.20367531
96	0x3de9653b	0.11396261
97	0x3e7c2635	0.2462395
98	0x3e1158fa	0.14194098
99	0x0001364b	1.11312e-40
100	0x3dbc3c6f	0.09191214
101	0x3dac04c0	0.083993435
102	0x3de7a75f	0.113112204
103	0x3e56cf43	0.20977502
104	0x3e737159	0.23773707
105	0x3df6672a	0.12031396
106	0x3e0e1e1a	0.1387867
107	0x3d92286d	0.07136617
108	0x80014902	-1.18026e-40
109	0x3d53a06d	0.051666666
110	0x3e604e28	0.21904814
111	0x3d98b218	0.07455844
112	0xbd314cac	-0.04328601
113	0xbbaa7571	-0.0052019884
114	0x3d29202a	0.04129044
115	0x3ec53d65	0.38523403
116	0x3d4da347	0.05020454
117	0x0000e1ed	8.1047e-41
118	0x3d73398f	0.059381064
119	0x3e330f72	0.1748636
120	0xbd00732e	-0.031359844
121	0xbccd6c6a	-0.02507611
122	0xbde7307e	-0.11288546
123	0xbd0848b4	-0.03327246
124	0x3e30163f	0.17195986
125	0x3e799562	0.24373391
126	0x00013630	1.11274e-40
127	0x3d75afb6	0.059982024
128	0x3c1dafad	0.009624404
129	0x3d659de4	0.05605878
130	0xbaa2e041	-0.0012426452
131	0x3cb9f902	0.022701744
132	0xbee708df	-0.45123956
133	0xbd829afb	-0.063772164
134	0xbcb09386	-0.02155472
135	0x800139e5	-1.12604e-40
136	0x3cb248ab	0.021763166
137	0xbdb7b6c5	-0.089704074
138	0x3c9730a8	0.018455818
139	0xbe866704	-0.2625047
140	0x3d68f24e	0.056871705
141	0xbe249105	-0.16070946
142	0xbde6eb96	-0.11275403
143	0xbc1269f9	-0.008936399
144	0x0000ef79	8.5907e-41
145	0xbe196661	-0.1498046
146	0xbc4ef297	-0.01263108
147	0x3d957caf	0.07299172
148	0x3d9ffcd7	0.07811897
149	0x3e1d13e6	0.15339622
150	0x3ec3fc38	0.38278365
151	0x3d5dec7d	0.05418061
152	0xbdbbc0e8	-0.09167653
153	0x8000f741	-8.8698e-41
154	0xbd273c31	-0.040828887
155	0xbd9aad52	-0.075525895
156	0x3ed08b0b	0.4073108
157	0xbd1bd37a	-0.038043477
158	0x3d98c7ac	0.074599594
159	0xbd3528d0	-0.044228375
160	0xbd598b86	-0.053111576
161	0xbc2603cc	-0.010132741
162	0x00015d83	1.25381e-40
163	0xbdfd7f87	-0.123778395
164	0x3c87455c	0.016512565
165	0x3e25a49e	0.16176078
166	0xbe488d97	-0.19585262
167	0xbd88639f	-0.06659626
168	0x3ea1a848	0.315737
169	0xbe3f83d0	-0.18702626
170	0xbdc71030	-0.097198844
171	0x8000661c	-3.663e-41
172	0xbde0aeab	-0.10970815
173	0xbe12cdb1	-0.14336278
174	0xbdec9dab	-0.1155351
175	0xbe4ac4ca	-0.19801632
176	0xbe5bc12b	-0.21460406
177	0xbe18e432	-0.149308
178	0xbe2170bf	-0.15765665
179	0xbe2d784c	-0.16940421
180	0x80014ef5	-1.2016e-40
181	0xbe146d40	-0.144948
182	0x3b8cf358	0.00430147
183	0x3cc6e13a	0.024277318
184	0xbf035278	-0.5129771
185	0x3cad4628	0.021151617
186	0x3e1693e4	0.14704853
187	0xbca14a50	-0.019688755
188	0x3d52de04	0.05148126
189	0x80012e38	-1.08416e-40
190	0x3d8c8f43	0.068632625
191	0x3db24e1e	0.08706306
192	0x3e6dbf57	0.23217522
193	0x3df54c4c	0.11977443
194	0x3e644f68	0.22295916
195	0x3e94075c	0.28911865
196	0x3e272219	0.16321601
197	0x3dafa498	0.08576316
198	0x800109b0	-9.5311e-41
199	0xbea66bb8	-0.32504058
200	0xbe8b4e05	-0.27207962
201	0x3d21817d	0.03943013
202	0xbe7b6ad6	-0.24552473
203	0x3e5df9cd	0.21677323
204	0x3bff6ee2	0.0077952007
205	0x3e0f5856	0.13998541
206	0x3e969991	0.29414037
207	0x000138cd	1.12212e-40
208	0xbd8d1ac7	-0.06889873
209	0x3c22da3f	0.009939729
210	0xbd9d85ef	-0.076915614
211	0x3d2ef503	0.04271413
212	0x3c88aafc	0.016683094
213	0xbd8a8e59	-0.06765432
214	0x3dede581	0.1161604
215	0x3ed1aed4	0.40953696
216	0x0001191e	1.00846e-40
217	0x3d801d82	0.06255628
218	0xbce6c62e	-0.028170671
219	0xbed53584	-0.41642392
220	0xbb0c6760	-0.002142392
221	0xbe989f7c	-0.29809177
222	0x3ce80c83	0.028326279
223	0x3d084d46	0.03327682
224	0xbc476ce0	-0.012171954
225	0x800067f8	-3.7297e-41
226	0xbcc3b292	-0.02388886
227	0xbdfa6481	-0.12226201
228	0xbe2f3b27	-0.17112409
229	0xbe85f440	-0.2616291
230	0xbe8eca42	-0.27888685
231	0xbdfe6976	-0.12422459
232	0xbd187c6f	-0.037228044
233	0xbd32f82d	-0.04369371
234	0x000102eb	9.2882e-41
235	0x3dd3180b	0.1030732
236	0x3da35ade	0.07976316
237	0x3e1ca96d	0.15299006
238	0x3e3825c2	0.17983153
239	0x3e11ddb4	0.1424473
240	0x3daf7c84	0.08568671
241	0x3e2d3c8e	0.16917631
242	0x3e1c74dd	0.15278955
243	0x00012a17	1.06934e-40
244	0xbbbe57c5	-0.005808803
245	0x3e1d8731	0.15383603
246	0xbcd30488	-0.025758997
247	0x3d8f2881	0.069901474
248	0xbc0c9252	-0.008579807
249	0x3e7ccffe	0.24688718
250	0x3e320965	0.17386396
251	0xbd2e8b71	-0.04261345
252	0x0000dbda	7.8868e-41
253	0xbd048b14	-0.032359198
254	0xbe4a4c2c	-0.1975562
255	0xbdd19609	-0.10233695

module.block1_2.conv2.weight f4 [30, 30, 1, 1]
0	0xbfbdd315	-1.4830042
1	0xbb5b5304	-0.003346623
2	0xbcd6e1c3	-0.026230698
3	0x3da6df0f	0.08148014
4	0xbc9e46d7	-0.019320888
5	0xbd2d4903	-0.042305958
6	0x3d72a81e	0.05924236
7	0x3f441975	0.76601344
8	0x3d2cfa70	0.042231023
9	0xbd9d64cb	-0.0768524
10	0xbd04b78d	-0.03240161
11	0x3c9683be	0.018373366
12	0x3c488489	0.01223863
13	0x3d96a0cd	0.07354889
14	0xbdf6b8cf	-0.12046968
15	0xbd3ba4e5	-0.045811553
16	0xbcbda94a	-0.023152012
17	0xbd52cbf9	-0.051464055
18	0x3e4e4b69	0.20145954
19	0x3cdd30b6	0.027000766
20	0xbcd386de	-0.025821146
21	0x3e3fdaf7	0.18735872
22	0x3da83c4e	0.08214627
23	0xbce5d314	-0.028054751
24	0x3d45fe02	0.048337944
25	0xbc85bd2d	-0.016325558
26	0xbc035863	-0.0080166785
27	0xbe222e72	-0.1583803
28	0x3d8d2750	0.06892264
29	0xbc3c40ab	-0.011490027
30	0xbdbeae3b	-0.093105756
31	0x3fb22edd	1.3920552
32	0xbd4c0aee	-0.04981511
33	0x3ddd2543	0.10798123
34	0xbf5c6aa2	-0.8610021
35	0x3e0abf26	0.1354948
36	0x3e8a58a4	0.27020752
37	0xbdb6e8bf	-0.089311115
38	0x3ead9073	0.33899269
39	0x3ddb58a4	0.10710266
40	0x3e95bbed	0.29244938
41	0xbdeb4228	-0.11487228
42	0x3da9532d	0.08267818
43	0x3dd1cdbc	0.10244319
44	0x3e2398c6	0.15976247
45	0xbd6aff3e	-0.057372324
46	0x3ebbea9f	0.3670244
47	0x3d518d26	0.05116
48	0x3ead3f7f	0.33837506
49	0xbf74b16e	-0.95583236
50	0xbeca6c4c	-0.3953575
51	0xbe2c6bfe	-0.16838071
52	0xbe578b63	-0.21049266
53	0x3e841c08	0.25802636
54	0x3eb737f1	0.35784867
55	0x3d3b0199	0.04565582
56	0xbf861d4c	-1.0477691
57	0x3ee5086d	0.4473299
58	0x3d537743	0.05162741
59	0x3dcb07a0	0.09913564
60	0xbed9ab61	-0.42513564
61	0x39bf0c49	0.00036439512
62	0x3eed2a05	0.4632112
63	0x3caeaa6c	0.021321498
64	0x3e4750da	0.19464436
65	0xbe2e54ed	-0.17024584
66	0x3db0facc	0.08641586
67	0x3be847cd	0.0070886374
68	0xbd3dc2a6	-0.04632821
69	0xbdcca23b	-0.099918805
70	0xbd2f10f0	-0.042740762
71	0xbe2519e8	-0.16123164
72	0xbc8cbbb9	-0.017179357
73	0xbd4f151d	-0.050557245
74	0xbe68c579	-0.2273158
75	0x3cdd3577	0.027003033
76	0xbe8a334e	-0.26992267
77	0xbc5ad662	-0.013356777
78	0x3cda3df7	0.026640875
79	0x3df6621e	0.12030433
80	0xbe51c016	-0.20483431
81	0xbfba5f1a	-1.4560273
82	0x3c16dd74	0.009208072
83	0xbdb4172a	-0.08793481
84	0xbd56a0de	-0.05239951
85	0xbad6e68b	-0.0016395611
86	0x3e2edf1e	0.170773
87	0xbe7a01b5	-0.24414714
88	0x3e1f97ae	0.15585205
89	0xbd294847	-0.041328695
90	0x3e284ab4	0.16434747
91	0xbf0239aa	-0.5086924
92	0x3d3e7e47	0.046507146
93	0x3f7d585d	0.98962957
94	0xbe7d3025	-0.24725397
95	0xbd5d44dd	-0.05402075
96	0x3e25eead	0.16204329
97	0x3d82e96f	0.0639218
98	0xbe27971c	-0.16366237
99	0x3e9354dc	0.2877568
100	0xbe0f84ce	-0.14015505
101	0x3df94f6e	0.12173353
102	0xbe442264	-0.19153744
103	0xbe53ab49	-0.20670809
104	0xbe72fdcc	-0.23729628
105	0x3ed3e045	0.41382042
106	0x3eba71f1	0.36415055
107	0xbe277bd7	-0.16355835
108	0x3f28cab4	0.659343
109	0xbeb9601b	-0.36206135
110	0x3f3fe2d8	0.7495551
111	0x3d6405ca	0.055669583
112	0xbdcc556e	-0.09977232
113	0xbc0b0d75	-0.008487095
114	0x3e21439c	0.15748447
115	0x3e08a113	0.13342695
116	0xbe956902	-0.29181677
117	0x3d9bca46	0.0760694
118	0x3e6256aa	0.22103372
119	0x3e2fe1b5	0.17175944
120	0x3d2e400c	0.04254155
121	0x3e034477	0.12819086
122	0x3cfae0b9	0.030624734
123	0x3eb28365	0.3486587
124	0x3ed39d61	0.41331008
125	0x3eb185d6	0.3467242
126	0xbdf024cd	-0.11725769
127	0x3bb5a265	0.0055430406
128	0x3da16807	0.0788117
129	0x3f0502e2	0.51957524
130	0x3db2c704	0.087293655
131	0xbca94439	-0.020662414
132	0xbdcd4a72	-0.10023965
133	0xbf070dd6	-0.52755487
134	0x3f4155f1	0.7552176
135	0x3f24470e	0.6417092
136	0x3f62cbe2	0.8859235
137	0x3ee2755f	0.44230172
138	0xbe008fad	-0.12554808
139	0xbed50827	-0.41607782
140	0x3ef3fb82	0.47652823
141	0xbe0e0aee	-0.13871357
142	0xbc219f6c	-0.009864669
143	0x3e9f43c7	0.31106398
144	0x3e9c7764	0.30559838
145	0xbe38ff49	-0.18066134
146	0xbeee5731	-0.46550897
147	0xbd36cd4f	-0.04462939
148	0x3d9875e9	0.074443646
149	0x3f1f14ec	0.621413
150	0x3ecb46d6	0.3970248
151	0x3d52cd75	0.05146547
152	0x3e224ff5	0.15850814
153	0x3cda81d8	0.026673242
154	0x3e8fb90d	0.2807087
155	0x3f581465	0.8440612
156	0xbcb535e9	-0.022120433
157	0xbe573c99	-0.2101921
158	0xbdd9c0a6	-0.10632448
159	0xbd601e2d	-0.054716278
160	0xbf2b11f6	-0.6682428
161	0x3ed38efd	0.4132003
162	0x3f5fa5de	0.8736247
163	0xbd9ec606	-0.07752614
164	0x3c365a11	0.011129872
165	0xbc80c442	-0.015718583
166	0xbceb769b	-0.028743079
167	0x3af9c08f	0.0019054579
168	0xbd07ed48	-0.033185273
169	0x3db8798f	0.090075605
170	0xbd19234c	-0.037387177
171	0xbeb9076d	-0.36138478
172	0x3d5c2be4	0.053752795
173	0xbd9b4209	-0.075809546
174	0xbddd2953	-0.107988976
175	0xbe5f8c1f	-0.21830796
176	0x3d576403	0.052585613
177	0xbda21865	-0.07914809
178	0x3daa00b0	0.083009124
179	0x3d6c7917	0.057732668
180	0xbdd85336	-0.10562746
181	0x3e319d93	0.17345266
182	0x3d264a4f	0.04059821
183	0x3d827edb	0.06371852
184	0xbf4542a3	-0.77054805
185	0x3e1d286a	0.15347448
186	0x3e076a0f	0.13224052
187	0xbe4c4960	-0.19949865
188	0xbe31a7aa	-0.17349115
189	0xbd01d652	-0.031698532
190	0x3ce7e9cb	0.028309723
191	0xbd3845c9	-0.044988427
192	0xbd41f0cf	-0.047348794
193	0x3f2d98fe	0.6781157
194	0x3f77827e	0.9668349
195	0x3edfe4e9	0.43729332
196	0x3f162612	0.5865184
197	0x3f557495	0.83381015
198	0x3d0477fa	0.03234098
199	0xbea27588	-0.31730294
200	0x3e2c39dc	0.16818947
201	0xbe2050b8	-0.15655792
202	0xbe8b8311	-0.27248433
203	0x3e845960	0.25849438
204	0x3eb030aa	0.34412128
205	0xbd1c19c0	-0.038110495
206	0xbeb2a6ad	-0.3489279
207	0x3ee462c0	0.4460659
208	0x3f5e11c2	0.86745846
209	0x3e70d224	0.23517662
210	0x3eb4e5ea	0.3533166
211	0xbd840159	-0.064455695
212	0xbed732db	-0.42030987
213	0x3d79894a	0.060921945
214	0x3da7bf53	0.08190789
215	0xbed38b60	-0.41317272
216	0x3d2fccf3	0.042920064
217	0xc0027950	-2.0386543
218	0x3dee4db9	0.11635918
219	0xbf4d650f	-0.8023233
220	0xbdb09379	-0.08621878
221	0xbc963121	-0.018333973
222	0xbd80fe6c	-0.06298527
223	0x3bb5d29a	0.0055487873
224	0xbe86fb80	-0.26363754
225	0xbe482ced	-0.19548388
226	0xbe3a7442	-0.18208411
227	0x3ce7e450	0.02830711
228	0x3e36acee	0.17839405
229	0x3dcb7b75	0.09935657
230	0x3ca7d039	0.02048503
231	0xbeb08b4f	-0.34481284
232	0xbeac9a19	-0.33711317
233	0xbd74838b	-0.05969576
234	0x3c9be86e	0.01903173
235	0xbb07e4b3	-0.002073568
236	0x3e2af69c	0.16695637
237	0xbe8869b9	-0.2664316
238	0x3e2259ec	0.15854615
239	0xbd3a94f9	-0.045552228
240	0x3dac3067	0.084076695
241	0xbf1238c3	-0.5711786
242	0x3cb15269	0.021645742
243	0x3dd3520a	0.10318382
244	0xbd782e0d	-0.060590792
245	0xbec29542	-0.380045
246	0x3ec7eb7b	0.39046845
247	0xbcaecdc2	-0.021338347
248	0xbfda5a15	-1.7058741
249	0xbfc57f65	-1.5429503
250	0x3d13e56c	0.036107466
251	0x3c0b948b	0.008519302
252	0x3e307210	0.17231011
253	0x3f8bcffa	1.0922844
254	0xbdbcf680	-0.09226704
255	0xbd8457dd	-0.06462071

module.block1_3.conv1.weight f4 [30, 1, 3, 3]
0	0x3e26f662	0.16304925
1	0x3dd1801d	0.10229514
2	0x3d768e6f	0.06019443
3	0x3e39f39b	0.18159334
4	0x3e803ec2	0.2504788
5	0x3e011917	0.12607227
6	0x3e0602a6	0.13086948
7	0x3e3035ac	0.17207974
8	0x3e719aa3	0.23594145
9	0xbe4782f5	-0.1948355
10	0xbe157766	-0.14596328
11	0xbe44670c	-0.19179934
12	0xbe3df9b6	-0.18552288
13	0x3f489139	0.7834659
14	0xbdfc4ab1	-0.12318934
15	0xbde6628d	-0.11249266
16	0xbda9d838	-0.082931936
17	0xbdb41834	-0.08793679
18	0x3e107b1b	0.14109461
19	0x3e13ba08	0.14426434
20	0x3e65c8b7	0.22439848
21	0x3e7fe3a2	0.24989179
22	0xbe3ee8be	-0.18643472
23	0x3e4a78e2	0.19772676
24	0x3e5e8df4	0.21733838
25	0x3e24900b	0.16070573
26	0x3db580ba	0.08862443
27	0xbe5cf120	-0.21576357
28	0xbe1e666a	-0.15468755
29	0xbe014468	-0.12623751
30	0xbe94e0c9	-0.29077747
31	0xbeb0eb25	-0.345544
32	0xbe9a8c60	-0.30185223
33	0xbe43f645	-0.19136913
34	0xbe269669	-0.16268314
35	0xbe0edb28	-0.13950789
36	0xbde042dc	-0.109502524
37	0xbdc5b666	-0.0965393
38	0xbe638260	-0.22217703
39	0xbe272910	-0.16324258
40	0x3f339c23	0.7016012
41	0xbe317ba5	-0.17332323
42	0xbe62fe42	-0.22167304
43	0xbd9289ad	-0.07155166
44	0xbe4d4296	-0.20044932
45	0x3e3513b5	0.17683299
46	0x3e0a6053	0.13513307
47	0x3de4432c	0.111456245
48	0x3e46f24f	0.19428371
49	0x3de3735d	0.11105988
50	0x3e6b0449	0.22950853
51	0x3d60168e	0.05470901
52	0x3e3d03da	0.184585
53	0x3e9617db	0.29315075
54	0x3e574330	0.21021724
55	0x3e4bea93	0.19913702
56	0x3dcfec85	0.101525344
57	0x3d823458	0.0635764
58	0x3f068cca	0.5255858
59	0xbe1a1d2c	-0.1505019
60	0xbe826a0e	-0.25471538
61	0xbe8326be	-0.25615495
62	0xbefc09dd	-0.49226275
63	0x3e276c0d	0.16349812
64	0x3e1bdfa7	0.15222035
65	0x3dd610a5	0.104523934
66	0x3e33b2b1	0.17548634
67	0x3e1421bd	0.14465995
68	0x3e0ceb66	0.13761672
69	0x3dfe0716	0.12403695
70	0x3e2e9538	0.1704911
71	0x3e264b1f	0.16239594
72	0x3e691b7c	0.2276439
73	0x3e22f32c	0.15913075
74	0x3de359e3	0.11101129
75	0x3e193de1	0.14965011
76	0x3e257dec	0.16161317
77	0x3deb7fb5	0.114989676
78	0x3dc035c0	0.09385252
79	0x3e0711ed	0.13190432
80	0x3dbe1631	0.092815764
81	0xbdd9dd45	-0.10637907
82	0x3d35f4c0	0.044422865
83	0xbd59e706	-0.053198837
84	0xbe7b87fc	-0.24563593
85	0xbe81c99b	-0.25349125
86	0xbe392176	-0.1807917
87	0x3f525422	0.82159626
88	0x3f398d83	0.72481555
89	0x3f486e30	0.7829313
90	0xbe812209	-0.2522128
91	0xbe7647b7	-0.24050795
92	0xbe50d3d4	-0.20393306
93	0xbe850189	-0.25977734
94	0xbe788947	-0.24271117
95	0xbe880b6f	-0.26571223
96	0xbe4512a3	-0.1924539
97	0xbe5196d1	-0.20467688
98	0xbe526c93	-0.2054923
99	0xbddd7b1b	-0.10814496
100	0xbe2e7df8	-0.17040241
101	0xbe607c19	-0.2192234
102	0xbe59d894	-0.21274024
103	0xbe26445d	-0.16237016
104	0xbe67ee44	-0.22649485
105	0xbe26daf6	-0.16294464
106	0xbe2d5f4d	-0.16930886
107	0xbe272e0c	-0.16326159
108	0xbdbeca61	-0.093159445
109	0xbe136b92	-0.14396504
110	0xbe04549d	-0.12922902
111	0xbe002213	-0.12512998
112	0xbe1e7f41	-0.15478231
113	0xbe24190e	-0.16025183
114	0xbe04c2d3	-0.12964945
115	0xbe1e1a73	-0.15439777
116	0xbe37f60c	-0.17964953
117	0xbe2babd7	-0.1676477
118	0xbcf0b262	-0.029381935
119	0xbdb67029	-0.089081116
120	0xbc9860f7	-0.018600924
121	0x3e8b67bd	0.27227584
122	0x3e4297c7	0.19003211
123	0x3dc43b21	0.095815904
124	0x3df9bfa3	0.12194755
125	0x3eaba3af	0.33523318
126	0xbe0d0a30	-0.13773417
127	0xbe0e1eab	-0.13878886
128	0xbe6a4d77	-0.22881113
129	0xbdece919	-0.11567897
130	0xbe1726a9	-0.14760841
131	0xbe052807	-0.1300355
132	0xbe4affa9	-0.19824089
133	0xbded70d4	-0.11593786
134	0xbdc8d54a	-0.09806307
135	0xbdfb18ea	-0.12260611
136	0xbdae4eea	-0.085111454
137	0xbe09b07d	-0.13446231
138	0xbe6f498f	-0.23367904
139	0xbdac3c94	-0.08409992
140	0xbe5278ae	-0.20553848
141	0xbe1c9c9e	-0.1529412
142	0xbdc1a442	-0.09455158
143	0xbe4acc18	-0.19804418
144	0x3e2ba138	0.16760719
145	0x3e576ef6	0.21038422
146	0x3e453a0e	0.19260427
147	0x3e120891	0.1426108
148	0xbf1535b8	-0.58285093
149	0x3df3a13f	0.118959896
150	0x3e19e611	0.1502917
151	0x3dd02cb8	0.101647794
152	0x3e877637	0.26457378
153	0x3ddaf682	0.10691549
154	0x3e0fb0d8	0.14032304
155	0x3e5a0dbe	0.21294305
156	0x3dd56d28	0.104212105
157	0x3dffa75f	0.124830954
158	0x3e312e25	0.17302759
159	0x3db7b87d	0.08970735
160	0x3dd69c1f	0.104789965
161	0x3e0c0225	0.13672693
162	0xbe16a209	-0.14710249
163	0xbe27ae1d	-0.16375013
164	0xbe5f8cf5	-0.21831115
165	0xbe873d9b	-0.2641419
166	0x3f6be4fd	0.92146283
167	0xbe633a73	-0.22190265
168	0xbe663702	-0.22481921
169	0xbe317b33	-0.17332153
170	0xbe1fac1a	-0.15592995
171	0xbdfb5e02	-0.1227379
172	0xbdf3111b	-0.11868497
173	0xbead62df	-0.33864495
174	0x3df475c1	0.11936522
175	0xbd7d419c	-0.061830148
176	0xbe28879d	-0.16457982
177	0x3e49ca46	0.19706067
178	0x3eaf9dae	0.34299988
179	0x3ccf18cb	0.025280377
180	0xbeb937c8	-0.3617537
181	0x3d21ac71	0.039471094
182	0x3eade13b	0.339609
183	0xbe5351af	-0.20636629
184	0xbe2e7194	-0.17035514
185	0x3e3a6f8e	0.18206617
186	0xbe46abbe	-0.19401452
187	0x3d9540db	0.07287761
188	0x3d706bbb	0.05869649
189	0x3d3ff7b9	0.046867106
190	0x3e1a6144	0.15076166
191	0x3e4220d1	0.18957831
192	0x3de8a2ae	0.11359154
193	0x3f1ea076	0.61963594
194	0x3e2dac53	0.16960268
195	0x3e109f39	0.14123239
196	0x3e31bc7e	0.1735706
197	0x3dc76ed5	0.097379364
198	0xbea0c180	-0.3139763
199	0xbe48f672	-0.19625261
200	0xbe99e9f4	-0.30061305
201	0xbe2cecd8	-0.16887224
202	0xbda12b99	-0.07869644
203	0xbe2163ac	-0.15760678
204	0xbe58ac43	-0.21159463
205	0xbe348845	-0.17630108
206	0xbea529de	-0.32258505
207	0x3e4f4f66	0.20245132
208	0x3e009071	0.125551
209	0x3caa5dd0	0.020796686
210	0x3e3b840f	0.18312095
211	0x3e2fcbd3	0.17167597
212	0x3dba59db	0.0909917
213	0x3df303a7	0.11865931
214	0x3e3b5d40	0.18297291
215	0x3e17272b	0.14761035
216	0xbe362116	-0.17786059
217	0xbe29f2a8	-0.16596472
218	0xbdb6d3e2	-0.08927132
219	0xbe490b92	-0.1963332
220	0xbe03d861	-0.12875511
221	0xbab990a3	-0.0014157485
222	0xbe51dcdd	-0.20494409
223	0xbe4f9a76	-0.20273766
224	0xbd97876e	-0.07398878
225	0x3de84772	0.11341752
226	0x3dec0c48	0.1152578
227	0x3e50d143	0.20392327
228	0x3e32a034	0.17443925
229	0x3e32e1ad	0.17468901
230	0x3e0d5b2a	0.13804308
231	0x3e7797bb	0.24178974
232	0x3e1b9550	0.15193677
233	0x3debca6f	0.115132205
234	0xbe2f5c02	-0.17124942
235	0xbdfb397c	-0.12266824
236	0xbe0295bc	-0.12752432
237	0xbdfbbf8f	-0.12292396
238	0xbe2e9a30	-0.17051005
239	0xbe0ff488	-0.14058125
240	0xbe004d5d	-0.12529512
241	0xbde6e4c1	-0.112741
242	0xbe2f654c	-0.17128485
243	0xbe6be5b9	-0.23036851
244	0xbe653ae4	-0.22385746
245	0xbea21dde	-0.31663412
246	0xbe34b7d7	-0.17648254
247	0xbdf3796a	-0.11888392
248	0x3dbc1568	0.091837704
249	0x3d8e19d6	0.069385216
250	0x3e2df598	0.16988218
251	0x3e8c668f	0.27421996
252	0x3e098a70	0.13431716
253	0x3e41811d	0.18896909
254	0x3e30e092	0.17273167
255	0x3e25d467	0.16194306

module.block1_3.conv2.weight f4 [30, 30, 1, 1]
0	0xbe950e22	-0.29112345
1	0xbdc57d96	-0.09643094
2	0xbdc16184	-0.09442428
3	0x3e207dd8	0.15673006
4	0x3dbd7e1a	0.092525676
5	0xbf759857	-0.9593558
6	0xbd1426bc	-0.036169752
7	0xbf1d7074	-0.61499715
8	0xbed11449	-0.4083579
9	0xbe3fcc07	-0.18730174
10	0xbf04a825	-0.5181907
11	0xbdc7805a	-0.09741278
12	0x3df0c73a	0.117567495
13	0xbd684aa6	-0.056711815
14	0x3e575ec8	0.2103225
15	0x3da88eda	0.08230372
16	0xbde9f428	-0.11423522
17	0xbdc47435	-0.09592477
18	0xbdc6825c	-0.09692833
19	0x3d8a4a55	0.06752459
20	0xbd45b587	-0.04826882
21	0x3e9544f1	0.2915416
22	0x3fa69149	1.3013088
23	0xbe7139ea	-0.23557249
24	0x3e8d7b44	0.27633107
25	0x3ea2243b	0.31668267
26	0xbe215445	-0.15754803
27	0x3d04edd1	0.032453362
28	0xbd9513b9	-0.072791524
29	0xbe7b5fd9	-0.24548282
30	0xbdc1ee2d	-0.094692566
31	0xbf80abe8	-1.0052462
32	0xbe04d587	-0.12972079
33	0xbee25696	-0.44206685
34	0xbd30b3bb	-0.043140154
35	0xbe34e9b3	-0.17667274
36	0xbdfe419d	-0.124148585
37	0xbcc74d41	-0.02432883
38	0xbd5b0eb8	-0.053480834
39	0xbdcad35a	-0.09903593
40	0x3cd8b01e	0.026451167
41	0xbdb1d586	-0.086833045
42	0xbe04e62a	-0.12978426
43	0xbe7496a7	-0.23885594
44	0xbe37655a	-0.17909756
45	0xbea6050c	-0.32425725
46	0xbdaf4830	-0.085586905
47	0xbdcef10f	-0.10104572
48	0x3dfb0f89	0.122588225
49	0x3dcd4d77	0.10024541
50	0xbf66d6f8	-0.90171766
51	0x39ef6bdc	0.00045665994
52	0xbc6a5b42	-0.014303984
53	0x3eb15516	0.34635228
54	0x3cf6c138	0.03012143
55	0xbd900317	-0.07031839
56	0x3e0278db	0.12741415
57	0xbc220ae9	-0.0098902965
58	0x3eaee608	0.34159875
59	0xbe373954	-0.17892963
60	0xbe91dffb	-0.28491196
61	0xbd8801d6	-0.06640975
62	0x3eed8005	0.46386734
63	0xbdd0a52e	-0.101877555
64	0x3e0bce38	0.13652885
65	0xbdf06616	-0.11738221
66	0xbead1918	-0.33808208
67	0x3d9961aa	0.07489331
68	0xbf2c5188	-0.67311907
69	0x3f8cbf06	1.0995796
70	0xbe31ec8c	-0.17375392
71	0xbd0072ce	-0.031359486
72	0xbef4ca0f	-0.47810408
73	0xbeeb40e1	-0.45947936
74	0xbf04f767	-0.51940006
75	0xbecc72cf	-0.39931342
76	0xbe407f5c	-0.18798584
77	0xbef6dc01	-0.48214725
78	0xbe325bf3	-0.17417888
79	0xbdf47275	-0.119358934
80	0xbe20cb90	-0.15702653
81	0xbd7f8dbf	-0.06239104
82	0x3f0a6a66	0.540686
83	0xbf3a643e	-0.7280921
84	0xbf06ac40	-0.5260658
85	0x3ea4b5b6	0.32169884
86	0xbf345520	-0.7044239
87	0xbf2ebea0	-0.6825962
88	0xbf8516d1	-1.0397588
89	0xbec708de	-0.38873953
90	0x3de17812	0.1100923
91	0x3d384fc0	0.04499793
92	0xbe2fd422	-0.17170766
93	0x3ef32660	0.47490215
94	0xbea05450	-0.31314325
95	0xbe25981b	-0.16171305
96	0xbe7c8343	-0.24659447
97	0xbe1981cb	-0.14990918
98	0x3e0666f7	0.13125215
99	0x3efa5dab	0.48899588
100	0x3df21f69	0.11822397
101	0xbeb9da32	-0.36299282
102	0x3c8c0e1a	0.017096568
103	0xbebc9bd2	-0.3683763
104	0x3d08f3e3	0.033435713
105	0xbe8d15bd	-0.27555647
106	0x3f21ce0d	0.63205034
107	0x3d917e24	0.071041375
108	0xbed9d6a5	-0.42546573
109	0xbf088da1	-0.5334111
110	0xbea67174	-0.32508433
111	0xbe38c828	-0.18045104
112	0xbf10dd18	-0.5658736
113	0x3c2677ca	0.010160396
114	0xbe7430f7	-0.23846804
115	0xbe8f3a24	-0.27974045
116	0x3ea27510	0.31729937
117	0xbeeff708	-0.46868157
118	0x3eed19c5	0.46308723
119	0xbe52d465	-0.20588835
120	0x3e4cf28d	0.20014401
121	0xbda0aa98	-0.07845038
122	0xbd84529c	-0.06461069
123	0x3f86ecf0	1.0541058
124	0xbf630d69	-0.8869234
125	0x3dc19390	0.094519734
126	0xbd0efade	-0.034907214
127	0xbe0c72d6	-0.13715681
128	0x3b12d23b	0.002240314
129	0x3f114f5f	0.56761736
130	0xbcad3bac	-0.021146618
131	0x3ea59a9d	0.32344523
132	0x3eb93a8e	0.36177486
133	0xbe9fe790	-0.31231356
134	0xbebfaab2	-0.37434918
135	0xbf248971	-0.6427222
136	0x3dfc36f2	0.123151675
137	0x3e0cc535	0.13747104
138	0xbb59d314	-0.0033237385
139	0x3bd79252	0.006578722
140	0xbeba8803	-0.36431894
141	0x3e830301	0.2558823
142	0x3ead4c1c	0.3384713
143	0x3d8bbdbc	0.06823298
144	0xbf5b61f4	-0.8569634
145	0xbe68c9f3	-0.22733288
146	0xbdd85cde	-0.10564588
147	0x3d503e1f	0.050840493
148	0x3eec5a17	0.46162483
149	0xbf114c1a	-0.56756747
150	0xbf9f4b5e	-1.2444875
151	0xbdc23bfe	-0.09484099
152	0xbb6395e6	-0.0034726798
153	0x3d1eacc1	0.03873897
154	0xbcb93785	-0.022609482
155	0xbf40c3f0	-0.75298977
156	0xbcb85b41	-0.02250445
157	0xbfa169d1	-1.2610418
158	0xbed5aaff	-0.41732022
159	0xbed50c2c	-0.4161085
160	0xbeb2ff44	-0.34960377
161	0xbec4e623	-0.3845683
162	0xbe32586a	-0.1741654
163	0x3cd7fd0b	0.026365777
164	0x3eb1e5a5	0.34745517
165	0x3de67779	0.11253256
166	0x3d9f99cd	0.07793007
167	0xbc81ce87	-0.01584555
168	0x3dcc3f11	0.099729665
169	0xbb8ef785	-0.0043630027
170	0xbd174f51	-0.036940876
171	0xbe39dcf5	-0.18150695
172	0x3ec090ec	0.37610567
173	0xbe6fc1b4	-0.23413736
174	0x3dbf14ef	0.09330165
175	0xbe4855fd	-0.19564052
176	0xbe5ee24f	-0.21766017
177	0xbb32a7eb	-0.0027260731
178	0x3dc47a0f	0.09593593
179	0xbda418b3	-0.080125235
180	0xbe0b949c	-0.13630909
181	0xbe4e0749	-0.20119967
182	0xbebb90eb	-0.36634
183	0xbee0643a	-0.43826467
184	0x3caada1e	0.02085596
185	0xbe1c2082	-0.15246776
186	0xbec86dda	-0.3914631
187	0xbe21f3c7	-0.1581565
188	0xbeea5f5d	-0.4577588
189	0x3ec50e2d	0.38487378
190	0x3d91af15	0.07113472
191	0xbd819957	-0.063280754
192	0xbd83cc54	-0.06435457
193	0xbece7db1	-0.4033027
194	0x3e1b59b7	0.15170942
195	0xbeb5a991	-0.3548093
196	0xbe3b35ab	-0.18282191
197	0xbeb24a5a	-0.3482235
198	0xbe733be3	-0.23753314
199	0x3f33de2b	0.70260876
200	0x3e13e483	0.14442639
201	0x3dcf56b1	0.10123957
202	0xbdb6eb6a	-0.089316204
203	0xbee9d48f	-0.45669982
204	0xbed5cf9d	-0.4175996
205	0x3c905b5e	0.017621692
206	0xbeac4c84	-0.33652127
207	0xbcb8e8d1	-0.022571953
208	0x3dec262f	0.115307204
209	0xbdbabb5b	-0.091177665
210	0xbdce857e	-0.10084055
211	0x3c15dde0	0.009147137
212	0xbf2d87eb	-0.6778552
213	0x3e10ef81	0.14153863
214	0x3e399a4f	0.1812527
215	0x3ead2ee6	0.33824843
216	0xbe60c571	-0.21950318
217	0x3e93edf2	0.28892475
218	0x3e88fbf3	0.26754722
219	0xbea3897c	-0.3194083
220	0xbd8a90b9	-0.06765885
221	0xbf26bc7b	-0.6513135
222	0xbe684467	-0.22682343
223	0xbd9d7bba	-0.076896146
224	0xbd68440d	-0.056705523
225	0xbdefa39e	-0.117011294
226	0x3e462f1b	0.19353907
227	0xbea15ef6	-0.31517762
228	0x3dda490b	0.10658463
229	0xbe690cda	-0.22758809
230	0x3d900803	0.07032778
231	0x3f2aacaa	0.66669714
232	0x3ed356e7	0.4127724
233	0xbc0ad074	-0.008472551
234	0x3dad8c7b	0.0847406
235	0x3eecb77a	0.46233732
236	0x3deadbb2	0.11467685
237	0xbe81de95	-0.2536513
238	0xbe415824	-0.18881279
239	0xbe42ace4	-0.19011265
240	0xbf0740b8	-0.5283313
241	0x3c1a3641	0.009412349
242	0x3de61daf	0.112361304
243	0x3edbb28d	0.4290966
244	0x3c8b0521	0.01697022
245	0xbece3fe4	-0.4028312
246	0xbe4f4649	-0.20241655
247	0xbecb48cb	-0.39703974
248	0xbf242b0e	-0.64128196
249	0xbf64e9a3	-0.89419
250	0xbd833559	-0.0640666
251	0xbeb0b9fd	-0.34516898
252	0xbe43a361	-0.19105293
253	0xbea14d05	-0.31504074
254	0x3ec2a3db	0.38015637
255	0x3e5a2d47	0.21306334
