trained_models/table5_pidinet-tiny.pth (torch, 368492 bytes, 78 tensors)

module.init_block.weight f4 [20, 3, 3, 3]
0.037068814 -0.17674837 0.023131354 -0.061648462 0.008382782 -0.060686745 -0.053912867 0.14003076
0.091159165 -0.12182443 -0.119216934 -0.29460508 -0.062360007 0.024853364 0.27723503 -0.05739432
0.301953 0.16488555 -0.014669917 -0.15938415 -0.04374667 -0.23368496 0.047103688 0.23383135
-0.054400794 0.07944947 0.26098803 -0.15175466 0.03470903 0.010637415 -0.14796312 0.04886969
0.07241348 0.16626568 0.048356507 -0.03579218 0.038795076 0.28976303 0.5977173 -0.36516222
-0.056159247 0.29892877 -0.44922292 -0.3471328 -0.12903902 -0.13045241 -0.105039515 -0.17911518
0.06755328 -0.050057113 0.065150015 0.112248205 0.091083884 0.070234366 0.115788445 -0.10012135
0.038449645 0.16551878 0.04262534 -0.29298565 0.1511983 -0.08186595 -0.015528171 0.20757566
-0.114486426 -0.228641 0.5013684 0.0023947244 -0.4455597 0.31095073 0.07278651 -0.26920748
0.018121297 0.046062693 -0.013908427 0.20612034 0.026519345 -0.22801615 0.0978012 0.041788414
-0.021412024 0.020366486 -0.13994218 -0.043278523 -0.011775154 -0.016653292 0.0011223379 0.051042527
0.006567128 0.015473858 -0.11038434 -0.022840083 -0.07504857 0.045539778 -0.001141641 0.101847745
-0.067602076 0.069091514 0.105752006 0.06714519 -0.08089579 -0.1535348 -0.015627496 -0.20581734
0.09680608 0.057065062 0.030370673 -0.0117699765 0.2852706 0.17366648 0.10680671 0.18769093
-0.055977482 0.045195684 -0.2002702 -0.1278694 -0.34585708 0.08853107 0.18361531 -0.28046426
0.09232733 -0.034002844 -0.3863444 0.2174963 0.009257035 0.0414236 -0.021832515 0.08710877
0.17980647 0.07776532 -0.04058187 -0.20719846 -0.0126599865 -0.13390516 -0.045890156 -0.044641968
-0.13362429 -0.20265906 -0.10000418 0.008449908 0.029404128 0.121858075 0.1703718 -0.004799212
-0.0818225 -0.21160014 -0.078661434 -0.0032362721 0.0352569 -0.22384562 0.1118163 0.2712555
0.27328047 -0.019798867 -0.06562307 -0.05617905 0.026969753 -0.04863702 0.03283891 0.08734652
0.089526154 -0.007908797 -0.24737765 -0.16285022 -0.27078152 -0.054301348 0.009792698 0.13916898
0.23253588 0.18767333 0.23707426 -0.08106862 -0.33410466 -0.17530017 0.19881009 0.009643036
-0.33610338 0.24476442 0.255873 0.13413005 0.32186097 0.48981538 0.43949962 -0.14114887
0.009677054 0.21929802 -0.5310196 -0.4520268 -0.3351256 0.007886368 0.08421444 -0.067047834
0.108871765 -0.04787894 -0.1685411 0.1430167 -0.11553977 -0.049348906 0.030964121 -0.079929724
0.031656515 0.326114 -0.014595284 -0.07542558 0.27523142 -0.21419527 -0.069209844 0.031801257
0.02698986 -0.07586293 -0.01990264 0.08368386 -0.111610755 0.04677492 -0.05049756 0.02120767
-0.07980192 0.04383519 -0.015872894 0.10853551 0.075911805 0.044425216 -0.04313916 -0.066316016
0.00680888 0.1205527 0.03381532 -0.046156872 0.10954575 -0.0068302583 0.008866574 -0.13495442
-0.12792747 -0.06868904 0.051406395 -0.04409954 0.0065974956 0.07596674 0.0396268 -0.021931753
0.04687717 -0.01147168 -0.06948059 0.23914695 0.0054338616 -0.21295993 0.23468171 0.0006009093
0.052616965 0.2207921 0.13763207 -0.16542894 -0.2965082 -0.7550571 -1.0656004 0.39489087
00000000: 78d5 173d 86fd 34be f77d bd3c 1983 7cbd
00000010: f057 093c aa92 78bd bdd3 5cbd 3964 0f3e
00000020: a8b1 ba3d 167f f9bd 0228 f4bd 7ad6 96be
00000030: 356d 7fbd 4899 cb3c c0f1 8d3e 4e16 6bbd
00000040: 9599 9a3e c2d7 283e 175a 70bc 9935 23be
00000050: b52f 33bd 1c4b 6fbe ccef 403d 7c71 6f3e
00000060: 5ed3 5ebd 67b6 a23d 39a0 853e 9365 1bbe
00000070: 0e2b 0e3d 8d48 2e3c a583 17be 962b 483d
00000080: 854d 943d 8d41 2a3e 7911 463d d29a 12bd
00000090: 96e7 1e3d d25b 943e 0004 193f 8bf6 babe
000000a0: 3d07 66bd 310d 993e 8c00 e6be 64bb b1be
000000b0: ce22 04be 5195 05be f51e d7bd f869 37be
000000c0: 6059 8a3d b008 4dbd 5f6d 853d 63e2 e53d
000000d0: 308a ba3d 09d7 8f3d 7e22 ed3d 6c0c cdbd
000000e0: 607d 1d3d c17d 293e e997 2e3d 3702 96be
000000f0: bad3 1a3e 56a9 a7bd df69 7ebc b78e 543e
00000100: dc77 eabd de20 6abe ae59 003f cff0 1c3b
00000110: 6720 e4be ef34 9f3e 1811 953d 90d5 89be
00000120: 1d73 943c 3cac 3c3d 2ce0 63bc 3611 533e
00000130: 193f d93c 117d 69be ff4b c83d 542a 2b3d
00000140: 4568 afbc 9ed7 a63c 014d 0fbe d244 31bd
00000150: 93ec 40bc 7c6c 88bc 691b 933a f811 513d
00000160: 1031 d73b 1186 7d3c 2f11 e2bd 201b bbbc
00000170: 11b3 99bd eb87 3a3d 1ea3 95ba 8d95 d03d
00000180: f572 8abd da7f 8d3d 8294 d83d 6b83 893d
00000190: b1ac a5bd 3a38 1dbe 3c05 80bc c8c1 52be
000001a0: 4442 c63d 0ebd 693d ebcb f83c dcd6 40bc
000001b0: fd0e 923e a0d5 313e 7abd da3d 0d32 403e
000001c0: a548 65bd 1c1f 393d a213 4dbe 32f0 02be
000001d0: 2e14 b1be c74f b53d a705 3c3e 0399 8fbe
000001e0: 1c16 bd3d 9146 0bbd efce c5be 5ab7 5e3e
000001f0: d2aa 173c cbab 293d 1ada b2bc 1566 b23d
00000200: 301f 383e 6d43 9f3d 2d39 26bd d52b 54be
00000210: d56b 4fbc 6f1e 09be 51f7 3bbd 7fda 36bd
00000220: ced4 08be db85 4fbe fece ccbd 7c71 0a3c
00000230: ede0 f03c ba90 f93d f275 2e3e b542 9dbb
00000240: 8e92 a7bd b5ad 58be 3f19 a1bd a317 54bb
00000250: 8a69 103d c937 65be f2ff e43d 00e2 8a3e
00000260: 6beb 8b3e 3c31 a2bc 6365 86bd 011c 66bd
00000270: acef dc3c 9d37 47bd 1882 063d bbe2 b23d
00000280: 7d59 b73d e693 01bc 9150 7dbe 35c2 26be
00000290: e0a3 8abe 176b 5ebd 8d71 203c 5082 0e3e
000002a0: e31d 6e3e 702d 403e 98c3 723e 4e07 a6bd
000002b0: c40f abbe e381 33be df94 4b3e d3fd 1d3c
000002c0: be15 acbe 86a3 7a3e c901 833e 6359 093e
000002d0: f6ca a43e 15c9 fa3e 1806 e13e 5489 10be
000002e0: 828c 1e3c a98f 603e e7f0 07bf 0f70 e7be
000002f0: 9595 abbe d335 013c 9f78 ac3d 6050 89bd
00000300: 29f8 de3d b51c 44bd 0a96 2cbe f872 123e
00000310: 1da0 ecbd 1422 4abd 78a8 fd3c 32b2 a3bd
00000320: 43aa 013d 6af8 a63e 0f21 6fbc ba78 9abd
00000330: 22eb 8c3e 0156 5bbe e4bd 8dbd 0942 023d
00000340: d719 dd3c 065e 9bbd dc0a a3bc 7262 ab3d
00000350: 2e94 e4bd 0f97 3f3d 88d6 4ebd b5bb ad3c
00000360: 306f a3bd 878c 333d df07 82bc de47 de3d
00000370: a677 9b3d 37f7 353d b0b2 30bd b1d0 87bd
00000380: 061d df3b 55e4 f63d ef81 0a3d fd0e 3dbd
00000390: 8659 e03d 5cd0 dfbb 1b45 113c 7e31 0abe
000003a0: 6bff 02be d7ac 8cbd 838f 523d b8a1 34bd
000003b0: ce2f d83b 7394 9b3d b64f 223d 38aa b3bc
000003c0: 4702 403d b7f3 3bbc d74b 8ebd f0e2 743e
000003d0: 890e b23b 2b12 5abe 6750 703e 5786 1d3a
000003e0: e384 573d 5317 623e 6cef 0c3e 3466 29be
000003f0: eccf 97be 6c4b 41bf 9865 88bf 232f ca3e

module.block1_1.conv1.weight f4 [20, 1, 3, 3]
0.10124126 -0.09915896 -0.19332123 0.28633964 -6.9607e-41 -0.009485668 -0.28283763 -0.09271126
-0.15444393 0.07588319 -0.13011545 0.03194173 -0.016496211 7.7091e-41 -0.051345434 0.13816738
-0.36056355 0.23970051 -0.21597002 -0.29074278 0.017115064 -0.30359003 -3.1964e-41 0.048836287
-0.19125918 -0.14717169 0.053105988 0.05268323 0.2874993 0.2751491 -0.17746465 -1.14497e-40
0.0876222 -0.3636194 -0.46506935 -0.057919018 0.35116342 0.0883556 0.19393876 -0.0065703173
-1.16737e-40 -0.045533102 0.23403852 0.11444522 0.5563793 0.28766719 0.120602444 -0.13299055
0.24010834 9.0106e-41 -0.30729142 0.06592523 -0.19915834 -0.36890143 0.09056638 -0.36839166
0.20259942 -0.22100641 -1.1797e-40 -0.24237563 0.3233791 -0.3495859 0.10766787 -0.18439361
0.18092361 0.31335834 -0.5513719 1.21079e-40 0.5163734 -0.44605267 -0.18720853 0.17845294
0.101433516 -0.20019461 -0.3033911 0.30720335 -8.3337e-41 -0.29554176 0.31710792 0.1686104
-0.13227338 -0.11393906 0.20304921 -0.11893455 0.23718713 -7.8303e-41 0.18490884 -0.14270104
0.16031514 -0.096737556 -0.12916116 0.09321837 -0.22229503 0.19410673 -1.01572e-40 0.19948909
-0.13964023 0.12917797 -0.13668774 0.05816873 -0.14005071 -0.26510283 0.13816652 -1.21163e-40
0.12851779 -0.19695091 -0.11527655 -0.022461114 -0.4199133 -0.10714867 -0.11485865 -0.331922
1.06265e-40 0.03796048 -0.12713508 0.24033844 -0.017595703 0.10273645 0.20358513 0.21327926
-0.092685826 -1.1615e-40 0.19647294 -0.22850849 -0.16879565 -0.07767891 -0.03066785 -0.18299232
-0.1760761 0.1394275 -1.09758e-40 -0.10850747 0.2096235 0.18405968 0.034120955 0.11095424
-0.41924945 0.15619081 -0.1918093 1.04865e-40 -0.19642432 0.18544368 -0.34372646 0.15571673
-0.28532952 -0.23390068 -0.00775155 -0.026451265 -8.384e-41 0.1812588 0.17082642 -0.46653298
-0.18639994 -0.27159944 0.18996114 -0.0752049 0.18074434 1.04035e-40 0.29292035 -0.21424535
0.15233819 -0.40266505 0.12024112 -0.052621834 -0.07947584 -0.26491463 1.00596e-40 -0.16485205
-0.015133793 -0.015662074 0.13186204 0.049137656 -0.19619101 0.06875065 -0.08835357 -1.0007e-40
-0.17371443 0.052094784 -0.28402185 0.1874998
00000000: 9457 cf3d da13 cbbd 00f6 45be 1c9b 923e
00000010: 09c2 0080 c669 1bbc 18d0 90be 67df bdbd
00000020: 8d26 1ebe a568 9b3d fc3c 05be 55d5 023d
00000030: 1023 87bc e6d6 0000 974f 52bd c07b 0d3e
00000040: c99b b8be 0d74 753e 3f27 5dbe 3ddc 94be
00000050: e434 8c3c 2770 9bbe 1a59 0080 8f08 483d
00000060: 72d9 43be 2db4 16be aa85 593d 5fca 573d
00000070: 1c33 933e 58e0 8c3e 4bb9 35be 2c3f 0180
00000080: 4573 b33d 522c babe 921d eebe 7e3c 6dbd
00000090: b1cb b33e c8f3 b43d e297 463e d14b d7bb
000000a0: 6a45 0180 eb80 3abd cba7 6f3e 4162 ea3d
000000b0: e06e 0e3f 1d49 933e 6afe f63d ad2e 08be
000000c0: f6de 753e 2efb 0000 4d55 9dbe cf03 873d
000000d0: 2af0 4bbe a6e0 bcbe de7a b93d d59d bcbe
000000e0: 3976 4f3e 814f 62be da48 0180 5131 78be
000000f0: f291 a53e ecfc b2be f980 dc3d aed1 3cbe
00000100: 0a44 393e 8170 a03e b526 0dbf 8551 0100
00000110: 0c31 043f 0461 e4be 98b3 3fbe 5ebc 363e
00000120: 60bc cf3d d1ff 4cbe 1456 9bbe c249 9d3e
00000130: 4fe8 0080 4051 97be f85b a23e 34a8 2c3e
00000140: ac72 07be e258 e9bd 22ec 4f3e f593 f3bd
00000150: 2fe1 723e 47da 0080 be58 3d3e 3920 12be
00000160: a729 243e 571e c6bd d342 04be 46e9 be3d
00000170: 4fa1 63be eac3 463e 241b 0180 de46 4c3e
00000180: d9fd 0ebe 3b47 043e dff7 0bbe 5642 6e3d
00000190: 7469 0fbe 8fbb 87be 867b 0d3e c151 0180
000001a0: 2b9a 033e 80ad 49be 1d16 ecbd 5f00 b8bc
000001b0: e0fe d6be c370 dbbd 033b ebbd aef1 a9be
000001c0: 3928 0100 737c 1b3d b32f 02be 481b 763e
000001d0: dd24 90bc 7d67 d23d 9f78 503e e165 5a3e
000001e0: 11d2 bdbd c743 0180 3430 493e 21fe 69be
000001f0: c4d8 2cbe 1f16 9fbd 253b fbbc 5762 3bbe
00000200: 4b4d 34be 15c6 0e3e f631 0180 2a39 debd
00000210: 8ba7 563e 247a 3c3e 6ac2 0b3d fa3b e33d
00000220: dda7 d6be 7cf0 1f3e a869 44be 5224 0100
00000230: 7523 49be f3e4 3d3e eafc afbe 3574 1f3e
00000240: b616 92be a983 6fbe b700 febb 53b0 d8bc
00000250: b6e9 0080 e89b 393e 1fed 2e3e 69dd eebe
00000260: a0df 3ebe 150f 8bbe 2c85 423e 0705 9abd
00000270: 0b15 393e 0222 0100 a8f9 953e 2263 5bbe
00000280: 8bfe 1b3e 1d2a cebe fa40 f63d fe89 57bd
00000290: 3bc4 a2bd e4a2 87be 6c18 0100 face 28be
000002a0: baf3 77bc c04d 80bc d806 073e 9144 493d
000002b0: 4ce6 48be 24cd 8c3d b7f2 b4bd f416 0180
000002c0: 32e2 31be 5761 553d 506b 91be f3ff 3f3e

module.block1_1.conv2.weight f4 [20, 20, 1, 1]
-0.035304848 0.3582059 -0.2211918 -0.56888884 -0.402602 -0.16155395 0.09786594 -0.7175396
0.20664583 0.45701295 0.681728 1.1664076 0.11780942 -0.46489918 0.35350478 0.13465218
0.22441874 0.31667453 0.5811195 0.43795678 0.5004 0.74862504 0.2999953 -0.5123571
-0.9128492 0.80042976 -0.09680685 -0.100673564 -0.44961232 0.2735074 -0.0029170234 0.017906474
-0.50909567 -1.151413 -0.5106951 0.08867459 0.36617953 -0.04418124 -0.3024527 -0.19306718
-0.20456114 -1.0282472 0.2749491 0.27528864 0.6642415 -0.09230137 -0.07360403 -0.12364944
-0.09668914 0.058927894 0.07363006 -0.0023210454 0.17795491 -0.08953531 -0.08354734 -0.034952085
0.3702796 -0.09196015 -0.46945754 0.00022718111 -0.47887525 -0.18547267 0.108794406 0.883609
-0.139182 0.63016945 0.18441193 1.0149457 0.89285284 0.113543116 0.11189472 0.263011
0.44030136 0.6246902 0.81846005 0.027273454 0.7201766 0.035218854 0.3686723 0.07088994
0.21496725 -0.48830944 -1.2383807 0.51397306 1.2473372 -0.82696676 -0.04081939 0.11906811
0.31154582 -0.08192067 0.04657349 -0.23263204 -0.63782096 -0.025477607 0.34489262 -0.085758
-0.057245005 0.16579859 -0.14965707 0.07670876 -0.5618222 -0.5392645 -0.22017832 0.33558458
-0.34167418 -0.15494028 0.050620243 -0.38112494 0.10432373 -0.06714941 -0.2971569 0.50856227
-0.35791418 -0.7523332 -0.0402202 -0.1876029 0.07196862 -0.21585678 -0.030934032 -0.2926297
0.19822 -1.2749286 -0.49955308 -0.08814731 -0.6155952 -0.26648584 0.69558024 -0.82076156
0.34073457 -0.9667148 -0.47989875 0.34927416 -1.4802952 -0.58824736 0.05095431 -0.038079374
-0.5709364 -0.14898704 -0.9416042 -0.25166553 -0.36873886 -0.07065261 0.42118964 -1.181727
0.130892 -0.6497732 -0.0074595665 -0.1363162 -1.3631318 -0.10013522 -0.15963739 -0.45780006
1.1454911 0.86567104 -0.3357422 -0.0346703 0.31960657 0.07777847 -0.08308594 -0.053471304
-0.16965538 0.27121818 0.59583926 0.5030521 -0.02098932 0.9312204 0.13449079 0.75693625
0.67545015 -0.06524619 0.068494596 -0.25184572 0.47371742 0.28786942 0.2745723 0.0467547
0.91866356 -0.005170462 0.036523655 0.011088829 0.10387503 -0.05093861 0.0042509055 -0.08453759
-0.0076680286 0.0018990688 1.303783 0.051224027 0.08984778 -1.0772128 -0.044286657 -0.022811053
-0.0047993204 0.032308523 0.0019102516 -0.15702482 -0.093081295 0.30259675 -0.057143413 0.030649444
0.013620793 0.041337464 -0.009707777 -0.014033312 0.0041376785 -0.022902206 -0.6435881 0.0061934656
-0.071896754 0.04376765 -1.0788221 0.008894106 0.006384774 -0.008959604 -0.026314523 0.6850095
0.04320492 0.35719472 -0.0529981 0.30802217 0.7304383 -0.071787804 -0.014762216 0.2430217
0.15987189 0.2626375 -0.035645 -0.059611432 0.16663978 0.006511285 0.09324428 -0.66158277
-0.08051164 -0.18156089 -0.19251432 0.07419086 0.049893387 0.061056033 -0.3619761 -0.06863847
0.08069009 0.19026206 -0.42267776 0.031865835 -0.3777597 0.10483431 0.10802441 0.009682517
0.28089473 -0.15661827 -0.19664077 -0.08623907 -0.63412297 0.06772277 -0.0021295187 -0.15145555
00000000: d19b 10bd c466 b73e 1a80 62be b3a2 11bf
00000010: d921 cebe 666e 25be f06d c83d adb0 37bf
00000020: f79a 533e 9afd e93e ba85 2e3f d84c 953f
00000030: 1146 f13d 4407 eebe 94fe b43e 43e2 093e
00000040: 07ce 653e 2a23 a23e 3fc4 143f df3b e03e
00000050: 371a 003f e4a5 3f3f fc98 993e d629 03bf
00000060: 7cb0 69bf f7e8 4c3f ab42 c6bd f12d cebd
00000070: 9633 e6be 2909 8c3e 882b 3fbb 99b0 923c
00000080: 1854 02bf 8061 93bf eabc 02bf 069b b53d
00000090: e27b bb3e 63f7 34bd 15db 9abe 67b3 45be
000000a0: 7a78 51be 9b9d 83bf 21c6 8c3e a2f2 8c3e
000000b0: bb0b 2a3f 8008 bdbd b6bd 96bd eb3b fdbd
000000c0: f504 c6bd 605e 713d 5bcb 963d ae1c 18bb
000000d0: d039 363e 4a5e b7bd de1a abbd eb29 0fbd
000000e0: 4a95 bd3e 9a55 bcbd bd5c f0be 7737 6e39
000000f0: 232f f5be 8cec 3dbe 9acf de3d 3334 623f
00000100: ba85 0ebe c952 213f 7bd6 3c3e bee9 813f
00000110: 0192 643f 4b89 e83d 0f29 e53d 61a9 863e
00000120: 2e6f e13e b2eb 1f3f 9986 513f 946c df3c
00000130: 7e5d 383f a541 103d 9ec2 bc3e bf2e 913d
00000140: 6020 5c3e b203 fabe 4283 9ebf bd93 033f
00000150: bfa8 9f3f 18b4 53bf 3c32 27bd fbd9 f33d
00000160: ef82 9f3e 06c6 a7bd d8c3 3e3d 1837 6ebe
00000170: 3c48 23bf 6ab6 d0bc c495 b03e e4a1 afbd
00000180: bd79 6abd 1bc7 293e b43f 19be 7b19 9d3d
00000190: 94d3 0fbf 3d0d 0abf 6d76 61be bed1 ab3e
000001a0: ebef aebe aaa8 1ebe 2c57 4f3d cf22 c3be
000001b0: aea7 d53d a185 89bd f324 98be 2331 023f
000001c0: 8740 b7be e998 40bf f0bd 24bd fa1a 40be
000001d0: 4964 933d 8f09 5dbe 5e69 fdbc 8fd3 95be
000001e0: 2ffa 4a3e dc30 a3bf 6cc5 ffbe 9486 b4bd
000001f0: a697 1dbf d570 88be 8c11 323f 6e1d 52bf
00000200: c374 ae3e 9f7a 77bf 4ab5 f5be 10d4 b23e
00000210: 507a bdbf 6197 16bf 77b5 503d 1ef9 1bbd
00000220: e328 12bf 0f90 18be f90c 71bf 4eda 80be
00000230: 57cb bcbe 51b2 90bd 2ba6 d73e d542 97bf
00000240: 8d08 063e 8957 26bf 616f f4bb 7996 0bbe
00000250: 1a7b aebf b213 cdbd fc77 23be c564 eabe
00000260: 749f 923f 9e9c 5d3f 67e6 abbe 7202 0ebd
00000270: 79a3 a33e 524a 9f3d f628 aabd ba04 5bbd
00000280: 24ba 2dbe 1cdd 8a3e ec88 183f 06c8 003f
00000290: cbf1 abbc 7664 6e3f f4b7 093e 93c6 413f
000002a0: 4dea 2c3f cb9f 85bd e546 8c3d ecf1 80be
000002b0: 178b f23e 9f63 933e be94 8c3e db81 3f3d
000002c0: 892d 6b3f fb6c a9bb d499 153d ebad 353c
000002d0: 6fbc d43d 01a5 50bd 2e4b 8b3b 0b22 adbd
000002e0: 1644 fbbb 2dea f83a 5de2 a63f 49d0 513d
000002f0: 1d02 b83d 1ce2 89bf ed65 35bd 3fde babc
00000300: 9e43 9dbb f155 043d 6861 fa3a 1dcb 20be
00000310: 68a1 bebd f6ed 9a3e 360f 6abd 8b14 fb3c
00000320: bf29 5f3c 7951 293d 5e0d 1fbc faeb 65bc
00000330: 5d95 873b 689d bbbc 31c2 24bf 8ef2 ca3b
00000340: 9b3e 93bd b545 333d d816 8abf 96b8 113c
00000350: 5e37 d13b 4ecb 12bc 8e91 d7bc c85c 2f3f
00000360: a4f7 303d 3ae2 b63e 8914 59bd 15b5 9d3e
00000370: 01fe 3a3f 7c05 93bd 39dd 71bc aeda 783e
00000380: 75b5 233e 6c78 863e 7e00 12bd 1e2b 74bd
00000390: 9ea3 2a3e 9e5c d53b dbf6 be3d 7d5d 29bf
000003a0: 49e3 a4bd 19eb 39be 7922 45be 61f1 973d
000003b0: 025d 4c3d e415 7a3d ee54 b9be 5392 8cbd
000003c0: d940 a53d 0fd4 423e 3869 d8be c085 023d
000003d0: b869 c1be 5fb3 d63d e73b dd3d 6ba3 1e3c
000003e0: 6fd1 8f3e 8a60 20be 335c 49be 1c9e b0bd
000003f0: e255 22bf 3cb2 8a3d 658f 0bbb 2a17 1bbe

module.block1_2.conv1.weight f4 [20, 1, 3, 3]
8.7717e-41 -0.17469877 -0.09367009 0.019535094 -0.1449732 -0.05457366 -0.0327918 -0.04895703
-0.22057839 1.8078e-41 -0.06597148 0.118649475 0.27366427 0.027118336 0.09524314 -0.024925392
-0.053918265 -0.09606128 1.21425e-40 -0.04237094 -0.033404164 -0.004809792 -0.1881263 0.05380361
-0.25671282 -0.220248 0.025060194 1.246e-40 -0.2826667 0.4836127 -0.22616695 -0.093818545
-0.105656505 -0.09594434 0.17433041 0.116983 -1.11472e-40 -0.28989658 0.125241 0.15220766
0.13410757 0.056327056 0.153548 0.05406078 -0.20605415 1.06677e-40 -0.010906372 0.32984817
0.13756916 0.08061269 0.14043677 0.051542215 0.38008118 0.079199106 1.27407e-40 0.24557492
0.2611709 0.12310377 0.094556294 0.00464871 0.16309635 -0.14271498 0.12385607 -6.2641e-41
0.019433156 -0.12637185 0.3723202 -0.074537575 -0.30365038 -0.011052406 0.105982326 -0.026932437
7.9454e-41 0.2609138 -0.069202155 0.1067177 0.10276381 -0.41629863 0.1445271 -0.04850232
-0.20037425 1.09856e-40 0.054116417 -0.34229615 -0.31792906 -0.07002018 0.11865835 -0.24370432
-0.3109999 -0.07013979 -1.22944e-40 -0.19862637 -0.3804469 -0.18735683 -0.19539623 -0.11131155
-0.1676503 -0.26815465 -0.18865423 1.18509e-40 0.11913615 -0.31889445 0.1652998 0.3424764
0.5502603 0.21092856 -0.4266376 0.14979866 -1.06036e-40 0.02405803 0.062628575 0.066182196
0.51513594 0.4762451 0.069539666 -0.021116603 0.026062736 -1.0832e-40 -0.05446471 -0.084172174
-0.028402047 -0.17517251 -0.48157233 -0.02260347 -0.022228884 -0.040069092 -1.04055e-40 -0.010223672
-0.20967136 -0.08501585 0.03664242 -0.0764707 -0.14354293 -0.40708125 -0.08685819 9.435e-41
-0.03224219 -0.22747752 -0.1831416 -0.39014244 -0.26641238 -0.19233914 -0.2211362 -0.034020934
-1.05303e-40 -0.0892241 0.031378966 -0.15333578 -0.36447993 -0.3267622 -0.17727765 0.032961752
-0.09177602 1.13005e-40 0.23722465 0.12372495 0.1305042 0.30550146 0.31302536 0.16014351
0.21910089 0.1779363 1.11248e-40 0.3929549 0.14638846 0.01035604 -0.09100852 0.17946294
-0.11877844 -0.09363302 0.1468788 1.10219e-40 0.26437268 0.05275421 0.06734069 0.19461486
0.27642268 0.05407741 0.0975147 0.28481406
00000000: 85f4 0000 3ce4 32be 1bd6 bfbd 1008 a03c
00000010: db73 14be a188 5fbd b250 06bd 2b87 48bd
00000020: 4ddf 61be 6532 0000 0e1c 87bd 7ffe f23d
00000030: b91d 8c3e 4627 de3c d60e c33d 5630 ccbc
00000040: 66d9 5cbd c7bb c4bd 7c52 0100 278d 2dbd
00000050: ced2 08bd 769b 9dbb 2ea4 40be 2d61 5c3d
00000060: dd6f 83be b188 61be 094b cd3c 565b 0100
00000070: b1b9 90be 159c f73e 4f98 67be f023 c0bd
00000080: 7062 d8bd 777e c4bd ac83 323e c894 ef3d
00000090: bd36 0180 536d 94be 2d3f 003e 53dc 1b3e
000000a0: 7f53 093e 33b7 663d b03b 1d3e d66e 5d3d
000000b0: dcff 52be 5f29 0100 a4b0 32bc dce1 a83e
000000c0: eede 0c3e 4418 a53d a8ce 0f3e ee1d 533d
000000d0: 009a c23e 2433 a23d 2963 0100 fe77 7b3e
000000e0: 31b8 853e d41d fc3d bba6 c13d 3554 983b
000000f0: bb02 273e e023 12be 40a8 fd3d 9eae 0080
00000100: 4832 9f3c 9f67 01be c1a0 be3e 28a7 98bd
00000110: 1078 9bbe 2715 35bc 430d d93d 6aa1 dcbc
00000120: 7cdd 0000 7e96 853e dcb9 8dbd cf8e da3d
00000130: d575 d23d 1825 d5be e9fe 133e 5eaa 46bd
00000140: e82e 4dbe 3c32 0100 2da9 5d3d 7141 afbe
00000150: 99c7 a2be bd66 8fbd 2603 f33d a08d 79be
00000160: 613b 9fbe 73a5 8fbd b856 0180 b664 4bbe
00000170: f0c9 c2be 78da 3fbe f315 48be 4ff7 e3bd
00000180: 85ac 2bbe 914b 89be 932e 41be 5b4a 0100
00000190: a7fd f33d 2246 a3be 5a44 293e 1159 af3e
000001a0: dcdd 0c3f a8fd 573e 3e70 dabe d264 193e
000001b0: 9627 0180 5915 c53c 6943 803d 888a 873d
000001c0: f3df 033f 66d6 f33e d06a 8e3d bafc acbc
000001d0: 8581 d53c f42d 0180 6316 5fbd 7662 acbd
000001e0: 69ab e8bc 6c60 33be a690 f6be ea2a b9bc
000001f0: 5919 b6bc 7d1f 24bd 1022 0180 3081 27bc
00000200: 17b4 56be ca1c aebd 5d16 163d ac9c 9cbd
00000210: ebfc 12be f46c d0be b5e2 b1bd 0207 0100
00000220: 6310 04bd deef 68be 7989 3bbe c0c0 c7be
00000230: 3467 88be 8df4 44be 8771 62be 8959 0bbd
00000240: 8b25 0180 20bb b6bd 3b87 003d 0e04 1dbe
00000250: 1d9d babe 604d a7be 4688 35be e702 073d
00000260: 11f5 bbbd 033b 0100 05eb 723e 8263 fd3d
00000270: e5a2 053e b06a 9c3e dc44 a03e a9fc 233e
00000280: fc5b 603e ef34 363e 1d36 0100 6231 c93e
00000290: dbe6 153e 61ac 293c ad62 babd 22c5 373e
000002a0: 1c42 f3bd abc2 bfbd 6567 163e 3f33 0100
000002b0: db5b 873e cc14 583d eae9 893d 1e49 473e
000002c0: 4687 8d3e 4680 5d3d c9b5 c73d 26d3 913e

module.block1_2.conv2.weight f4 [20, 20, 1, 1]
-0.64312506 -0.032971684 -0.34321737 0.7353168 0.07700111 0.73034394 0.5457276 0.14160758
0.90372986 -0.28826043 -0.30571055 0.073974214 0.5860819 -1.1175352 -0.29290798 0.078931294
-0.3861659 -0.17238009 0.24545239 -0.22000833 -0.7212143 0.7647891 0.9366532 -0.053425208
0.31673512 -0.5196246 0.18535668 -0.14235064 0.26562738 0.29838547 -0.076432 0.19625212
0.017629385 -0.7729964 0.9580703 -0.09627297 0.054223344 -0.0005013393 -0.23883234 -0.121489726
0.08550443 0.43647856 0.42664325 -0.13176551 0.14413047 0.33417216 0.014820722 0.05579461
-0.12845954 0.021653606 0.02130441 -0.16787492 -0.9977305 0.48047477 -0.25831014 0.06975351
-0.13184775 0.03328075 0.35516056 0.016596414 -0.116171636 -0.45917103 -0.17193507 -0.40261135
0.3353688 0.01016933 -0.58130765 0.26628113 -0.4438483 0.037599463 0.05952743 0.53573674
0.4768582 -0.13123819 0.12263433 -0.0035862452 -0.71553016 0.07671464 -0.365696 0.059547238
0.82372946 -0.102330536 -0.29705945 0.3202664 0.048693772 -0.61604756 0.14245544 -0.089786604
0.6469897 0.027150134 0.12289183 -0.41804844 -1.5771135 0.49317575 0.35948545 0.35835516
-0.13350812 -0.18241708 -0.2761226 0.1733498 0.039501213 -0.047564194 -0.7580533 0.25151455
0.12141478 0.976223 -0.18803565 0.46014994 0.30158582 0.049317658 0.30521592 -0.19312601
-0.7905276 0.44906738 -0.7391297 0.050441723 -0.84158033 0.09530101 0.20442916 0.23226224
0.055606384 0.8835427 0.6256468 0.8018761 -0.43774134 0.16269119 1.3497016 -0.5474079
0.06901098 0.37699857 0.76702607 -0.40319622 -0.9436668 -0.54286927 0.24401453 0.4755246
-0.30587772 0.5044874 0.21886398 0.83238876 -0.57411164 -0.25264823 -0.33354834 0.5126123
0.69780153 -0.620765 -0.47515205 0.36900473 0.40758967 0.22591767 0.32144186 0.79268
0.056653127 0.45548883 -0.58030355 0.14918806 0.54255635 0.16305478 -0.08170656 0.28100172
-0.2180347 -0.1797017 -0.019929612 -0.45029154 0.13831341 -0.44678697 -0.8987467 0.25652283
-0.75970286 0.45582813 0.3704965 0.5708341 -0.119783506 0.4237957 0.5559064 0.026566204
-0.54275763 0.18756281 -0.6299828 0.3459829 -0.18433668 0.0028419378 -0.057345606 -0.075619236
0.09622428 -0.04289164 0.17918848 -0.0060654893 0.13793573 -1.0824611 0.32666823 0.1985781
0.1251641 -0.17323853 0.09462651 -0.14602207 -0.023963261 -0.4995649 0.06675916 0.31786522
-0.015641142 -0.060012214 0.02677659 -0.018028112 0.14104496 0.023142168 -0.11263784 0.017994614
0.21154326 0.19602436 -1.0394242 0.072940975 0.027794532 -0.07044347 0.0014375863 -0.18893571
0.03272841 -0.25388935 0.02232633 0.48514152 -0.27468404 -0.1645813 -0.0466857 -0.10021708
0.17938542 -0.24935663 0.37126437 -0.08742965 0.044664428 -0.011178353 -0.043306373 0.027203722
0.014778554 0.01906725 0.018223286 -0.008049543 0.1007809 -0.00825863 0.165321 -0.0053960695
0.09224133 -0.029908188 0.14615823 0.07440576 0.13832764 0.0216604 -0.029563276 0.03262968
-0.032835323 -0.023112362 0.043419544 0.1878212 0.45249158 -0.50050265 -0.018884463 0.05697561
00000000: d8a3 24bf 510d 07bd 30ba afbe b93d 3c3f
00000010: c2b2 9d3d d2f7 3a3f ceb4 0b3f 9401 113e
00000020: d75a 673f df96 93be 1886 9cbe cb7f 973d
00000030: 7709 163f 650b 8fbf 09f8 95be bba6 a13d
00000040: 89b7 c5be 6884 30be df57 7b3e dd49 61be
00000050: 80a1 38bf 38c9 433f 81c8 6f3f 64d4 5abd
00000060: 1b2b a23e 1e06 05bf 24ce 3d3e 5ec4 11be
00000070: 5000 883e fbc5 983e 6188 9cbd 51f6 483e
00000080: 806b 903c 18e3 45bf 1844 753f c32a c5bd
00000090: 4c19 5e3d 506c 03ba 7790 74be 9bcf f8bd
000000a0: f21c af3d 1e7a df3e fc70 da3e 8aed 06be
000000b0: f096 133e 9d18 ab3e 9dd2 723c e488 643d
000000c0: e68a 03be e762 b13c 9686 ae3c 67e7 2bbe
000000d0: 446b 7fbf ca00 f63e 3a41 84be eeda 8e3d
000000e0: 1903 07be 6551 083d 9bd7 b53e 34f5 873c
000000f0: 65eb edbd 7718 ebbe bf0f 30be 1323 cebe
00000100: 76b5 ab3e 439d 263c 94d0 14bf 0056 883e
00000110: 1640 e3be e501 1a3d 09d3 733d 0b26 093f
00000120: c226 f43e 4e63 06be b527 fb3d 3607 6bbb
00000130: fc2c 37bf 911c 9d3d 823c bbbe cee7 733d
00000140: efdf 523f ac92 d1bd 2d18 98be f5f9 a33e
00000150: 1f73 473d 4bb5 1dbf d7df 113e 0ae2 b7bd
00000160: 1ea1 253f f569 de3c b6ae fb3d 720a d6be
00000170: dbde c9bf 8881 fc3e 7a0e b83e 547a b73e
00000180: 5ab6 08be 8bcb 3abe f15f 8dbe 9c82 313e
00000190: 06cc 213d acd2 42bd c80f 42bf 84c6 803e
000001a0: 50a8 f83d c0e9 793f 6b8c 40be c698 eb3e
000001b0: 7569 9a3e 5001 4a3d 4345 9c3e d3c2 45be
000001c0: 0460 4abf 29ec e53e 9b37 3dbf fb9b 4e3d
000001d0: cf71 57bf 2d2d c33d e155 513e 27d6 6d3e
000001e0: 85c3 633d db2f 623f 642a 203f c147 4d3f
000001f0: a21f e0be 8598 263e 06c3 ac3f ed22 0cbf
00000200: a155 8d3d f505 c13e d25b 443f bc6f cebe
00000210: 2694 71bf 7bf9 0abf f2de 793e f677 f33e
00000220: 019c 9cbe 1626 013f e11d 603e 6e17 553f
00000230: fbf8 12bf 1c5b 81be d9c6 aabe 8f3a 033f
00000240: 1fa3 323f 74ea 1ebf 2147 f3be 30ee bc3e
00000250: 98af d03e f656 673e 0794 a43e 14ed 4a3f
00000260: 1c0d 683d d535 e93e c68e 14bf c1c4 183e
00000270: f9e4 0a3f d5f7 263e c555 a7bd 75df 8f3e
00000280: 7d44 5fbe b903 38be 6d43 a3bc 9d8c e6be
00000290: 08a2 0d3e 43c1 e4be 4414 66bf f656 833e
000002a0: e37b 42bf 4e62 e93e b8b1 bd3e 2f22 123f
000002b0: 0e51 f5bd c0fb d83e e24f 0e3f 5ea1 d93c
000002c0: 2af2 0abf 7710 403e 8e46 21bf ac24 b13e
000002d0: c1c2 3cbe ce3f 3a3b 3ae3 6abd 42de 9abd
000002e0: 3c11 c53d 25af 2fbd 2f7d 373e 03c1 c6bb
000002f0: 063f 0d3e 168e 8abf 0f41 a73e 0f58 4b3e
00000300: 052b 003e 7165 31be 8bcb c13d cf86 15be
00000310: 9a4e c4bc f8c6 ffbe 07b9 883d 3bbf a23e
00000320: da21 80bc 5ecf 75bd 945a db3c b1af 93bc
00000330: 176e 103e a594 bd3c abae e6bd 7169 933c
00000340: cc9e 583e 9cba 483e da0b 85bf 1462 953d
00000350: 5cb1 e33c aa44 90bd 646d bc3a 5d78 41be
00000360: 3a0e 063d c9fd 81be b5e5 b63c 7864 f83e
00000370: 63a3 8cbe 0088 28be 8139 3fbd 9d3e cdbd
00000380: d0b0 373e 5857 7fbe 5d16 be3e 510e b3bd
00000390: 0cf2 363d 6925 37bc 0662 31bd 57da de3c
000003a0: c021 723c ec32 9c3c 0049 953c 3be2 03bc
000003b0: 3766 ce3d 344f 07bc e949 293e 83d1 b0bb
000003c0: 06e9 bc3d 0402 f5bc 81aa 153e 0c62 983d
000003d0: c3a5 0d3e 2771 b13c af2e f2bc b3a6 053d
000003e0: 557e 06bd 2356 bdbc b1d8 313d 3354 403e
000003f0: faac e73e f120 00bf 97b3 9abc 425f 693d

module.block1_3.conv1.weight f4 [20, 1, 3, 3]
0.21393754 -0.44100678 -0.04089468 -0.0018219238 0.05464341 -0.44078195 0.0735516 -0.07076518
-0.25080413 0.23604336 0.23815644 0.2799057 0.05259585 -0.3314381 0.12287782 0.18243349
0.22460102 0.3537564 -0.16136023 -0.21564858 -0.2713357 -0.214504 -0.14315183 -0.16191427
-0.20431621 -0.119057566 -0.13485482 0.21464507 0.2924172 0.24525957 0.23499028 -0.61637944
0.40859276 0.15685254 0.28268194 0.15936743 0.33126122 -0.030002488 0.40440696 0.018947702
-0.59583133 0.13415416 0.2952506 0.15065946 0.5274961 -0.08371543 0.32386452 0.144597
0.5469109 0.48457843 0.12767868 0.019093037 -0.092703424 -0.42398435 -0.18668514 -0.008783281
-0.1774884 -0.09243721 1.0354482 -0.09827034 -0.13105853 -0.03220461 -0.16985953 0.43475696
0.14341207 0.38507614 -0.09984056 -0.4891252 -0.022547744 0.24452741 0.14139232 0.48504424
0.25683838 0.17232488 0.11775601 0.24145983 -0.58514255 0.14055923 0.124283955 0.16466503
0.3324333 0.12670107 0.070829324 0.2415507 0.23567289 0.11726421 0.289742 0.2903142
0.09233764 0.1978396 0.21245249 0.16718794 0.16480792 0.22801667 0.2336489 0.23599796
0.21458365 0.22982076 0.2740792 0.28506303 0.27580538 0.22846873 0.0041648275 0.0056289136
0.03868197 0.34272444 0.28638887 0.21876498 -0.5610726 -0.039005898 0.41188714 -0.20932233
-0.10379193 0.33511502 -0.2008663 0.19069304 0.564546 -0.22474942 -0.27956122 -0.012180247
-0.1369854 -0.14137532 -0.043843582 0.058097266 -0.24533334 -0.3769925 0.16168375 0.20470369
0.24106298 0.23711348 0.10671868 0.31145096 0.23145698 0.24861066 0.07585954 -0.17677143
-0.12580101 -0.20478146 -0.20768833 -0.1231281 -0.19960871 -0.276506 -0.15763757 -0.1930408
0.17428985 -0.03349417 0.0028889268 -0.4221383 -0.6174625 -0.86114967 -0.16283122 -0.29228598
0.07438293 0.18764752 0.1740706 0.13963985 0.19725028 0.20293653 0.19207561 0.13257845
0.14007023 0.19572563 -0.16947271 -0.20646888 -0.14698619 -0.19422215 -0.28970513 -0.17690256
-0.16000396 -0.19144844 -0.21847233 -0.35051298 -0.20728874 -0.12923531 -0.26430258 -0.21425462
-0.25176075 -0.1975495 -0.21687192 -0.22629249
00000000: 7112 5b3e a4cb e1be 2e81 27bd 9ecd eeba
00000010: c5d1 5f3d 2cae e1be 39a2 963d 56ed 90bd
00000020: 6669 80be 5ab5 713e 48df 733e cd4f 8f3e
00000030: bf6e 573d 41b2 a9be 5ea7 fb3d d8cf 3a3e
00000040: cffd 653e 8f1f b53e 9e3b 25be fbd2 5cbe
00000050: 83ec 8abe f0a6 5bbe 6596 12be dbcc 25be
00000060: 4538 51be 74d4 f3bd 6217 0abe ebcb 5b3e
00000070: b5b7 953e 5325 7b3e 4ba1 703e 0bcb 1dbf
00000080: 1233 d13e f49d 203e b0bb 903e 3731 233e
00000090: 129b a93e c7c7 f5bc 6e0e cf3e 3638 9b3c
000000a0: 6788 18bf b55f 093e 162b 973e 7946 1a3e
000000b0: fc09 073f ff72 abbd 92d1 a53e 3c11 143e
000000c0: 5a02 0c3f aa1a f83e 33be 023e 0069 9c3c
000000d0: 4bdb bdbd 7a14 d9be 642a 3fbe c0e7 0fbc
000000e0: 85bf 35be b84f bdbd 9189 843f f641 c9bd
000000f0: 3534 06be fbe8 03bd a8ef 2dbe 7798 de3e
00000100: 9dda 123e b328 c53e 3579 ccbd 9e6e fabe
00000110: 0cb6 b8bc 6565 7a3e 26c9 103e b857 f83e
00000120: 5280 833e ef75 303e 102a f13d 3f41 773e
00000130: e7cb 15bf c2ee 0f3e 9688 fe3d f39d 283e
00000140: b334 aa3e edbd 013e f70e 913d 1159 773e
00000150: 3c54 713e 3828 f03d 1059 943e 10a4 943e
00000160: 841b bd3d 7796 4a3e 258d 593e 5133 2b3e
00000170: 68c3 283e 347d 693e a841 6f3e 73a9 713e
00000180: d1bb 5b3e 2256 6b3e 1c54 8c3e c8f3 913e
00000190: 5d36 8d3e b5f3 693e 1b79 883b c072 b83b
000001a0: fc70 1e3d 9479 af3e 90a1 923e ed03 603e
000001b0: 74a2 0fbf a6c4 1fbd dfe2 d23e 9858 56be
000001c0: dd90 d4bd 3294 ab3e e5af 4dbe 0945 433e
000001d0: 1686 103f b624 66be a622 8fbe a98f 47bc
000001e0: e745 0cbe b1c4 10be 5495 33bd 66f7 6d3d
000001f0: aa38 7bbe 2905 c1be 6d90 253e d89d 513e
00000200: 37d9 763e e0cd 723e 538f da3d 8076 9f3e
00000210: 0f03 6d3e cb93 7e3e 3f5c 9b3d 9203 35be
00000220: fbd1 00be 3bb2 51be 40ac 54be 962a fcbd
00000230: 3a66 4cbe 3292 8dbe be6b 21be 7dac 45be
00000240: 0a79 323e 2f31 09bd 2654 3d3b 8322 d8be
00000250: 0612 1ebf 4e74 5cbf 3abd 26be 82a6 95be
00000260: 1456 983d ac26 403e 903f 323e c0fd 0e3e
00000270: fafb 493e 98ce 4f3e 78af 443e a5c2 073e
00000280: 926e 0f3e 4d6c 483e 418a 2dbe 946c 53be
00000290: 8c83 16be 2ce2 46be 3b54 94be f225 35be
000002a0: 14d8 23be 0f0b 44be 36b7 5fbe 7076 b3be
000002b0: 8043 54be 4356 04be ab52 87be 9065 5bbe
000002c0: c9e6 80be 6b4a 4abe ac13 5ebe 38b9 67be

module.block1_3.conv2.weight f4 [20, 20, 1, 1]
0.030227415 0.39760023 -0.39180985 -0.4358814 0.3423487 0.010170175 0.0877157 0.22209679
-0.28366518 -0.4253645 -0.62602985 0.03566705 -1.1210743 -0.43188643 -0.1910606 -0.10200489
-0.31224987 -0.21564402 0.7776552 -0.24250133 0.06483947 0.7407088 -0.38020176 -0.47908685
-0.21612269 -0.26199874 0.052445415 -0.7414407 0.5311367 0.54144865 -0.22605993 0.09412307
-0.8439177 0.04478921 -0.066472836 0.48642233 -1.0527585 -0.005744575 0.12826928 -0.1998987
0.5111729 0.068182915 0.27407044 -0.20958056 0.35313383 0.04198046 0.11403148 0.14465016
0.15471789 0.10977857 0.15084101 -0.15425554 -0.6407548 -0.9255107 0.13646808 -0.03189424
0.10910048 0.20880327 0.07878487 0.22644033 -0.17904726 -0.20421472 0.43504712 0.7340758
-0.38208246 -0.18470065 -0.04477291 -0.083810315 0.18458864 0.47131148 0.60226166 0.7730815
0.29799727 0.27592307 0.21083577 0.5226565 -0.1832864 0.5038541 0.38036242 0.5747893
-0.24837773 -0.4824513 -0.16128969 -0.11625303 1.1150072 0.35124978 -0.16713431 -0.030539053
0.046592437 0.0827055 0.19057727 0.14772269 0.38610372 -0.86557895 -0.5357726 -0.03546791
-1.2276701 0.26650387 0.20814702 -0.16542682 -0.49205524 -0.25512218 -1.0456339 0.23481786
-0.315191 -0.7691344 -0.06901884 -0.84520984 0.19593425 0.1476476 0.5865809 -0.5007631
-0.78170335 -0.62603635 0.12834303 0.16849574 -0.078101166 0.51190037 0.024090849 0.59921354
-0.007870181 0.4337448 0.16601546 0.016777867 0.28795058 0.36138654 -0.9202337 0.032009613
-0.078736246 0.031438738 0.3973864 0.4616304 -0.16313212 -0.0879019 0.36383924 0.37866542
-0.10898011 0.38878033 -0.1307179 0.47428063 -1.4170163 -0.5649512 0.8638869 -0.6449585
-0.49197754 -0.9020797 -0.27296484 1.0143301 0.2452382 -0.00945287 0.06616504 -0.38411838
0.14341581 -0.41426122 -0.28171504 -0.014511778 -1.101315 -0.02979361 0.5766689 0.032095168
0.1757733 -0.57106197 -0.17013952 0.57139367 -0.6206916 0.10834617 -0.2551789 -0.047844764
0.511723 -0.7731712 -0.66767424 0.17865977 0.4493059 0.6021411 -0.7800245 -0.59463173
0.32073694 -0.7466555 -0.8921638 -0.5512268 0.29077274 -0.24298681 0.030435909 0.26551503
-0.06624925 0.3352091 -0.28600687 0.015906552 -0.34511983 -0.29562855 0.7822594 -0.04915403
0.058421716 0.016434291 -0.1836744 -0.11435017 0.19350985 -0.07897195 0.056064356 0.54472476
0.15350883 -0.033600647 0.087346874 -0.0494574 -0.040216807 -0.20510648 -0.016829943 -0.24172367
-0.046034332 -0.5816508 0.08373206 -0.04883096 -0.26752216 0.2680529 0.12020081 0.63277256
-0.317372 -0.8836625 -0.4169137 0.46209633 -0.3698589 -0.20728984 -0.36704206 -0.51204324
-0.32959902 0.25821707 0.0071504554 -0.1313343 0.36291134 -0.054110087 0.21473052 0.041403357
0.037025575 0.4760995 -0.37285048 0.032876357 0.38216794 -0.14029244 0.31834766 -0.06524569
-0.12828125 0.055891644 -0.31768566 0.49808684 0.07733572 -0.094482936 -0.028056594 -0.01150026
-0.29797032 -1.2021918 -1.4432048 0.18119092 0.21600565 0.18509518 -0.57645273 -1.594633
00000000: 7c9f f73c 4292 cb3e 4d9b c8be d92b dfbe
00000010: 5448 af3e cea0 263c 4aa4 b33d 576d 633e
00000020: 903c 91be 60c9 d9be 7e43 20bf 9d17 123d
00000030: 5d7f 8fbf 3820 ddbe 64a5 43be f1e7 d0bd
00000040: 37df 9fbe c9d1 5cbe 6914 473f 4552 78be
00000050: 8eca 843d 189f 3d3f cea9 c2be df4a f5be
00000060: 444f 5dbe b324 86be 01d1 563d 0fcf 3dbf
00000070: 93f8 073f 619c 0a3f 417c 67be 99c3 c03d
00000080: fe0a 58bf e474 373d e922 88bd 590c f93e
00000090: cac0 86bf fd3c bcbb 0659 033e 3fb2 4cbe
000000a0: 3adc 023f 7ca3 8b3d f652 8c3e 499c 56be
000000b0: f5cd b43e b4f3 2b3d 5689 e93d 2c1f 143e
000000c0: 5e6e 1e3e 96d3 e03d 1176 1a3e 2af5 1dbe
000000d0: 8208 24bf 45ee 6cbf 4abe 0b3e 89a3 02bd
000000e0: 1370 df3d 86d0 553e f659 a13d f9df 673e
000000f0: 2a58 37be aa1d 51be 7fbe de3e 64ec 3b3f
00000100: 50a0 c3be 2b22 3dbe cd63 37bd bea4 abbd
00000110: ce04 3d3e bd4f f13e d22d 1a3f abe8 453f
00000120: 1993 983e ca45 8d3e 55e5 573e d1cc 053f
00000130: 6eaf 3bbe 95fc 003f ddbe c23e 6425 133f
00000140: bb56 7ebe db03 f7be 2029 25be 1216 eebd
00000150: 8eb8 8e3f 03d7 b33e 4225 2bbe 092d fabc
00000160: b6d7 3e3d 8061 a93d b026 433e 9e44 173e
00000170: 63af c53e 9596 5dbf 6528 09bf cd46 11bd
00000180: 4b24 9dbf 3273 883e 7e24 553e a665 29be
00000190: aaee fbbe 609f 82be 55d7 85bf 1874 703e
000001a0: b760 a1be fee5 44bf c059 8dbd ac5f 58bf
000001b0: fda2 483e ef30 173e 2a2a 163f 0332 00bf
000001c0: b61d 48bf eb43 20bf 5b6c 033e 268a 2c3e
000001d0: 81f3 9fbd e70b 033f 2c5a c53c 0f66 193f
000001e0: eff1 00bc cc13 de3e f5ff 293e bd71 893c
000001f0: 426e 933e a807 b93e 7094 6bbf 831c 033d
00000200: 7840 a1bd e8c5 003d 3b76 cb3e d25a ec3e
00000210: 1b0c 27be e905 b4bd 2349 ba3e 6fe0 c13e
00000220: f730 dfbd 370e c73e eada 05be e9d4 f23e
00000230: ca60 b5bf a4a0 10bf b127 5d3f 001c 25bf
00000240: 7be4 fbbe b2ee 66bf 0cc2 8bbe 92d5 813f
00000250: b91f 7b3e 36e0 1abc 8981 873d 2aab c4be
00000260: 98db 123e 0c1a d4be f43c 90be cfc2 6dbc
00000270: e4f7 8cbf bb11 f4bc 93a0 133f 3976 033d
00000280: eafd 333e 1e31 12bf 0e39 2ebe db46 123f
00000290: a5e5 1ebf 99e4 dd3d cfa6 82be dff8 43bd
000002a0: 4700 033f 8cee 45bf b3ec 2abf 96f2 363e
000002b0: 6c0b e63e eb25 1a3f b0af 47bf c939 18bf
000002c0: a237 a43e d124 3fbf d964 64bf 331d 0dbf
000002d0: 2ae0 943e 89d1 78be ba54 f93c 96f1 873e
000002e0: b0ad 87bd 87a0 ab3e 7e6f 92be 754e 823c
000002f0: 8cb3 b0be a05c 97be 2742 483f bc55 49bd
00000300: 9c4b 6f3d 35a1 863c 2415 3cbe 6c30 eabd
00000310: 7227 463e 0cbc a1bd bda3 653d 1573 0b3f
00000320: 6b31 1d3e d5a0 09bd ebe2 b23d d893 4abd
00000330: 61ba 24bd 6f07 52be f3de 89bc 6986 77be
00000340: 7f8e 3cbd 11e7 14bf b77b ab3d f902 48bd
00000350: aaf8 88be 3b3e 893e d82b f63d 62fd 213f
00000360: 957e a2be b537 62bf b675 d5be e497 ec3e
00000370: 255e bdbe ca43 54be f0ec bbbe 4415 03bf
00000380: 34c1 a8be 0735 843e 5e4e ea3b 807c 06be
00000390: 84cf b93e 8aa2 5dbd 51e2 5b3e 9196 293d
000003a0: 21a8 173d 50c3 f33e 42e6 bebe 5ca9 063d
000003b0: 84ab c33e d2a8 0fbe 77fe a23e 889f 85bd
000003c0: 295c 03be a3ee 643d b2a7 a2be 3d05 ff3e
000003d0: 3162 9e3d 4580 c1bd f1d6 e5bc 966b 3cbc
000003e0: 918f 98be 6ce1 99bf efba b8bf 1d8a 393e
000003f0: 9630 5d3e 9789 3d3e 6892 13bf ef1c ccbf

module.block2_1.shortcut.weight f4 [40, 20, 1, 1]
0.57993454 0.22996949 -0.19503856 -0.082010575 0.2805354 0.70163536 0.8744709 -0.004121739
-0.19995695 -0.2020097 0.5568446 -0.3056254 0.49859118 0.38479954 0.46698916 0.19896746
0.13757712 0.04333453 0.44318905 -0.14426896 0.10624393 0.1089319 0.46749058 0.06939047
0.5701511 -0.116437756 -0.14164466 0.03133415 0.2659964 0.1357044 0.12033898 0.70532554
-0.39124757 -0.7694793 -0.42574632 0.2564916 -0.15082999 -0.1106065 -0.30585843 -0.38173068
0.0754291 0.524879 0.07835497 0.23810098 -0.3785144 -0.1955845 0.09192394 -0.23074919
0.2335576 -0.40471232 0.07805641 0.08759913 -0.43061033 0.059729896 0.32868302 0.5831642
0.24263614 0.050620187 -0.5758779 -0.2527128 0.06716097 0.72131723 -0.38168857 -0.09038185
0.52090186 -0.68390155 0.19815788 0.17666546 0.086822554 0.44146442 -0.941453 0.22692156
0.2491668 0.19627514 -0.65215266 1.1347486 0.10933659 0.13671447 0.18144606 0.25687665
-0.012707074 0.17253914 -0.5560125 -0.43565542 0.19569461 0.55273736 0.87581813 -0.72864234
-0.35394803 0.11026138 0.15280877 0.09802379 0.23913166 -0.32949886 0.047395587 -0.10044296
0.08312567 0.08531886 -0.25071165 0.060683973 0.31897375 0.30798337 0.18629624 0.07287135
-0.05591204 -0.052429456 0.6385308 0.04406693 0.0764882 -0.13774124 0.18796083 -0.3494418
-0.0383739 0.30525988 0.3950632 0.054396976 -0.15581062 -0.03768442 -0.07132886 -0.062375065
0.19893093 -0.0117580695 0.14662445 0.24538162 0.07464615 -0.2738752 0.0063076066 -0.20262215
0.18359736 0.04221927 0.2209787 -0.050484028 0.2977676 -0.31455854 0.30186102 0.039680485
0.4835983 -0.4584886 0.35382825 -0.38781694 -0.15790054 0.1726165 0.08445545 0.548709
-0.038925283 0.0050913226 0.11826893 0.10754413 -0.3444817 -0.06966444 -0.021049296 -0.008260398
-0.40842727 0.1033291 0.022086643 0.123126514 0.09852228 -0.32663625 0.031684805 -0.29417136
0.016613787 0.095618986 -0.1855926 0.17303604 0.19289954 -0.12280966 -0.3194853 -0.15687883
-0.21123834 0.17850511 0.21611263 -0.087962046 -0.47032472 0.17033553 0.30301106 -0.7253634
0.085335985 -0.14314047 -0.3175213 1.5948259 -0.002500718 -0.08728566 -0.26754975 -0.16057266
-0.041962564 -0.032451276 0.43820626 -0.1491739 -0.6347754 -0.26235425 0.16379493 -0.07406333
-0.19368838 -0.23290923 0.006760355 0.3830743 -0.44515234 0.20901471 -0.14194688 -0.25515085
-0.6012639 -0.41442326 -0.2513343 0.8364133 -0.33390096 -0.6526509 -0.021834027 0.08931672
-0.5556264 -0.09363148 -0.0345098 0.12080133 -0.11516478 -0.6190396 0.12568265 -0.08785472
0.5195088 -0.59404975 0.06488115 -0.062692896 0.049989272 -0.15498763 -0.17495939 -0.6085078
-0.13193044 -0.1293776 0.4110628 -0.08910221 -0.39052665 0.08567046 0.06964077 -0.07583691
0.23723263 -0.2895657 0.058324017 -0.23787689 -0.5448467 -0.07488163 -0.08629138 -0.061242096
0.11162269 0.3390911 -0.17472933 0.028825417 -0.33209684 0.26472872 -0.04461385 -0.107927255
-0.0030102746 -0.8007794 0.28600067 0.06580767 -0.5129125 -0.5106158 0.42808992 1.1260091
00000000: 9776 143f 1f7d 6b3e 30b8 47be 29f5 a7bd
00000010: 56a2 8f3e 609e 333f 53dd 5f3f a70f 87bb
00000020: 84c1 4cbe a1db 4ebe 5e8d 0e3f ef7a 9cbe
00000030: 5847 ff3e 7204 c53e 3419 ef3e 20be 4b3e
00000040: 04e1 0c3e 8c7f 313d ade9 e23e 3ebb 13be
00000050: 6b96 d93d b017 df3d ed5a ef3e 971c 8e3d
00000060: 6cf5 113f eb76 eebd 4c0b 11be 3d58 003d
00000070: ae30 883e 18f6 0a3e 4874 f63d 3790 343f
00000080: 9a51 c8be 98fc 44bf 6cfb d9be de52 833e
00000090: 2d73 1abe a985 e2bd 7a99 9cbe 3472 c3be
000000a0: 927a 9a3d 785e 063f 9278 a03d bed0 733e
000000b0: a4cc c1be 4e47 48be 9e42 bc3d 8449 6cbe
000000c0: b929 6f3e 7436 cfbe 0adc 9f3d 2c67 b33d
000000d0: f578 dcbe 56a7 743d 2449 a83e 404a 153f
000000e0: 9c75 783e 1d57 4f3d bc6c 13bf 9263 81be
000000f0: b18b 893d 3fa8 383f af6c c3be 1f1a b9bd
00000100: d359 053f 2c14 2fbf e6e9 4a3e cae7 343e
00000110: 06d0 b13d a007 e23e 1003 71bf 205e 683e
00000120: 9525 7f3e 5afc 483e 7af3 26bf 713f 913f
00000130: ddeb df3d e1fe 0b3e ffcc 393e 5685 833e
00000140: 5531 50bc 1aae 303e d656 0ebf 3a0e dfbe
00000150: 2b64 483e 3280 0d3f 9e35 603f 4e88 3abf
00000160: ad38 b5be b8d0 e13d e779 1c3e b2c0 c83d
00000170: eede 743e 13b4 a8be e021 423d 0ab5 cdbd
00000180: cb3d aa3d a8bb ae3d 475d 80be c28f 783d
00000190: 8750 a33e ffaf 9d3e 71c4 3e3e 933d 953d
000001a0: 0604 65bd 45c0 56bd c176 233f 867f 343d
000001b0: d8a5 9c3d 0a0c 0dbe ce78 403e 09ea b2be
000001c0: f32d 1dbd 064b 9c3e b945 ca3e 5dcf 5e3d
000001d0: d28c 1fbe fa5a 1abd de14 92bd ff7c 7fbd
000001e0: 8db4 4b3e eba4 40bc b824 163e 5245 7b3e
000001f0: 15e0 983d 5f39 8cbe 0ab0 ce3b 2e7c 4fbe
00000200: f200 3c3e 1dee 2c3d 3e48 623e 57c8 4ebd
00000210: ff74 983e d10d a1be 878d 9a3e 0188 223d
00000220: 329a f73e 05bf eabe fa28 b53e f18f c6be
00000230: aeb0 21be 61c2 303e fbf6 ac3d 3178 0c3f
00000240: 1e70 1fbd 1cd5 a63b fb36 f23d 1940 dc3d
00000250: e85f b0be 3bac 8ebd 936f acbc 9f56 07bc
00000260: 611d d1be 359e d33d 0cef b43c c129 fc3d
00000270: 0dc6 c93d de3c a7be edc7 013d a19d 96be
00000280: a319 883c e3d3 c33d fd0b 3ebe 5c30 313e
00000290: 7587 453e a283 fbbd 9493 a3be d8a4 20be
000002a0: dd4e 58be 0bca 363e a14c 5d3e 7225 b4bd
000002b0: 67ce f0be 706c 2e3e 4424 9b3e 6ab1 39bf
000002c0: a2c4 ae3d 6a93 12be 2792 a2be 4123 cc3f
000002d0: 16e3 23bb d3c2 b2bd 48fc 88be 296d 24be
000002e0: f0e0 2bbd a1eb 04bd 925c e03e 0bc1 18be
000002f0: a480 22bf 4c53 86be dcb9 273e 84ae 97bd
00000300: 3f56 46be c27f 6ebe f885 dd3b 5122 c43e
00000310: 02eb e3be f407 563e 865a 11be 22a3 82be
00000320: 6eec 19bf 492f d4be e4ae 80be 2f1f 563f
00000330: 11f5 aabe 2114 27bf 46dd b2bc afeb b63d
00000340: 883d 0ebf ddc1 bfbd 265a 0dbd b066 f73d
00000350: 83db ebbd 6179 1ebf f4b2 003e 2ded b3bd
00000360: 87fe 043f a513 18bf 69e0 843d 2265 80bd
00000370: 8dc1 4c3d 14b5 1ebe 8e28 33be 2bc7 1bbf
00000380: c618 07be 907b 04be d376 d23e 387b b6bd
00000390: 1cf3 c7be fe73 af3d d29f 8e3d 6250 9bbd
000003a0: 1ced 723e f541 94be 2ae5 6e3d 0096 73be
000003b0: 137b 0bbf 8a5b 99bd 89b9 b0bd fed8 7abd
000003c0: 709a e43d 599d ad3e 3fec 32be 4823 ec3c
000003d0: 9908 aabe 868a 873e 03bd 36bd f708 ddbd
000003e0: 0748 45bb e1ff 4cbf ae6e 923e 2cc6 863d
000003f0: 3c4e 03bf b8b7 02bf 9a2e db3e 1121 903f

module.block2_1.shortcut.bias f4 [40]
0.24070457 -0.088096 0.45589706 0.017888337 0.03734 -1.1216245 -0.8096038 0.1854846
0.088939786 -0.14552347 -0.21291044 1.3433213 0.07554403 0.30976382 -0.32913005 0.03225261
0.060531214 -0.25562707 -0.04004077 0.35325766 -0.12255741 0.038094416 0.3857478 -0.06726797
0.5763321 0.40388858 -0.27228254 -0.0650275 -0.9583993 0.17454328 0.076043494 0.3592262
0.35907796 0.045895576 0.42628664 -0.41054875 -0.15507814 -0.20324837 0.16913727 -0.048188128
00000000: 427b 763e ad6b b4bd 576b e93e 908a 923c
00000010: d4f1 183d 6491 8fbf 3242 4fbf adef 3d3e
00000020: 1026 b63d 1b04 15be 3205 5abe f4f1 ab3f
00000030: d4b6 9a3d 5d99 9e3e bc83 a8be 501b 043d
00000040: 94ef 773d 8de1 82be ca01 24bd 30de b43e
00000050: 61ff fabd e408 1c3d bc80 c53e cac3 89bd
00000060: 808a 133f 7cca ce3e 9e68 8bbe 232d 85bd
00000070: a859 75bf 79bb 323e b1bc 9b3d 7fec b73e
00000080: 11d9 b73e 00fd 3b3d 3e42 da3e 7233 d2be
00000090: cecc 1ebe 5720 50be 5232 2d3e ea60 45bd

module.block2_1.conv1.weight f4 [20, 1, 3, 3]
0.01320124 0.051735476 -0.15005676 0.15358578 9.5297e-41 -0.25648445 -0.011074616 -0.08501623
-0.22143215 -0.09987869 0.026706314 0.06227141 0.002568007 5.8539e-41 -0.17456433 -0.08957307
-0.15109222 -0.28569424 0.0067276824 -0.10720606 0.11576173 0.10414362 -1.10285e-40 0.3957832
0.005130268 -0.16994575 0.16737829 -0.24261491 -0.28275648 0.0026055074 -0.23171276 -1.10732e-40
-0.015175499 0.050082 0.025431681 0.07459641 -0.00049046427 -0.1611327 -0.22352049 -0.17699777
8.9522e-41 -0.08627552 -0.22293845 -0.12320806 0.0030947505 0.21080284 0.19880342 0.03531257
0.006743604 -7.589e-41 0.02887992 0.07190014 0.18012376 0.22823219 -0.097722925 -0.0715695
-0.18004924 -0.19089614 1.17383e-40 -0.2787529 -0.033354413 -0.051009107 -0.19732052 0.18890427
0.061769545 0.03976608 0.1780959 -1.29298e-40 0.0368403 0.111765124 0.100760706 0.056970328
0.16529723 0.060771916 0.064102486 0.12489981 1.1273e-40 0.123123795 0.090727456 0.14381088
0.1415821 0.23655012 -0.06931065 -0.36708698 0.23154172 -1.9545e-41 -0.070466906 0.09660445
-0.058582056 -0.14698423 -0.047957134 0.19634204 0.064797096 -0.03147736 -1.28285e-40 0.119719274
0.16443619 0.2558053 0.1858235 0.011538318 0.19380158 0.06245917 0.1250621 8.5612e-41
-0.07173148 -0.0414059 -0.10118963 -0.3151304 -0.08954277 0.021000275 0.068584576 -0.20752546
8.7859e-41 0.06537736 -0.16225025 -0.050374042 -0.08488472 0.056671545 -0.02031984 0.064586215
0.17431146 -1.18815e-40 0.17697337 -0.028767802 0.00453988 0.25454766 -0.15056303 -0.06629563
-0.07432787 -0.16522731 3.8611e-41 -0.17883472 -0.008894911 -0.1452386 -0.16937171 -0.21981047
0.15623713 0.4286922 -0.1932947 1.1907e-40 0.1403855 -0.17284665 -0.10295723 0.048824534
0.009387421 0.16497804 0.08254979 0.12388375 1.23757e-40 0.27064908 0.14204293 0.13689646
0.1602899 -0.09229668 0.0022005981 0.26961175 0.021051828 -9.435e-41 -0.07597195 0.37134042
0.047235306 -0.096369356 -0.09216268 0.0038685799 -0.15387365 -0.05672847 -1.2092e-40 -0.07672099
-0.20861125 -0.17887127 -0.19986743 0.3046643 0.11499181 0.19674404 0.0520446 -1.17367e-40
0.028609395 0.19738594 -0.13264711 -0.20191951
00000000: 044a 583c 94e8 533d 7ba8 19be 9745 1d3e
00000010: a609 0100 ee51 83be 4e72 35bc fd1c aebd
00000020: 1cbf 62be 338d ccbd 33c7 da3c 4e10 7f3d
00000030: 024c 283b 2fa3 0000 fec0 32be 1672 b7bd
00000040: ebb7 1abe 8446 92be e473 dc3b da8e dbbd
00000050: 7c14 ed3d 4049 d53d 6e33 0180 18a4 ca3e
00000060: cf1b a83b 4206 2ebe 3765 2b3e 0b70 78be
00000070: 75c5 90be 29c1 2a3b 1c46 6dbe ad34 0180
00000080: a8a2 78bc c922 4d3d 1a56 d03c 01c6 983d
00000090: 8092 00ba f8ff 24be 8ee2 64be e73e 35be
000000a0: 8df9 0000 38b1 b0bd fa49 64be 8254 fcbd
000000b0: 4cd1 4a3b b3dc 573e 2093 4b3e eaa3 103d
000000c0: 73f9 dc3b 8dd3 0080 9595 ec3c 6140 933d
000000d0: 5d72 383e b3b5 693e f522 c8bd 0893 92bd
000000e0: d45e 38be 477a 43be 3747 0100 b3b8 8ebe
000000f0: a39e 08bd edee 50bd 640e 4abe 1f70 413e
00000100: 1002 7d3d c2e1 223d c65e 363e 6e68 0180
00000110: dbe5 163d 1de5 e43d a15b ce3d b859 693d
00000120: ad43 293e f9eb 783d 2a48 833d 79cb ff3d
00000130: 3f3a 0100 5428 fc3d 51cf b93d 2943 133e
00000140: e6fa 103e 323a 723e bef2 8dbd d3f2 bbbe
00000150: 4619 6d3e 7c36 0080 f450 90bd 8ed8 c53d
00000160: bdf3 6fbd 0983 16be b36e 44bd e30d 493e
00000170: 57b4 843d 67ee 00bd 9b65 0180 612f f53d
00000180: f661 283e eaf8 823e 8448 3e3e 370b 3d3c
00000190: ec73 463e 30d5 7f3d 4710 003e a7ee 0000
000001a0: f4e7 92bd 3c99 29bd 823c cfbd c658 a1be
000001b0: 3362 b7bd c508 ac3c 1276 8c3d 8e81 54be
000001c0: eaf4 0000 91e4 853d ee24 26be 0355 4ebd
000001d0: 0ad8 adbd 6c20 683d cb75 a6bc c745 843d
000001e0: b47e 323e 354b 0180 8238 353e 74aa ebbc
000001f0: 46c3 943b 1254 823e 322d 1abe 01c6 87bd
00000200: 3639 98bd 5931 29be a26b 0000 7320 37be
00000210: f6bb 11bc 6db9 14be c76f 2dbe ff15 61be
00000220: a0fc 1f3e 8b7d db3e 0cef 45be eb4b 0100
00000230: 37c1 0f3e b6fe 30be 3ddb d2bd 3cfc 473d
00000240: b3cd 193c 01f0 283e dd0f a93d c3b6 fd3d
00000250: fc58 0100 8492 8a3e b473 113e 962e 0c3e
00000260: 0923 243e 0b06 bdbd e937 103b 8d0a 8a3e
00000270: e274 ac3c 0207 0180 2f97 9bbd 5520 be3e
00000280: cf79 413d 4c5d c5bd cabf bcbd 0088 7d3b
00000290: 0e91 1dbe 1d5c 68bd 1351 0180 e51f 9dbd
000002a0: 309e 55be 082a 37be 0caa 4cbe f6fc 9b3e
000002b0: d380 eb3d 4577 493e b82c 553d 2c47 0180
000002c0: 405e ea3c 8a1f 4a3e a5d4 07be fdc3 4ebe
