trained_models/table5_pidinet-small.pth (torch, 765036 bytes, 78 tensors)

module.init_block.weight f4 [30, 3, 3, 3]
00000000: 8427 0dbd dbd0 73bd 96ab 34be a472 233d
00000010: d8ee 1e3c 037d f13b e209 9e3d 7f70 c83d
00000020: 1a8f 5abc 7925 9ebc 8f9d f0bd 9513 13be
00000030: e8b0 b83d d548 12bd 5c2c fcbd d946 f63d
00000040: a791 113e c27c 2cbc 0b56 04bd 88aa 153c
00000050: 7c3c 8ebd 1acb a5bb 3e86 88bc bda3 3ebd
00000060: a6e0 a33d cbcd 493d 40b2 a23d 8e9e a83d
00000070: 7235 10be 5c72 debe 5560 ab3e 090f 993c
00000080: 6246 8abe 5be5 c63e f6e9 cb3e cb9b 18be
00000090: 5b81 5fbe bb00 e63e 8b8f 4b3f 6b1c 08bf
000000a0: a91c 0dbc 50ac 0e3f f3cb 39bf e034 17bf
000000b0: 14a5 e43d 6866 103e 2b3f 94be e00d c4be
000000c0: 0b36 623e 7286 2b3c 6c5e 95be b2b5 b13e
000000d0: b338 493e caf8 fc3c 3de2 6dbb 1736 dc3c
000000e0: 7720 68be 4145 98bc 92f9 7bbc 3cf7 293d
000000f0: 2ef8 2e3e e1b9 a63c 3e7f aa3c e008 ee3d
00000100: 41c1 3d3b 520e 37be 326b 8abc 4d0b 98bc
00000110: 4776 793d ae85 013c 3bc6 fdbc 5780 2d3e
00000120: 26dc 8fbd 8c3b 723d eef1 29be 4d50 8fbd
00000130: f7f9 ecb9 1d70 ea3d 467b cbbc 7515 e43d
00000140: faa6 cdbc e54f 08bd 49ce 313e 5db8 05be
00000150: 9155 b53d 0abf bc3b 8709 d73d 0401 7b3c
00000160: a00e 14be d025 cebc 0911 c2bd a594 583e
00000170: 5658 62bd be3c c4bc 984e 7e3d ba48 bf3c
00000180: 6917 6f3d 164f 22be 9759 b43d bc09 33bd
00000190: 8427 623d aa38 86bc 8675 38bb 51b1 6a3d
000001a0: 4f6f cc3c db0f 84bc 8479 38bd 0d10 5a3d
000001b0: 7553 51bd 26c6 01be d724 babd 2f58 5f3e
000001c0: e482 e03a 9c04 eebc 8ac4 85ba 078a f33d
000001d0: 9441 dbbd 0bb2 903c a46b 60be 4c70 0bbe
000001e0: 27dd 6f3e 091f d43a aaad 86bd 7748 703d
000001f0: a281 863d 7aed 06be 3acc 803b c466 78bc
00000200: 9441 cd3c 2e4c b13d f39a 95bc 5b64 56bd
00000210: f5e0 213c e1cd df3c 0bbe 06bd 1446 c3be
00000220: 1f24 85be f098 a83b f258 09be a17a 34bc
00000230: fff7 573e 9c6f 893d 9e72 373e 2e97 ba3e
00000240: 730c 59bf 1de1 b7be ca68 91bd 510f 05bf
00000250: db64 113d 7390 be3e 74a4 80bd 8ea6 e93e
00000260: 88fe 503f b3f7 a23f 76b7 233f 85cb 7c3d
00000270: 0bf4 313f 20ea 233d 9792 1dbf 0113 dc3c
00000280: f6c6 2ebf 2275 a2bf 0654 07bd c0a0 e13e
00000290: 4e7a 7e3f 5df9 14bf 6704 653d 5af7 163f
000002a0: 1a45 6bbf 0026 0ebf 70cd 6dbc d50a aabb
000002b0: 1437 4fbf 9892 d3bf 1247 593f 47c5 fabc
000002c0: 37cf 4cbf 3423 bd3f cc10 773f 23d5 f83c
000002d0: 3ca9 ae3c 9b77 b53e b0eb 2b3f 7017 92be
000002e0: 1397 b93c 85bc 893e 59f9 16bf 84cc d3be
000002f0: 45bc 9bbc a88b 443e 8ea8 bc3c 18a4 93bd
00000300: 8a6e a33d 59a9 f8bb 3871 86bc 3730 243d
00000310: 76e0 29be 0d4a 1fbe 7f6f 413e d88e a6bd
00000320: 6e47 12bd ebe1 4b3e f15f e63b f53f f6bd
00000330: 2bda b73d cb74 583c 4c5f 85bc c4a5 333c
00000340: 022a e6bc 0b0b 8b3d 5f18 083e 5a6b 01bb
00000350: b43b bebc f9da 43bd 9904 9dbc 97e6 adbd
00000360: 2ef3 733e 30e1 5cbd 9f4c 343d e863 8abc
00000370: 6ca0 36bc 3d07 9fbe 872b 5d3e 3a51 34be
00000380: 5e6b 11bd 7536 2bbe c153 ab3c 0786 613d
00000390: a37e 07bd 7085 d53c 54f9 a1bd eb92 86bd
000003a0: 85dc 29bd b4e8 e13d 451e 9fbd 05b9 58bc
000003b0: 24aa a33c edbc 7ebd e6d9 9dbc 3e72 99bd
000003c0: 921b 88bc 0c90 16bd bb51 2b3e 276b 80bf
000003d0: f6e1 b8be e392 203f 837d 8cbf 198b a13b
000003e0: fc76 4f3f 61d8 0cbf 23e6 2bbd f3fa 883f
000003f0: d497 493f 813b d63e 7231 e4be 909e 5f3f
-0.034461513 -0.059525352 -0.1764358 0.03990425 0.0097004995 0.007369639 0.07716729 0.09787082
-0.013339782 -0.019304978 -0.11748802 -0.14362939 0.09018117 -0.03571399 -0.123131484 0.12025232
0.14215718 -0.010527791 -0.03230862 0.009134896 -0.0694513 -0.005059612 -0.016665574 -0.04654287
0.08001833 0.049268525 0.07944155 0.08233367 -0.14082888 -0.43446624 0.33471933 0.018683927
-0.27006823 0.3884686 0.39826936 -0.1490318 -0.21826689 0.44922432 0.79515904 -0.5316836
-0.00861279 0.5573168 -0.72576827 -0.59065056 0.11164299 0.14101565 -0.28954443 -0.38291836
0.22090928 0.010469066 -0.291736 0.34708935 0.19650535 0.03088035 -0.0036298179 0.02688126
-0.22668634 -0.01858771 -0.015379326 0.041495547 0.1708686 0.020352306 0.020812627 0.116227865
0.00289543 -0.17876557 -0.016896818 -0.018560076 0.060903814 0.007905407 -0.030978313 0.16943489
-0.07024412 0.05913882 -0.16596195 -0.06997738 -0.00045199666 0.11447165 -0.024839055 0.11136905
-0.025104035 -0.03327932 0.17363848 -0.1305861 0.08854211 0.0057600783 0.10499864 0.015320066
-0.14458704 -0.025164515 -0.094759054 0.21150453 -0.055260025 -0.023954745 0.06208667 0.023350108
0.058371935 -0.15850481 0.088061504 -0.043710455 0.055213466 -0.016384441 -0.0028146221 0.05729801
0.02495542 -0.016120842 -0.04503776 0.053237963 -0.05110498 -0.12673244 -0.09089058 0.21810983
0.0017128852 -0.029054932 -0.0010205668 0.11891561 -0.107058674 0.017663023 -0.21916062 -0.13617057
0.23424207 0.0016183566 -0.065760925 0.058662858 0.06567694 -0.13176528 0.0039305957 -0.01516122
0.025055684 0.08657108 -0.018262362 -0.0523418 0.009880294 0.02731985 -0.032896083 -0.38139403
-0.2600412 0.0051451847 -0.13412836 -0.011015565 0.21090697 0.06710741 0.17914817 0.36443466
-0.8478462 -0.35913935 -0.07100065 -0.51976496 0.035496574 0.3721958 -0.06281367 0.45634884
0.81638384 1.2731842 0.63951814 0.06171753 0.69513005 0.0400182 -0.61551803 0.02686453
-0.6827234 -1.2691996 -0.033039115 0.44067955 0.9940537 -0.58193 0.0559124 0.5897118
-0.91902316 -0.55526733 -0.014514312 -0.0051892796 -0.8094342 -1.6529112 0.8487407 -0.030611647
-0.80003685 1.4776368 0.96510005 0.030375069 0.021320932 0.35442814 0.67156506 -0.28533506
0.022655046 0.2690164 -0.58974224 -0.4136697 -0.019010672 0.191939 0.023029592 -0.07209033
0.07980068 -0.007588547 -0.016411409 0.040085044 -0.16589531 -0.15555592 0.18890189 -0.08132714
-0.035712652 0.199104 0.00703048 -0.120239176 0.08977159 0.013211439 -0.016280793 0.010964815
-0.028096203 0.06789216 0.13290547 -0.0019747824 -0.023221828 -0.04781625 -0.019167231 -0.08491247
0.23823234 -0.053925693 0.044018384 -0.016893342 -0.011146646 -0.3106021 0.21598636 -0.1760911
-0.035502784 -0.16719992 0.02091396 0.05505946 -0.033079755 0.026064605 -0.07908884 -0.06570991
-0.04147007 0.11030713 -0.07769445 -0.013227706 0.01997859 -0.062191892 -0.019268941 -0.07492493
-0.016614709 -0.036758468 0.16730396 -1.00327 -0.36109895 0.6272413 -1.0975803 0.004929912
0.8104093 -0.5501767 -0.041967522 1.0701584 0.78747296 0.41842273 -0.44568974 0.8735132

module.block1_1.conv1.weight f4 [30, 1, 3, 3]
00000000: 66cd 8b3e e17d 5a3e 383b d23d 7db1 143e
00000010: d786 0080 80fa 2cbe f0bc 02be 167a 82be
00000020: 4a62 acbe a253 c6bd 8901 7a3d 3b67 d2be
00000030: 9e46 4abe 6466 0080 f0c5 d2bd d393 f0be
00000040: 9852 f53d 14db f3bc 0c56 d03c c829 fc3b
00000050: 5d25 373e 0548 3d3e d340 0080 2852 10be
00000060: 67b6 1abe f466 d63d 86a1 8bbd 87b7 83bd
00000070: dd26 2ebe a8f4 ecba 209d 543e a026 0180
00000080: 71e9 bc3d 77a6 e13d ccea a0be cdeb bf3c
00000090: be9e f6bd bf87 22be 4f0a 3bbd 493e bb3c
000000a0: 0bf5 0080 fe3b 2cbe d643 8a3e 828e fabd
000000b0: 7053 17be efae f5bd 9068 733e 2bfa 86bd
000000c0: d095 643d 274b 0180 830d 7d3d b274 38bd
000000d0: 7477 693e a3ed dcbd da60 55bd a88c 993e
000000e0: 1dee 41be 3875 f13d 9e1b 0180 8eb0 d63d
000000f0: 3c03 1cbe 78ce 883e 80a4 11bd 4dea d33d
00000100: f9e2 9d3b 25c6 e63d 8e64 043d 0ce3 0000
00000110: b97e ec3d 79b7 263e cae3 0abe 027d 943e
00000120: bd21 aa3d aabd 8cbe 4fd6 0bbc 9903 7dbd
00000130: fcee 0000 7e99 28be d0c2 0fbe a34b 733d
00000140: 1a9b 81be a423 173e 8037 f5bd 994b a63d
00000150: 882e e3bd c53a 0180 fff9 2cbe a774 a63d
00000160: 3eb0 13be 15f9 023e d841 cabd b132 15be
00000170: ad89 6ebe 9946 023d df33 0100 fac1 4b3e
00000180: b990 59be 9986 91be 5784 69be bb91 013e
00000190: c0b7 d7bb f3d2 833d 62fd 4c3d 35ad 0080
000001a0: 11db 0ebc a778 28bd ee67 02be 9ca2 853e
000001b0: f9c5 cdbc f511 25be e854 cb3d 2959 0ebe
000001c0: f812 0180 ce67 2ebe 011b 863d 931f 83be
000001d0: 12fe ab3d 2e0f 7d3d 3f26 e0b9 8fc0 75bb
000001e0: f88b 38be fd15 0100 38e4 4cbe 53dc 653d
000001f0: a851 cebd 802e e73d b42e 9bbe 4be1 1a3d
00000200: dc49 ffbd 0e8f 39be 822f 0180 0b44 e5bd
00000210: ecd2 eabd 6c11 c5bc 38c8 58be f180 b53d
00000220: 11ac 2a3d 3d2a d7bd 07ee 723e cd43 0180
00000230: fa4e 813e 32be c4bd ecdf b33d ec4d a43d
00000240: ec8c 9bbd 7fea 05be c689 033e 3656 013e
00000250: 7756 0000 3aaa fb3c 8729 983d 50b1 af3d
00000260: 7056 863d ec38 b0bd b9cf 9c3b edd8 1c3e
00000270: e7d7 f8bd 6d24 0100 2231 5f3e db72 67bd
00000280: 87d6 94bd 7581 e33c 0568 84be f178 383e
00000290: 5f1c f73c f120 88bd 97c4 0080 fd73 4e3d
000002a0: 366b b33c 68c6 d73d ac17 f8bd 8931 583d
000002b0: 078f b9bd 22ba 4fbe 2038 193d a04f 0180
000002c0: b557 393e 3888 17be 7009 87bd e3ca 2a3b
000002d0: 97ee 113d 07f1 9a3d 1e6c c43d cb34 9d3d
000002e0: c7ee 0000 dc66 bb3d 74af 16bc 6b29 8ebe
000002f0: 5094 20be e027 b53d 1889 273e e6ca dd3d
00000300: bcd0 a2bd e423 0100 2209 4ebd b469 5dbe
00000310: 80b0 66be ef19 7fbe 5f66 b23d 457e 62bd
00000320: 824b 0abe 4cab 403e 28fd 0080 3df9 6a3e
00000330: 9e8b e5bd 158a 00be f781 303e 60b7 413e
00000340: fccd 69bd 7a10 e93d 0cf8 4ebe 26f7 0080
00000350: d925 b8bd 25a6 283e 4fbf d93c 9bb1 0b3e
00000360: ac24 623d 3426 22bd 4f6c b5bd 8c58 8d3e
00000370: 8c66 0000 a3c4 2f3d ecaa c53e ecb2 073e
00000380: ee9a 0bbd e4c3 83be cbb6 f1be 938a dbbe
00000390: 3f1a 183f c8fc 0000 b039 ccbe adc1 2e3f
000003a0: 7172 1d3f f76c 5f3e 2878 42be 9826 d93d
000003b0: e767 15be 6b1d f53d b42e 0100 8cfd 203e
000003c0: a4a6 d4bd 04d5 843d 5534 23be 2791 5c3d
000003d0: f90b 013e 2943 2bbe 9825 aa3d e334 0100
000003e0: 255d 8abe 882b 583c 8e2d 4fbe 7852 a9be
000003f0: 9bd5 843e 92b6 6e3e 5ba0 87bd f6b4 09be
0.27305144 0.21337081 0.10265201 0.14520831 -4.8371e-41 -0.16892433 -0.12767386 -0.2548377
-0.3366874 -0.096839204 0.06103662 -0.41094384 -0.19753501 -3.6731e-41 -0.1029166 -0.4698778
0.11978644 -0.02976755 0.025431655 0.0076954104 0.17885347 0.18484505 -2.3255e-41 -0.1409384
-0.15108643 0.104688555 -0.068179175 -0.064314894 -0.17007013 -0.0018078284 0.20763063 -1.05692e-40
0.09224213 0.11018079 -0.31429136 0.023427868 -0.120419964 -0.15872096 -0.045664128 0.022856848
-8.7905e-41 -0.1681976 0.2700488 -0.122342125 -0.14777923 -0.119962566 0.23770356 -0.065906845
0.055806935 -1.18795e-40 0.061780464 -0.045033164 0.22799474 -0.10787513 -0.052094318 0.29990125
-0.1893849 0.11789936 -1.01743e-40 0.10482894 -0.15235609 0.26720023 -0.03555727 0.10347424
0.004818317 0.11268262 0.03232246 8.1449e-41 0.11547608 0.16280927 -0.13563457 0.29001623
0.08307216 -0.27488452 -0.008534982 -0.06177101 8.5731e-41 -0.16464803 -0.14039159 0.059398305
-0.25313646 0.1475969 -0.119734764 0.08119888 -0.110928595 -1.12918e-40 -0.16892241 0.081277184
-0.144227 0.1279033 -0.0987584 -0.14570118 -0.23294707 0.03180561 1.10443e-40 0.19898215
-0.21246614 -0.28423002 -0.2280439 0.12653248 -0.006583184 0.0643672 0.050046332 -6.2135e-41
-0.008719222 -0.041130688 -0.12734959 0.26100624 -0.025118815 -0.16120131 0.09928304 -0.139012
-9.864e-41 -0.17031786 0.06548119 -0.25610027 0.083980694 0.061782055 -0.00042753105 -0.0037498807
-0.18022144 9.9723e-41 -0.20008934 0.05611832 -0.100741684 0.11288166 -0.3030907 0.037812512
-0.124652594 -0.18120977 -1.08878e-40 -0.11194619 -0.114660114 -0.024056159 -0.21170127 0.08862484
0.041668 -0.10506103 0.23723613 -1.16158e-40 0.25255567 -0.096065894 0.08782944 0.08022675
-0.07595238 -0.13077734 0.12845525 0.12630543 3.1018e-41 0.030720819 0.07429796 0.085787416
0.065594554 -0.08604607 0.0047855047 0.15317126 -0.12150555 1.04903e-40 0.21796086 -0.05650602
-0.0726748 0.02777169 -0.2586061 0.18014885 0.030164896 -0.06646908 -7.0523e-41 0.050403584
0.021901708 0.1053589 -0.1211389 0.052781615 -0.090604834 -0.20285848 0.03740704 -1.204e-40
0.18099864 -0.14798057 -0.06593597 0.0026060871 0.035627928 0.075655036 0.09590934 0.07676085
8.5657e-41 0.09150478 -0.009197105 -0.27765974 -0.15681577 0.08845496 0.16360891 0.108297154
-0.07949969 1.0471e-40 -0.05030168 -0.21622354 -0.22528267 -0.24912237 0.08710932 -0.0552962
-0.13505366 0.18815345 -9.0815e-41 0.2294664 -0.112082705 -0.12552674 0.17237078 0.18917608
-0.057081208 0.11380096 -0.2021181 -8.866e-41 -0.08991594 0.16469629 0.02658048 0.1364197
0.055210754 -0.039587215 -0.08858549 0.27606618 3.6787e-41 0.042912137 0.38606966 0.13251847
-0.0340833 -0.2573539 -0.47209772 -0.4287916 0.5941505 9.0681e-41 -0.39887762 0.68264276
0.6150275 0.2181891 -0.18991148 0.10603064 -0.14590417 0.11968502 1.0859e-40 0.1572172
-0.10383347 0.06485942 -0.15937932 0.053849366 0.12602223 -0.16724838 0.08307952 1.10808e-40
-0.2702419 0.013193972 -0.20232221 -0.3307073 0.25944218 0.23311833 -0.06622382 -0.13447937

module.block1_1.conv2.weight f4 [30, 30, 1, 1]
00000000: 42b1 94bc b4cf cabd 7cf8 cabe 4d57 18be
00000010: 22ab a73f 259e bfbd e10e 903c 79b7 b43b
00000020: 8f38 77be 4fbd 163e f3f1 ddbe 67df ffbe
00000030: 354c 063e 7920 0abc ef5c 13bf c9f8 6a3f
00000040: 4622 04bf 741f 613f ddb6 ee3d 8f08 8e3e
00000050: 8a09 8abe e5a4 da3d 2205 1b3d feda ca3c
00000060: 9235 9d39 76ce 9e3c eb5d 3c3d 6443 973f
00000070: 8f70 c5bc e2b2 873e adb3 053f 36e4 4dbf
00000080: 356c 0d3e 5b1c 68be ab59 bdbd c3e3 99be
00000090: faf2 0a3f c5cb 3f3e e89c 34be 40f9 d73c
000000a0: 01d1 82bd 525e 043d 6ffc 72bc 9687 5e3e
000000b0: ce80 dc3d b547 a43c 55f0 aa3e 3c79 fcbd
000000c0: 7935 0f3e f9b7 953e 67d7 903e da09 5abe
000000d0: 6c88 4fbe 7cc2 e0bd 48a9 023e f24f d33d
000000e0: c107 debd 813b 2e3e 9a60 ef3d 9c67 13be
000000f0: ccc1 b8be 6ad7 8dbb 4dc3 23be 6b2a e03e
00000100: 9575 f1be b761 893e 64d8 aebc b481 a2bd
00000110: 5edf 943e 54e2 303e 6d7e 33be 8da2 e03e
00000120: 9eaf 25bf 0f28 1c3e f642 3ebe 8d24 4bbe
00000130: c92a 1e3e 4728 23bf 9e1e 663e ee47 71bd
00000140: 84b3 14be fb76 b63e 2be3 743e 519e ad3e
00000150: a37b acbd df9c 9ebd 8887 153e f2b0 b1bf
00000160: 73d8 2a3f 76d2 d3bd 14a2 203f a7f6 a03d
00000170: 82f6 953f 88ec 9d3f bb84 303f 8d21 60be
00000180: 5c4c 64bd ccf7 ee3e b917 923f 4fd9 f4bc
00000190: f6f9 cf3d 8780 253e 6f41 33bd 29e2 833d
000001a0: 553e 993e 807c 633d fa7f c1bc bd4c 1a3f
000001b0: 7f47 073f 5ac2 0a3e 72a0 123f 6381 fa3e
000001c0: 85bc 9bbe 55f8 d0bd 0e0a 923f ca74 22bd
000001d0: cb47 2cbe 9874 1a3f fa7c 543f c3dd 873f
000001e0: 5207 243f 086e a7bd 217f 7fbe 27c6 c8be
000001f0: 17a4 1b3f b42d 22bd 0622 93bd 843c d63e
00000200: d739 58be 9b20 f3bd 2fa9 98bd 0616 5fbe
00000210: 7346 f9be e505 ba3d f471 26be 92b3 52be
00000220: f30a 013f 03f2 14be fdb5 8f3e 7c37 713d
00000230: 84dc 113f 13c7 e7be 2e12 033d a08b 6bbd
00000240: daf3 053f 9b62 2cbe 863f 323d e933 43be
00000250: 5a94 b53e eac0 abbe 0113 a53c 0d09 203b
00000260: 8075 843c e82b f4bc 7dfa 72bd 50fb 2dbf
00000270: a856 1cbe 7c8b d13c 4e8c f8bd 4022 5b3e
00000280: c7e9 573d 73b8 8cbd 787e 213b 2de6 33bf
00000290: 4ef7 0d3d cbdd d5ba a067 e1bd 6d32 193d
000002a0: a4eb b6bd 4172 993c a01b 113d 3499 a0bd
000002b0: 11ab a23f b6dd bebe 4bc2 083d bb65 933f
000002c0: b0a0 743d e8ac 9abc f88c 92bd d498 9d3d
000002d0: db02 9fbb ba0c 9d3f 536f a03d 9026 b93d
000002e0: c451 f13c cde2 46bb 6352 8dbf 6fb1 aa3d
000002f0: bc4b eb3d 2b4a 9c3d 0b91 58bd 79b2 413b
00000300: f725 673c b736 d2bd 2a34 66bb 0882 ab3c
00000310: 42d1 a63d 0a02 50bc 60a5 1dbb a862 fb3b
00000320: c340 08bd e118 74bd 3e0a 19bd 3bc0 48bd
00000330: 7705 55bd 0d95 0c3e 75ff 463e 2699 48bd
00000340: 1d39 b53d 16c9 c4bb 7ae5 1fbe 706f 1f3d
00000350: d4d9 8dbe b274 75bf 8f85 f7bd 0d21 a6bd
00000360: 609e 16be eb2d 1e3f 9bb5 4fbe 981e 3bbe
00000370: b61f 1cbe 60d3 e2be f2ea 7d3d 1fee 1e3d
00000380: 244b c8be 20ce babe cd38 b4bd 948d d6bd
00000390: 0d28 333d e14b f6bc d941 9fbd 4c30 17bf
000003a0: c928 86bd 90be 13be eba3 39bf bcac 09be
000003b0: 8768 ad3c 9b65 1bbe bb1b 34bf 6cb2 a1bd
000003c0: d57d a03e bbb1 09bd 6fca aebe 1522 c43e
000003d0: 05ef cabe f541 4d3e 60ab 623e 4b85 9f3e
000003e0: 0522 343d 95a1 e4bd 52e8 01bf add4 a43d
000003f0: b76e 943e 3376 b0bd 1b19 6a3e e42a 2fbe
-0.01815093 -0.099028975 -0.39642704 -0.14877053 1.30991 -0.093563356 0.01758522 0.0055150357
-0.24142669 0.14720653 -0.43348655 -0.4997513 0.13115008 -0.008430594 -0.5756368 0.91785866
-0.516148 0.8793862 0.11655972 0.27740905 -0.26960403 0.106759824 0.037846692 0.024762627
0.00029985287 0.019385558 0.045988005 1.1817441 -0.024101524 0.26503664 0.5222729 -0.8042635
0.13810809 -0.22667067 -0.092456184 -0.3005658 0.54277 0.18730076 -0.1763798 0.026363969
-0.063875206 0.032316513 -0.014830693 0.2173141 0.10766755 0.020053724 0.33386484 -0.12327811
0.13985242 0.29241922 0.2828934 -0.2129282 -0.20266885 -0.10974595 0.12759888 0.10317983
-0.10841323 0.17014886 0.11688347 -0.14394993 -0.36085355 -0.004328658 -0.1599247 0.43782362
-0.4716002 0.26832363 -0.021343417 -0.07934895 0.29076666 0.17273837 -0.17528696 0.43874016
-0.64721096 0.15249656 -0.18580231 -0.19838162 0.15446009 -0.63733333 0.22472617 -0.058906488
-0.14521605 0.3563765 0.23914783 0.33909848 -0.08422019 -0.077447645 0.14602482 -1.3882124
0.66736525 -0.103428766 0.6274731 0.07859545 1.1715853 1.2337809 0.6895253 -0.21887799
-0.055736884 0.4667343 1.141349 -0.029888777 0.10155098 0.1616231 -0.043763574 0.06439621
0.29930368 0.055538654 -0.023620594 0.60273343 0.5284347 0.13550702 0.5727607 0.4892684
-0.30417266 -0.102036156 1.1409318 -0.03966216 -0.16824262 0.6033416 0.830032 1.0614551
0.6407367 -0.08175284 -0.2495084 -0.39213678 0.60797256 -0.039594367 -0.07184224 0.41843045
-0.21115814 -0.118714534 -0.07454144 -0.21785745 -0.4868656 0.090831555 -0.16254407 -0.20576313
0.5040733 -0.14545445 0.28068534 0.058890805 0.56977105 -0.4526907 0.03199976 -0.057506204
0.5232521 -0.1683449 0.043517612 -0.19062771 0.35464746 -0.3354562 0.020150663 0.0024419457
0.01616931 -0.029806092 -0.059320915 -0.679616 -0.15267432 0.025579207 -0.12136136 0.21399784
0.05271318 -0.068711184 0.0024642032 -0.70273095 0.034659676 -0.001631671 -0.11006093 0.037401605
-0.08931664 0.018731238 0.035426736 -0.07841721 1.2708455 -0.37278527 0.033388417 1.1515421
0.059723556 -0.018881276 -0.07155794 0.07695165 -0.0048526353 1.2269509 0.078337334 0.09040558
0.029457934 -0.0030347586 -1.1040767 0.08334624 0.114890546 0.07631334 -0.0528727 0.002955584
0.014108173 -0.10264342 -0.0035126307 0.020936027 0.081453815 -0.012695799 -0.002405487 0.007671673
-0.033264887 -0.05959404 -0.037363283 -0.04901145 -0.052007165 0.13728733 0.19433387 -0.04897418
0.08848784 -0.0060054166 -0.15614882 0.038924634 -0.27705252 -0.9588119 -0.12086021 -0.08111773
-0.14708853 0.61788815 -0.2028412 -0.1827339 -0.15246472 -0.4430189 0.06199164 0.03880131
-0.39119828 -0.36485386 -0.087998964 -0.10476223 0.043739367 -0.030065479 -0.07776231 -0.5905807
-0.06550748 -0.14428163 -0.72515744 -0.13444799 0.021168007 -0.15175478 -0.70354813 -0.078953594
0.31346002 -0.033616763 -0.3413882 0.38307253 -0.39635482 0.20044692 0.22135687 0.31156382
0.043977756 -0.11163632 -0.5074512 0.08048377 0.2899072 -0.08616295 0.2286114 -0.17106205

module.block1_2.conv1.weight f4 [30, 1, 3, 3]
00000000: 0568 0080 5766 db3e f716 6fbe 0d44 4bbe
00000010: 8dff fa3d 01a2 9c3c 51e7 52be fd11 9abd
00000020: ea43 903e 880a 0180 d945 eb3d e77f 6e3e
00000030: b859 af3e dd03 35bd d2cd 48bc b299 7d3e
00000040: cce8 1c3e 596f d23d b955 0180 1a6d e1bd
00000050: 2d68 893e 5097 3ebe 3f88 9e3d f81b 80bd
00000060: e9a3 83bd 7021 f938 fdbd ca3c d5da 0000
00000070: c9f6 de3d 7929 e7bd 3768 9bbe ddbd fe3d
00000080: c150 b4be 0ade 1f3e a19a 733d d96d c1bd
00000090: 84f3 0080 a9b4 903d 73dc 47bd 40b8 413c
000000a0: 818d 973e 4c4c 293d 5f5d 3f3e f2dc 883c
000000b0: cc0f 26bd 0fe4 0000 d53e 15be 5a9c 2dbe
000000c0: e535 5ebd a105 9cbd b89e 3bbd 4e82 0dbd
000000d0: 0b46 69be a45e 45be 8d4c 0180 18a2 bf3d
000000e0: b1fa 5b3d 6f69 743e 3043 1d3e 7d26 333e
000000f0: 3b56 a63e db77 153e 297b ea3d abc7 0000
00000100: 8d68 9fbe 137e a5bd cfc4 733d 4263 92be
00000110: 17c9 6f3c 3990 d23c 1532 c5bc cd10 0abd
00000120: a46a 0180 ff94 cabd d3eb 8dbd 237a e63d
00000130: 9039 5d3d 61e8 b53e becc ae3d 7836 9ebd
00000140: 6296 85bd 8464 0100 e037 19be 0ce3 5dbe
00000150: 7f7b 06be 50b3 23be a1b9 28be 674e b3bd
00000160: e11b 6abe 804d 23be cad2 0080 1f79 e93d
00000170: 7386 4a3e 2de4 d83d 9ce8 863c 9b7e 993d
00000180: 8a48 56ba bca9 223e b243 4a3d a2ee 0080
00000190: bcf3 2dbc f877 9d3c 9fdd 8bbc dc7a 1cbe
000001a0: a536 b5be 70bd a43c 9dd9 95bd 62d8 a5bc
000001b0: c094 0000 cdb0 e83b 39ec e5bd 7016 7dbe
000001c0: 312e 15be b750 58be cfe1 04be 2d70 00be
000001d0: c199 95bc 55e1 0000 4255 47be b2d1 0cbe
000001e0: fbf8 d4bd 4c3b 9ebe d185 86be a0b3 acbd
000001f0: 0772 58be 7a1d 15be 28b1 0000 bb05 0a3c
00000200: bcd6 fc3c 492d 823c 4146 b9bc fad4 8c3e
00000210: 9383 ebbb 4e7b bcbc 9cd8 4d3e 163e 0100
00000220: edd0 953e c00a 81be 5d2a b7bb a3f6 363e
00000230: 7496 633e 6707 86ba 094b 90be df1e 433e
00000240: 267f 0000 d4af 363d e347 cb3b 0a04 5abd
00000250: ec59 1fbe ede3 4c3d 0b2c abbe b414 b2bd
00000260: dcd1 c83d cd3e 0180 4c48 5cbe bc6b 55be
00000270: 8bbf a93d 04ed 26bd df1b fd3d 288a 433d
00000280: 0749 5e3d 2d97 013d f00c 0180 5370 3abc
00000290: fa47 19bd 0fcf 74bd 66e5 2ebd fc63 9e3e
000002a0: 5b15 98bd 0b41 703d 042b 763e d467 0000
000002b0: 8d12 d5bd 3dc4 3cbe 2e26 343d 313a 183e
000002c0: 32d3 ae3e eb3f a23d b09a 6bbc 977d 91be
000002d0: f8f5 0000 8080 15bc 599d fa3d 43cb 763e
000002e0: a976 fb3d f7ee 4c3e dbed 143e 3dc7 073d
000002f0: bef7 153c 52f1 0000 1231 f4bc ef24 86be
00000300: b544 04be 9d9b f53c 0a96 3ebd 7b10 73bd
00000310: cb99 b4be 651b 67bd 234a 0180 02cc cb3c
00000320: ab16 56bc e659 5d3e 4ee3 833e 4c41 533e
00000330: 2f7b 513e 71e8 a43d 9605 263d a46a 0080
00000340: 0bce a73e 443e b73c e519 f93d adee 3c3e
00000350: 237a 1d3e b3f1 f53d c989 ff3d 8b86 653e
00000360: 98eb 0000 b708 89be 54a1 22be f74f 83bd
00000370: b1c6 06be ba40 ff3d 43f8 2b3c c5bf 013e
00000380: d060 dc3c 9502 0180 dfc4 e13c e014 1bbe
00000390: 8b2f 50be 057b c4bd faf3 52be 2364 56be
000003a0: 1a71 64bd 292c e23c c9fe 0080 cad4 553d
000003b0: 3564 82be 33e6 debd c69e 67bd 0441 63bd
000003c0: 24c1 00be b29c 14be 7b61 da3d 6c02 0100
000003d0: a75d d3bd 1bd3 14be 5c25 c73c d510 2c3d
000003e0: 8743 f0bc e10d 4dbd 9c63 87be f235 9fbd
000003f0: da31 0000 d0b3 ef3b 2dcf 283d 4bbb 9d3e
-3.7315e-41 0.42851517 -0.23348604 -0.19850178 0.12255774 0.019120218 -0.20596053 -0.07522962
0.28176814 -9.5613e-41 0.11487932 0.23290978 0.34248137 -0.044193137 -0.012256103 0.24765661
0.1532318 0.10275144 -1.22587e-40 -0.110071376 0.26837292 -0.18612409 0.07740831 -0.062553346
-0.06427748 0.000118794735 0.024748797 7.8502e-41 0.10886914 -0.11287207 -0.30352947 0.12438557
-0.3521786 0.15612045 0.059473637 -0.0944478 -8.7357e-41 0.07065708 -0.04879422 0.011823714
0.29600146 0.041332528 0.18687962 0.016706917 -0.04054241 8.1812e-41 -0.1457475 -0.16954175
-0.054250617 -0.07618261 -0.045805663 -0.034548096 -0.22780626 -0.19274384 -1.19297e-40 0.09357089
0.053705875 0.23868345 0.15357661 0.17495151 0.32487664 0.14596502 0.11449272 7.1627e-41
-0.31134453 -0.080806874 0.059513863 -0.28591353 0.014635346 0.025703536 -0.024071733 -0.03370743
-1.30091e-40 -0.098917 -0.069297455 0.112537645 0.054009974 0.35528854 0.08535145 -0.07725233
-0.06522824 1.27894e-40 -0.14962721 -0.21668643 -0.13133048 -0.15986371 -0.16477062 -0.087551884
-0.22862197 -0.15947533 -7.5617e-41 0.11400055 0.19777851 0.10590396 0.016468339 0.07494851
-0.00081742613 0.15885061 0.049380966 -8.5605e-41 -0.010617193 0.019222245 -0.01707345 -0.15281242
-0.35393253 0.020109862 -0.07316897 -0.02024478 5.3361e-41 0.0071011544 -0.112266965 -0.2471559
-0.14568402 -0.2112454 -0.12976764 -0.12542792 -0.018261792 8.0834e-41 -0.19466117 -0.13751867
-0.10399052 -0.30904615 -0.2627397 -0.08432698 -0.21137248 -0.14562026 6.3552e-41 0.008424218
0.030864112 0.015890734 -0.022616507 0.27506238 -0.0071873157 -0.023008015 0.20102161 1.14108e-40
0.2926096 -0.25203514 -0.005589767 0.17867522 0.22225362 -0.0010225595 -0.28182247 0.19054745
4.5612e-41 0.044601277 0.006203638 -0.05322651 -0.15561646 0.050022054 -0.3343204 -0.08695355
0.098056525 -1.14364e-40 -0.21511954 -0.20841879 0.08288487 -0.04075338 0.123588316 0.047739178
0.054268863 0.031638313 -9.6477e-41 -0.011379319 -0.037422158 -0.05976778 -0.04269924 0.30935657
-0.07425948 0.05865578 0.24039847 3.7247e-41 -0.10403929 -0.18434234 0.043981723 0.14865948
0.34145504 0.07922348 -0.014380142 -0.2841613 8.8237e-41 -0.009124875 0.12237043 0.24100976
0.12278492 0.20013033 0.1454386 0.033148993 0.009153305 8.657e-41 -0.029808555 -0.26200053
-0.12916835 0.029981429 -0.046529807 -0.05934189 -0.35273585 -0.05642261 -1.18431e-40 0.024877552
-0.013066928 0.21616325 0.25759357 0.20630378 0.20457147 0.08052147 0.04053267 -3.8255e-41
0.32774386 0.022368558 0.12163142 0.18450423 0.15378623 0.12008991 0.12477452 0.22414605
8.4515e-41 -0.2676446 -0.15881854 -0.064117365 -0.13161732 0.124635175 0.010496202 0.1267081
0.026901633 -9.2762e-41 0.027559696 -0.15144682 -0.20330636 -0.095937766 -0.20600882 -0.20936637
-0.055771925 0.027608948 -9.14e-41 0.052204885 -0.25467077 -0.10883751 -0.056547903 -0.055481926
-0.12573677 -0.145129 0.10663124 9.2704e-41 -0.10320597 -0.14533655 0.024309807 0.04200824
-0.029329075 -0.050062064 -0.26443183 -0.07773961 1.7883e-41 0.0073151365 0.041213203 0.30806956

module.block1_2.conv2.weight f4 [30, 30, 1, 1]
00000000: e161 5dbd 3aa5 09bf 4752 32bf db8a 103e
00000010: 0fa7 88be b0f3 a0bb b768 8bbe ed83 e5bd
00000020: ff76 d3be de46 c5be c3a1 003f feea 7fbe
00000030: 9c8a 233f e903 01be e4b7 62be c397 16be
00000040: 520e a2be c587 243d 079a 19bf 6057 c6be
00000050: d25b 44be 0cb5 1abe 51c8 8ebe b78c 00be
00000060: dc21 76be 9ca8 cc3e 91b1 9abc e7cc 833f
00000070: 3f98 1abf 8ad9 bb3e 9f62 483e 4422 0a3f
00000080: 7d9d 8bbd d942 573d fa8f a9be 63dc 3f3c
00000090: 2ee7 60bf 1ce6 41bf 6df3 abbe 9b8c 143e
000000a0: f1e1 88be 474a 183f 430b 6d3e ea39 6dbd
000000b0: b6c4 3f3e c5ef 9b3e bfcf 8dbe 5819 00bf
000000c0: 50a5 593e 8204 943f 5f6e 113e 92df b03c
000000d0: 7719 f43d 9e9e 0fbe b0f0 76bf 0810 f43e
000000e0: 93b9 aabb b14f dbbd 4ce9 aebe 2dad e63e
000000f0: fd30 4a3f 3d77 873e 93bf 49be 3a1a dbbd
00000100: 405a 003e 153d 16bd 322d 95bd 457f 343f
00000110: 14d9 26be 59c3 443e b7c9 8fbe c812 853e
00000120: d699 50be abbf 913d 938b 153f cbc1 f73e
00000130: dc87 d8be d5a7 b83e c463 443f a15d 6f3e
00000140: 6d77 47bf 6271 77bf 77b8 9bbd 9474 633d
00000150: 4c1e 0b3f 8be4 49bf d044 3c3d 3cba 953e
00000160: 248b 193f 873b 13bf dafa 2f3f a3cd 9cbe
00000170: fcda 2d3e 979c fcbe 2a6d e5be eae6 4e3c
00000180: 310d f5bd b55b 223b 20c9 31be 0257 ccbd
00000190: 9063 38bf f8a0 533d 9afc 363c 5ea2 5cbe
000001a0: 0637 eabe 09c6 803e 3ad8 35bf a302 33bf
000001b0: f66e f3be 6290 b43d 67e1 a9be e391 9cbe
000001c0: 373e e9bd ffab a1be 1e13 e4be dc68 443e
000001d0: a1d1 b1be b939 14bf 89bf 6e3d 8bc5 35bf
000001e0: de63 0ebe 71d4 c3be cc2a e8be 70d2 38bc
000001f0: ac5f 8a3e 47e0 3cbe 7c9c 96bd d4d5 bebe
00000200: 147e e93e 82d7 e6bb dd1d 293f 7b4a 603f
00000210: 5b6b e53e 2c31 e3bc e170 803f 2611 fe3c
00000220: 180c 1dbf c7dc d43d 14f0 9ebe 9198 423f
00000230: 0bd8 b13d f2ef 30be 7556 96bd b4c8 a03d
00000240: 6ce5 3e3d 8d4a 953e 6cea 03be 3852 8b3d
00000250: ef1f 36bf e57a 193f 6271 a6bd f5e9 1fbd
00000260: eb69 073e 6cdf a3b8 371c d43d 9b49 b2bf
00000270: 4bfe 813e f53a a83d 3382 433d 5c9a 823c
00000280: b817 cb3c ebe0 d33c abfb 15bc 4154 853f
00000290: 8c89 3b3d 2648 e7bd d2e9 0c3d c35b 873d
000002a0: ad6c 21be e018 5abd 6901 7cbd 2b5a a7bd
000002b0: ad2b 143f 8323 0ebf d970 903e 95cb b5bd
000002c0: 67fd b8bd d24e 33bc a28e f23c 2afb 83bd
000002d0: 5b3a 00be d794 92bf 1b1e 49bd 0520 18bd
000002e0: f1a2 b4bd ef70 8e3b 8586 b93f 7713 8c3d
000002f0: 2c5d 16be 8cc6 08be 1acb a2bc 3887 9a3c
00000300: b5c1 1b3d 177a 28bd 3175 93bb 454f 41bd
00000310: 4d5c f3bd 2b94 363e 5815 33bd fd2d 3abe
00000320: 6c8e cc3d 92dd a3bd cd3f 26be 9c5b bdbd
00000330: ab02 bd3d e773 123d 2998 1a3e a6d4 873d
00000340: 8cde 393e a1cc 08be 065a 90be 7d0f 6b3e
00000350: 3d56 d7bc cf56 1f3d c38f 633d e9f7 3fbd
00000360: 5335 6b3c 9ee8 07bf 463f 9c3e 11b9 75be
00000370: 389d 30bf 0614 e43e 421c f3be f849 4cbe
00000380: 40f0 d93d d3e6 d3b8 1546 7dbe 292a bfbe
00000390: 2a2d ea3e 3e9f a6be 1959 26bf 2796 ddbc
000003a0: 7e3a 73be 1a8d 8cbd a6de f53d bcb0 88be
000003b0: c748 163e b239 fdbe f5c6 a23e a807 2dbe
000003c0: 4423 a5be f37c 363e 9ac4 23be ecce 423d
000003d0: 0fb0 e93d f8a9 753d abab c2bd 7e15 edbd
000003e0: 7dba 203f ba9c 97bd 60d2 1cbf 867f c63e
000003f0: 93c7 973e 6345 ccbe 5270 853e ec5b 05be
-0.054048423 -0.5376774 -0.69656795 0.14115469 -0.26689956 -0.0049118623 -0.2722833 -0.112068035
-0.41301724 -0.3853063 0.5024683 -0.24991986 0.63883376 -0.12599148 -0.22140461 -0.1470633
-0.3165155 0.040168542 -0.6000065 -0.38738537 -0.19175652 -0.15108126 -0.27887204 -0.12553678
-0.24036354 0.3997239 -0.018883498 1.0296906 -0.6038856 0.36689407 0.19568871 0.53958535
-0.06817148 0.052553985 -0.33117658 0.011710259 -0.8785275 -0.75741744 -0.33584157 0.14506762
-0.2673488 0.5948834 0.23148827 -0.05791656 0.18727383 0.30456367 -0.2769756 -0.5003867
0.21254468 1.1563876 0.1420226 0.021590982 0.119189195 -0.14025351 -0.9646101 0.4766848
-0.0052101105 -0.10708559 -0.34162366 0.45053998 0.78981 0.2645816 -0.19701986 -0.10698362
0.12534428 -0.036679346 -0.07284011 0.705067 -0.16293746 0.19215144 -0.28083584 0.2599089
-0.20371184 0.07116636 0.584161 0.4839004 -0.42291152 0.36065546 0.7671473 0.2337556
-0.77916604 -0.96657383 -0.07603543 0.0555311 0.54343104 -0.78864354 0.045964062 0.29243648
0.59977937 -0.57512707 0.68742144 -0.30625638 0.16978067 -0.4933822 -0.44809848 0.012628296
-0.11965407 0.00247739 -0.1736188 -0.09977533 -0.7202692 0.051667184 0.011168623 -0.21546313
-0.45745105 0.2515109 -0.7103306 -0.699259 -0.47545594 0.08816601 -0.3317978 -0.30580053
-0.1138882 -0.31576535 -0.44545835 0.19180626 -0.34730247 -0.5790058 0.05828813 -0.7100455
-0.13905284 -0.38248017 -0.4534515 -0.011280641 0.27026117 -0.1844493 -0.07354066 -0.37272513
0.45604002 -0.0070447335 0.6606119 0.8761365 0.44808468 -0.027733408 1.0034448 0.031014036
-0.6134658 0.103936724 -0.3104254 0.7601405 0.08683785 -0.17279032 -0.07340709 0.07850781
0.046605512 0.2915844 -0.12882394 0.06802791 -0.71142477 0.5995315 -0.08127095 -0.03904148
0.13223998 -7.814061e-05 0.10356944 -1.3928713 0.25389323 0.0821437 0.04773159 0.015942745
0.024791583 0.025864085 -0.009154241 1.0416337 0.04578547 -0.11293058 0.034402676 0.06609299
-0.15764113 -0.05324638 -0.061524782 -0.08171495 0.57879144 -0.55522937 0.28211096 -0.08876721
-0.09032708 -0.010944085 0.029609028 -0.0644439 -0.12522261 -1.1451672 -0.049100976 -0.03713991
-0.08820141 0.004346959 1.4494177 0.0683965 -0.1468398 -0.1335699 -0.019872237 0.018863305
0.03802653 -0.04113206 -0.0045000543 -0.047194738 -0.11882839 0.17829959 -0.043721527 -0.18181606
0.09988102 -0.080012456 -0.16235276 -0.09245989 0.092290245 0.035755064 0.15097107 0.06632356
0.18151301 -0.1335931 -0.28193682 0.22955127 -0.026286239 0.038901147 0.055557024 -0.046867285
0.014355975 -0.5308932 0.30517024 -0.23996378 -0.68989897 0.44546527 -0.47482497 -0.19950092
0.10641527 -0.000101042584 -0.24733765 -0.37336853 0.45737582 -0.32543367 -0.649797 -0.027049137
-0.23752782 -0.068628505 0.120053574 -0.26697338 0.146762 -0.4945808 0.31792417 -0.16897452
-0.32253468 0.17821102 -0.15992966 0.047560617 0.11410534 0.059976548 -0.09505399 -0.11576365
0.6278456 -0.0740294 -0.61258507 0.38769168 0.2964445 -0.39896688 0.26062256 -0.13023347

module.block1_3.conv1.weight f4 [30, 1, 3, 3]
00000000: 500b 27be 43c1 50be d3e6 24be 74f6 51be
00000010: 9150 b63b ed71 20be d345 56be 6d75 71bd
00000020: 557a 5abe 6aaf c0bd cb66 4bbe ae64 e2bd
00000030: b442 3cbe 2ebd 30be 5912 9cbd 387a 4bbe
00000040: 2445 eabd e90c 12be b223 143e 8b69 813e
00000050: 30bd 913d a565 2f3e 170d 803c aa8b 7e3e
00000060: 4adf 313e 91d5 643e cd6c 7b3e 258a 73be
00000070: e98b 66be 3091 5dbd f52a b6be 668c 44bd
00000080: 8674 c9be 6318 6fbd 9a6c a1be ab82 65be
00000090: 1ed6 e9be 01d7 96be 7b22 68be 1c56 25be
000000a0: dcbd 03be 1aea 823c 62fa 37be 6ce2 2dbe
000000b0: 3794 0dbe 380c 7abe 73ea cbbd 08f7 e1bd
000000c0: 4343 55be 5a13 e7bd 8d15 52be f131 23be
000000d0: 376b d2bd 8968 b2be bc7f 46be 7dba 3abe
000000e0: 405b 80be 6aec 2cbe b19f 59be e3e4 3fbe
000000f0: 0e33 8ebe 5efc 47be a596 54be 777a 363f
00000100: 4ee7 9a3e 0f96 183d 37f4 d63c 3d8f 3cbe
00000110: 803e 54be a893 0c3c f1ef 67be 2b1c 63be
00000120: 5681 fbbb af59 4cbe 3fb1 7fbd b614 2ebd
00000130: 2e77 3f3f 3144 31be 9807 253d fa15 1fbe
00000140: 5372 85bd 34a4 373e 7ee7 213e 61a4 173e
00000150: 35db 4f3e 3612 503e 96fc 6a3e 7b9b 2b3e
00000160: d7b0 493e f754 5d3e 86b7 ccbe 4498 ccbe
00000170: bee0 adbe cae2 b6bc 52d9 60be 00a1 bdbc
00000180: 51eb 2d3f 666c ff3e 6c8b 2f3f 1eb9 af3e
00000190: 0455 323e 74b7 e13d 25b6 563d 6999 e53d
000001a0: 11f6 8cbc 9876 033e 09a1 453e 7947 a43e
000001b0: fb49 e0bd a58d 35be 2e04 82be 4a71 0dbe
000001c0: 0439 40be 8030 3ebe 52c9 32be 27a4 29be
000001d0: fce8 1abe 8d46 3ebe 31a7 0fbe 403a 16be
000001e0: db09 e5bd 054b 9ebd 6ab7 17be 2484 f4bd
000001f0: c6a6 0abe cccc 3bbe 85b5 713e 1ae4 d33d
00000200: 68ec 873e 5621 743e d509 653d 6710 9c3e
00000210: be73 6a3e 2db8 a33d cfc9 073e c3b1 0b3e
00000220: d59b 2e3e 5bbe cc3e 6abc db3d efaa 303d
00000230: afc6 8b3d 481f 843e c8d6 1d3e 87a4 6b3e
00000240: 3695 ffbd d551 35be 1f20 85be 26df 23be
00000250: ae9b a0be d291 54be fe77 ddbd 9619 26be
00000260: 582b 26be 7dd6 443e 27d8 823d bd7b 633e
00000270: 3b1a 823d cc1c 95bd a2be 843e 2967 703e
00000280: 7095 0e3e 2ba8 4e3e 720a 2cbe b40a edbd
00000290: c8e5 263e ba3c 80be 4d3b 20be f720 2b3e
000002a0: 399c 61bd d85b 8d3e 17e1 0c3f 6793 813e
000002b0: 4273 153e 798a 333e 60e6 2d3e 97bf f8bd
000002c0: 466c 7e3e cd3e 3d3e de37 063e c1cf 3b3e
000002d0: 8f15 3a3e dfa3 f23e 66cf f43d 564f 24be
000002e0: 95e4 b93d d796 06be 18e7 883e 1c05 c63e
000002f0: fb95 523d 109e 683e 9e1a 8b3e 297b 383d
00000300: e803 383e a09b 68be 8373 2b3e 9059 593e
00000310: 29c9 8b3e 7f30 943e b955 1dbe 52fb 30be
00000320: 68d3 93be e5ab 06be 6376 57be 4272 1abe
00000330: e266 9bbe 8740 4ebe 41ec 1dbe 62d7 abbe
00000340: 0028 76be aacc 17be 9092 7fbe d7d0 56be
00000350: cf9e 64be 16ce 58be 5382 8abe eadd 98be
00000360: 6bda 79be afbd 39be 9cc9 efbd 121f 88be
00000370: 68ff 853d 6cf7 9dbe fbb2 11be 98a8 ebbd
00000380: c0a9 93be 477b a43e abcc b03e 1041 6a3e
00000390: 7d13 a13e bbf9 933d 9f35 b13e 4e67 9b3e
000003a0: 04f3 653e 0865 303e 479f 3abe 6baf 03be
000003b0: 6c94 a3be 094e 29be fe61 fc3d 81a3 36be
000003c0: a2b3 9ebe 6f56 59be 71e6 6bbe 8bf9 9cbe
000003d0: 562c 3f3e c893 3ebe 9f4a 02bf 94f1 b23d
000003e0: 42bb 8cbe 1abe 083e 0301 a9be e803 2dbe
000003f0: a75d 9bbd 6725 3dbe 6523 56be 92a8 2fbe
-0.16312909 -0.20386223 -0.16103677 -0.2050417 0.0055638035 -0.15668459 -0.20925073 -0.058949877
-0.21335728 -0.094084576 -0.19863431 -0.110543594 -0.1838482 -0.17259666 -0.07620687 -0.19870842
-0.11438969 -0.14262737 0.14466742 0.25275835 0.07116163 0.17128618 0.015631242 0.24857965
0.17370334 0.22347094 0.24553223 -0.23783167 -0.22514309 -0.05409354 -0.3557965 -0.047985457
-0.39346713 -0.058372866 -0.3152817 -0.22413127 -0.4567117 -0.2946091 -0.22669403 -0.1614613
-0.12865394 0.015980769 -0.17966607 -0.16980904 -0.1382607 -0.24418724 -0.09956827 -0.110334456
-0.2082644 -0.11282988 -0.20516033 -0.1593702 -0.10274356 -0.3484538 -0.19384664 -0.18235202
-0.25069618 -0.1688706 -0.21252324 -0.18739657 -0.27773327 -0.19529864 -0.20760591 0.71280617
0.30254596 0.037252482 0.026239498 -0.18414016 -0.20726967 0.008580126 -0.22650124 -0.22178714
-0.00767533 -0.19956087 -0.062424894 -0.04250022 0.7479123 -0.17311169 0.040290445 -0.15535727
-0.06515946 0.17933732 0.15810964 0.148088 0.20298465 0.20319447 0.22947916 0.1675853
0.19696365 0.21614443 -0.39983767 -0.3995992 -0.33960527 -0.022324938 -0.21957901 -0.02314806
0.6793719 0.4988739 0.68572116 0.3432092 0.17415243 0.11021319 0.0524198 0.11210901
-0.017207177 0.12838209 0.19299711 0.3208578 -0.10951611 -0.17729814 -0.25393814 -0.13812748
-0.1877175 -0.18573189 -0.1745961 -0.16566525 -0.15127939 -0.185816 -0.14028622 -0.14670658
-0.111835204 -0.077291526 -0.1481606 -0.11939266 -0.13540182 -0.18339843 0.236044 0.10346241
0.2654755 0.23840842 0.05591758 0.30481264 0.22895715 0.07994113 0.13260578 0.1364203
0.17051633 0.3998898 0.107292965 0.043131765 0.06825005 0.25805116 0.15413964 0.23011981
-0.124796316 -0.17706998 -0.2600107 -0.16003093 -0.31368774 -0.20758751 -0.10813902 -0.16220698
-0.16227472 0.19222446 0.06388884 0.22215171 0.06352659 -0.07280883 0.2592669 0.23476852
0.13924193 0.20181338 -0.1680086 -0.11574307 0.16298592 -0.2504633 -0.15647621 0.16711794
-0.055080626 0.27609134 0.5503096 0.25307772 0.14594749 0.17533292 0.16982412 -0.12145918
0.2484599 0.18480988 0.13107249 0.1834097 0.18172286 0.4739065 0.119536206 -0.1604589
0.09076802 -0.13143478 0.2673881 0.38675773 0.051412564 0.22716546 0.27168745 0.04503933
0.1797024 -0.22715616 0.16743283 0.21225572 0.2730191 0.2894325 -0.15364732 -0.17283371
-0.28872228 -0.1315151 -0.21041255 -0.15082648 -0.3035193 -0.20141803 -0.15422155 -0.33562762
-0.24038696 -0.14824167 -0.24958253 -0.20978104 -0.22326206 -0.21172366 -0.27052554 -0.29856807
-0.24399726 -0.18138765 -0.11708376 -0.26586205 0.065428555 -0.3085283 -0.14228432 -0.11506766
-0.28840446 0.32125303 0.3453115 0.22876382 0.3146018 0.07225367 0.34611222 0.30352253
0.22455984 0.1722604 -0.18224822 -0.12859885 -0.31949174 -0.16533674 0.12323378 -0.1783581
-0.30996424 -0.21224378 -0.23037125 -0.30659136 0.18669257 -0.18611062 -0.5089511 0.087374836
-0.27486616 0.13353768 -0.33008584 -0.16896021 -0.07586222 -0.18471299 -0.2091194 -0.17154148

module.block1_3.conv2.weight f4 [30, 30, 1, 1]
00000000: 1a27 35be 658c a73d 78c5 e5be 8cdd 39bf
00000010: 7aa1 99bc 8c06 10be d761 e43d 39b0 2fbe
00000020: 605b 723e e646 9fbe 7583 ca3e 1530 3d3d
00000030: 1922 8fbe 3c2b 473e a887 f0bd 8972 6d3f
00000040: 71c6 09be 74bd b63d f1d9 19bf 703c e13e
00000050: 84ed e1bd e9a3 f43e 8276 3dbd 3a97 8c3d
00000060: aef3 aebe 50b0 15ba fd51 fd3e fee3 853e
00000070: 7787 ee3e 563e aebe c320 123f ea6b 52be
00000080: 6853 593e 1b3b 9ebe da19 9cbf 4b4e aa3d
00000090: 5576 153d 21da 1f3e 6b2a 553e a9f0 2b3f
000000a0: dfcc 4fbe 3b38 06bf 544e 073e 3f8f 0cbf
000000b0: c48a b73e 64c3 4bbe 33c7 3c3f 0284 7cbf
000000c0: 017d c73e 0113 96bf d1a9 e33e 0bb5 993e
000000d0: 9f9c 073f 3e5f 4c3c 74ba 363f fe0f 85be
000000e0: 66e2 563e 745b 843e aae1 b03f 0a6d 1bbe
000000f0: b09b 52be f4b3 6dbf 30aa 38be b449 aabd
00000100: 6ba8 32bf 72ce 0f3f 3d1a 2e3e d061 e2bd
00000110: 0624 c93e db6d 413f 5c7a 3fbd bcbe 39bf
00000120: cf09 b3bd 03b7 153f a27e c8be b8f4 2cbf
00000130: 9c2a a1be 1f83 de3e 6f19 d2bd fd34 10bf
00000140: 2c9a fabe 09ff 36bf 77eb 5d3e 438f f73e
00000150: 4859 64bf 0895 343f 2d8e 0d3f 78e1 af3e
00000160: 219d 873e 5101 4cbd 65e1 8bbe 44ea 0dbf
00000170: 6d55 b1be 5521 29bf e424 d0be d3a3 4f3e
00000180: 19c7 203d fb02 08bf 81de ff3e a92a 743e
00000190: 55fb a7be b7ca b93d 83a1 0d3f 415a bd3e
000001a0: ec3d bbbc 00de 62bc 837d d43d 4f55 e03c
000001b0: b9cc 143d 063c 1fbe 7ed9 c2be 6919 bbbe
000001c0: e622 02bd 918e 663d a435 5d3e d63b b9be
000001d0: 2706 f83e bb88 a63e 6eed 0c3d 8841 283f
000001e0: aaa0 5abf 3740 9d3d 5521 a7be cb7a ae3f
000001f0: 4572 143f 122b 583e e590 35bf 2807 18bc
00000200: e587 d23e bc5e ffbe 62a4 733f c020 dc3a
00000210: 584d 3dbf e899 8c3e 7c70 dabe 5d4d d4bd
00000220: 5f5d d4be 6149 933e 4575 0a3f b46a 27be
00000230: 1124 723e e245 0a3f 7469 91be 0e47 df3e
00000240: b459 babe 79f9 1a3e c6a1 afbe 7fba de3c
00000250: 4aea 30bd 0c3b 1cbf e16f 94be 3620 6f3f
00000260: 1a1f 29be d8d7 bdbf bb02 46bd e308 fc3e
00000270: df68 c83d 98e7 c33c 031b 973e 9e8a b23e
00000280: 67db 913d d52e 75be c440 893e d571 1d3e
00000290: 105c e3be 8e07 f6be 1140 343e c497 e13d
000002a0: 2c41 92be 2e79 14bf 03c6 05bf 77de 5fbe
000002b0: 6e0c a83c ec7a 8f3f 976a d8be 4211 1f3e
000002c0: eab3 1cbf b1d7 c9bd 20b3 f43e 956d 1b3e
000002d0: d003 2f3e 5f3c eabd ed12 a03d b9a6 763e
000002e0: f453 87be 54d7 8fbe 7f33 833f 6e23 2d3e
000002f0: 751d 873d b9e0 cbbd 322b 913d beb8 55be
00000300: 31e6 843d 1457 6bbe 29aa 89bd a262 3e3c
00000310: ed74 18be e4e2 8ebe 2ebb a4bb e5b8 483c
00000320: dd4c dabd a85d 583d 926e 533f 23e8 d63d
00000330: 3f89 6a3e 5a7c f8bd d720 e93e b29b 4cbe
00000340: 2d5b d83d 74eb 713e b97b 663f 5e38 383e
00000350: afb8 923d 2970 8fbe f07f 0fbe e14a 15be
00000360: 1bb5 ff3e f538 b63e 41a2 aebd 5bd5 b4be
00000370: 5698 8d3e 3624 873e a32e 4f3f 806f cb3e
00000380: fd3f b2be e8c2 3bbe 0c53 7d3e 56da 463f
00000390: e828 d9bc ce28 4fbe 864a 41be 67d0 f5bd
000003a0: 1117 463e 7834 55be 46eb 5ebc fbdb 3fbe
000003b0: e760 043f adb3 86be 01dc 3dbe 2e89 993e
000003c0: fd34 cc3e 1bc2 363e 23e4 283f 6e88 813d
000003d0: 55ac 16be 1b31 8abd 3057 5cbd d065 273e
000003e0: baae 5cbf b21b df3e 100e d9bd c776 04bf
000003f0: 240e 71be b387 0bbf c3ee d5bd 90d4 3dbf
-0.17690697 0.08181075 -0.4487722 -0.7260368 -0.018753756 -0.14064997 0.11151474 -0.17157067
0.2366767 -0.3110878 0.3955342 0.046188433 -0.27955702 0.19450086 -0.117446244 0.9275289
-0.13454606 0.08922854 -0.6009818 0.43991423 -0.11031631 0.47781304 -0.046255596 0.06864782
-0.34170288 -0.00057101715 0.49476615 0.26150507 0.46587726 -0.34031934 0.5708124 -0.20548978
0.21223223 -0.3090447 -1.2195389 0.083157144 0.036489803 0.15610553 0.20816962 0.67164093
-0.20292996 -0.5242955 0.13213474 -0.54906076 0.35848057 -0.19898754 0.73741454 -0.9863893
0.38962558 -1.172455 0.44465497 0.30020937 0.5297336 0.012473879 0.71378255 -0.25988764
0.20984802 0.25851023 1.3818867 -0.15178314 -0.20567203 -0.9285271 -0.18033671 -0.08314839
-0.69788235 0.56174386 0.17002197 -0.110538125 0.39285296 0.7555825 -0.04674755 -0.7255666
-0.08742105 0.5848238 -0.39159113 -0.6756091 -0.3147782 0.43459412 -0.10258757 -0.56330854
-0.4894575 -0.714829 0.21671854 0.48351488 -0.8919873 0.70539904 0.5529507 0.34351707
0.26487067 -0.049805943 -0.273204 -0.55435586 -0.34635487 -0.66066486 -0.40653145 0.20277338
0.039252374 -0.5312955 0.49974445 0.23844399 -0.3280894 0.09071868 0.5532457 0.3698292
-0.022856675 -0.013846874 0.10375502 0.027384428 0.03632805 -0.15550241 -0.38056558 -0.36542824
-0.031771563 0.056288306 0.21602494 -0.36178464 0.48442194 0.32526192 0.034406118 0.6572499
-0.85401404 0.07678264 -0.32642618 1.3631223 0.5798686 0.2111018 -0.70924217 -0.00927905
0.41119304 -0.49876964 0.95172703 0.0016794428 -0.7394614 0.2746117 -0.42663944 -0.103663184
-0.41477486 0.2876692 0.5408519 -0.16349298 0.2364657 0.5401288 -0.28400767 0.43608898
-0.36396563 0.15134229 -0.3430311 0.027188538 -0.043192185 -0.610276 -0.28991607 0.93408525
-0.1651577 -1.4831495 -0.048342448 0.4922553 0.097856276 0.023914143 0.29512796 0.34871382
0.07121926 -0.23943646 0.26807225 0.15375455 -0.44406176 -0.4805264 0.17602564 0.11015275
-0.28565347 -0.57997406 -0.52255267 -0.21862207 0.02051374 1.1209388 -0.42268822 0.15533927
-0.6121203 -0.09855593 0.47792912 0.15178521 0.17091298 -0.11437296 0.0781611 0.24087037
-0.2643124 -0.2809397 1.025009 0.16908047 0.06597415 -0.09954972 0.07088317 -0.20871255
0.06489218 -0.22982436 -0.067219086 0.011620196 -0.14888354 -0.2790748 -0.0050271964 0.012251114
-0.10659192 0.052823693 0.8259059 0.10493495 0.22903918 -0.12133093 0.45532867 -0.19981268
0.105642654 0.23624974 0.90032536 0.17990252 0.07164132 -0.2801526 -0.14013648 -0.14579345
0.4994286 0.3559033 -0.08527041 -0.35319027 0.27655286 0.26394814 0.80930537 0.39733505
-0.34814444 -0.1833607 0.24738711 0.77676904 -0.026508763 -0.2023041 -0.18876085 -0.1200264
0.19344737 -0.20820796 -0.013605898 -0.1873626 0.5171036 -0.26308957 -0.18540956 0.29987472
0.39884177 0.17847483 0.6597311 0.0632485 -0.14714177 -0.067476474 -0.053794086 0.16347432
-0.8620411 0.43575817 -0.10598385 -0.5174374 -0.2354055 -0.54503936 -0.10445931 -0.7415247

module.block2_1.shortcut.weight f4 [60, 30, 1, 1]
00000000: e9ad 5abe 9790 3b3d 6ce7 ae3e aa7a a53d
00000010: 69a4 333e f50e 023f c481 ba3e 0691 adbd
00000020: 292e 843d ce7a 893d 3300 17be 454e 543d
00000030: 83ff 67bf 2784 913e 432b 563e 11fb 11bf
00000040: ac8b 473b 9d54 26bf 551a 453e c6c6 b43e
00000050: e679 20bf 91db 243f 8782 99be 482f 7c3e
00000060: 7046 673f 8c8d 913e 3cca 50be 5c9f 07bf
00000070: 8927 8cbc bd70 283e 5006 373e dc55 e23d
00000080: b50b 1cbf 4eb6 4f3e 63de 84be 6676 5abe
00000090: 56e2 c83e c290 853d ac60 2cbf 938a 3bbd
000000a0: 7f50 ab3d c1cf 393f 0e1b 5f3e 9406 b5bd
000000b0: e5b5 003e 43be 70be 574c 1f3f 1f91 d83e
000000c0: 492d da3e 8519 09bf 9770 d13e 89d3 083d
000000d0: 782b 15bd 19ae 02bf f0b4 01be 1a6a f33e
000000e0: eae7 0f3e 52e4 3a3e 8152 553d 2a73 efbc
000000f0: 470e 173e 5d92 243d 0f75 c0be 5ed9 36be
00000100: 0e54 35be b728 f8bd 150e 6c3f d5e8 663e
00000110: b82e 01bd 1f92 51bc 15d5 90be 5444 06be
00000120: 50ec 803e 5b86 98be 0bee 51bd 2abc 9a3d
00000130: ea0e 40bb 2a56 aebe bddf e9bd a7b1 c5bd
00000140: b914 b3bc fc5a 403f 3fe6 2b3f c18f 02be
00000150: fd41 46be 0bee 0cbe b23c 9cbe a842 67be
00000160: a174 9b3c 5416 bb3e 09ec aabd c72c 5b3e
00000170: 8ddc fd3c 7641 21bc e508 bdbc a705 da3e
00000180: f9bc 203f 5ead e93d 29d2 b9be 695c cbbd
00000190: 2c88 17be fd76 0abe 9429 c1bb 7f17 e73d
000001a0: 0ea2 6fbd 551a cf3e 56b9 273f df60 003d
000001b0: 7d55 8ebe 2cb1 053e 4a35 72bd 5ac3 f6bd
000001c0: 4c67 6e3e 857d 02bf 623a 023f 07a7 383e
000001d0: e696 af3e 422d 113f ff88 90be 64d0 febe
000001e0: baaa a83d 88a1 053e d72b 17bd ad4c a0be
000001f0: ea25 89bc cb65 fd3c d080 8fbe 3299 e9bd
00000200: 891d 0d3e d8f9 b93d 3ae3 cdbc bea6 873d
00000210: e647 89be 504e 00bc 5178 6b3e 65b3 083e
00000220: e6a5 b23e 669c 5a3b 4fe6 cbbe d4dc f83e
00000230: 8037 c6bd 4aa3 26bf 97b8 a63e ae28 543e
00000240: d3f4 1b3f 9661 ba3c fc0a fbbe 00d3 0abf
00000250: ed8a 9a3e 610d ac3d c0aa 8bbe d763 3d3e
00000260: 3f45 82bd 3221 c33e fff3 d9bc 7a93 303d
00000270: 4783 463d adf7 42be 0977 7fbe aec2 85be
00000280: 78be 4d3e 4181 c03e 2e9c ccbd d9d1 7b3c
00000290: a897 dcbd 44dd a1bd 1e39 743e 6ba5 043f
000002a0: ade3 8dbc ddf1 acbd 0ff7 20be 4256 abbe
000002b0: 9b9e aa3d 6474 13bd 0b6a 913e 3de2 713e
000002c0: 3e85 ca3e 5d41 fc3e e06f 363e c809 c1be
000002d0: 46e2 a43d 7088 31bc 60da b93e fc74 5cbe
000002e0: 86d4 3e3d d5f2 bfbe 0cfd 53be 99dd dd3e
000002f0: 43ce 78be 8393 463e 6728 23be a144 a63d
00000300: 670e 353b 47ff 40bd 07b6 09bd 6265 253e
00000310: ca3c 39be 566e bc3e 00d5 ef3d c4f5 cabb
00000320: 913e 81be 4872 77be b9e6 97bd cb55 34be
00000330: d5ac 293f 4319 9a3e 1e03 923d 794c e8be
00000340: 53e1 dfbd e31b f8be 1c85 193e 4ab3 463e
00000350: 28cc 66bc d622 59be a28f 4d3c 2fdb 49be
00000360: a23a 86bf 4943 843e a587 28bd 421d db3e
00000370: fc39 7ebe f653 8c3d 191c 43bf 8df0 b9be
00000380: b6be c6bc 201e 19be d49e da3e 3d13 f7be
00000390: 22c8 c23e 39b7 113e d1ad ffbe 5172 4c3e
000003a0: f9b0 8b3e 8f88 b63e 45c6 963e c28d 8a3d
000003b0: 5277 2f3f 8b5e d6be c3b4 7d3d 5e27 2dbd
000003c0: 0ce6 41be ae98 fc3d c030 d33c f827 7fbe
000003d0: 3ffb 413d 1274 7c3d e41b c8be bf10 563d
000003e0: bfe3 263f a400 a9bd 9a14 03bd 5c0c 41be
000003f0: 2008 8abe a1b4 1abd 87cb 0d3e 4c99 333d
-0.21355404 0.04579219 0.34160936 0.08080037 0.17543186 0.5080407 0.36427128 -0.08474927
0.06454117 0.06712876 -0.1474617 0.051832456 -0.90624255 0.28421137 0.2091494 -0.5702372
0.003044824 -0.6497286 0.19248326 0.35307902 -0.62686 0.6439753 -0.29982397 0.24627411
0.90341854 0.28428304 -0.20389646 -0.5297754 -0.017108696 0.16449256 0.17873502 0.110515326
-0.60955364 0.20284387 -0.25950918 -0.21334228 0.3923518 0.06521751 -0.6733501 -0.04578645
0.08364963 0.7258263 0.21787664 -0.08839145 0.12569387 -0.23510079 0.6222586 0.4229822
0.42612675 -0.53554565 0.40906212 0.03340486 -0.03641841 -0.510469 -0.12666678 0.47541887
0.14053312 0.1825116 0.052080635 -0.02922972 0.1475154 0.040178645 -0.3758931 -0.17856357
-0.17707846 -0.12117141 0.9220899 0.22549756 -0.031538695 -0.012791186 -0.2828757 -0.13112003
0.25180292 -0.29790005 -0.051252406 0.07555421 -0.0029305764 -0.34050113 -0.11419628 -0.09653025
-0.021860467 0.7513883 0.671482 -0.1275015 -0.1936111 -0.13762681 -0.30515057 -0.22584021
0.018976511 0.36540473 -0.083458014 0.214038 0.030988956 -0.009842267 -0.02307553 0.42582437
0.6278835 0.1141002 -0.36293152 -0.09929735 -0.14798039 -0.13521953 -0.005894849 0.112837784
-0.058504157 0.40449777 0.65517175 0.031342383 -0.27799597 0.13055867 -0.05913285 -0.12048979
0.23281592 -0.5097278 0.50870335 0.18032466 0.34294814 0.5670968 -0.2822952 -0.49768364
0.082356885 0.130499 -0.036907043 -0.313085 -0.016741712 0.030932328 -0.28027964 -0.11406173
0.13780798 0.09080857 -0.025132764 0.066236004 -0.26812667 -0.007831171 0.22995116 0.13349684
0.34892195 0.003335738 -0.3982415 0.48605978 -0.096785545 -0.6509291 0.32562706 0.20718643
0.6092045 0.02275161 -0.49031818 -0.5422821 0.30184117 0.08400989 -0.2727871 0.18495117
-0.06360864 0.38111264 -0.026605604 0.043109395 0.04846504 -0.19039793 -0.24947752 -0.2612509
0.2009219 0.37598613 -0.099907264 0.015369856 -0.10771114 -0.07903531 0.23849913 0.5181491
-0.017320478 -0.08444569 -0.15719245 -0.33464247 0.08331033 -0.03599967 0.28401217 0.2362146
0.3955478 0.49268618 0.17816114 -0.37702775 0.08050971 -0.010835752 0.3629942 -0.21529001
0.046589397 -0.37489954 -0.20701998 0.43333128 -0.24297433 0.19392209 -0.15933381 0.08118559
0.0027626993 -0.04711845 -0.03362086 0.16151956 -0.18089595 0.3680293 0.117105484 -0.0061938483
-0.25243047 -0.24164689 -0.07417054 -0.17610852 0.66279346 0.30097398 0.07129501 -0.45370844
-0.10931649 -0.48458776 0.14992183 0.19404331 -0.014086761 -0.21204695 0.012546452 -0.19712518
-1.0486643 0.25832585 -0.041144986 0.4279576 -0.24826807 0.06851952 -0.7621475 -0.36316338
-0.02426086 -0.14952898 0.426993 -0.48256865 0.38043314 0.1423005 -0.499373 0.19965483
0.27283457 0.3565106 0.29448143 0.067653194 0.68541443 -0.41869006 0.061939966 -0.04227387
-0.18935412 0.12333809 0.025780082 -0.2491759 0.047358748 0.06163413 -0.3908378 0.052262064
0.6519126 -0.08252075 -0.03200207 -0.18852371 -0.26959324 -0.037769917 0.13847171 0.043847367
